…
I0321 20:49:02.634506 21340 net.cpp:257] The NetState phase (0) differed from the phase (1) specified by a rule in layer accuracy_fused_2
I0321 20:49:02.635164 21340 net.cpp:42] Initializing net from parameters: 
name: "nincaffe_res_e2_imagenet"
state {
  phase: TRAIN
}
layer {
  name: "data"
  type: "Data"
  top: "data"
  top: "label"
  include {
    phase: TRAIN
  }
  transform_param {
    mirror: true
    crop_size: 224
    mean_file: "data/imagenet/data/imagenet_mean.binaryproto"
  }
  data_param {
    source: "data/imagenet/data/ilsvrc12_train_lmdb"
    batch_size: 64
    backend: LMDB
  }
}
layer {
  name: "conv1_coarse"
  type: "Convolution"
  bottom: "data"
  top: "conv1_coarse"
  param {
    lr_mult: 0
    decay_mult: 0
  }
  param {
    lr_mult: 0
    decay_mult: 0
  }
  convolution_param {
    num_output: 96
    kernel_size: 11
    stride: 4
    weight_filler {
      type: "gaussian"
      mean: 0
      std: 0.01
    }
    bias_filler {
      type: "constant"
      value: 0
    }
  }
}
layer {
  name: "relu0_coarse"
  type: "ReLU"
  bottom: "conv1_coarse"
  top: "conv1_coarse"
}
layer {
  name: "cccp1_coarse"
  type: "Convolution"
  bottom: "conv1_coarse"
  top: "cccp1_coarse"
  param {
    lr_mult: 0
    decay_mult: 0
  }
  param {
    lr_mult: 0
    decay_mult: 0
  }
  convolution_param {
    num_output: 96
    kernel_size: 1
    stride: 1
    weight_filler {
      type: "gaussian"
      mean: 0
      std: 0.05
    }
    bias_filler {
      type: "constant"
      value: 0
    }
  }
}
layer {
  name: "relu1_coarse"
  type: "ReLU"
  bottom: "cccp1_coarse"
  top: "cccp1_coarse"
}
layer {
  name: "cccp2_coarse"
  type: "Convolution"
  bottom: "cccp1_coarse"
  top: "cccp2_coarse"
  param {
    lr_mult: 0
    decay_mult: 0
  }
  param {
    lr_mult: 0
    decay_mult: 0
  }
  convolution_param {
    num_output: 96
    kernel_size: 1
    stride: 1
    weight_filler {
      type: "gaussian"
      mean: 0
      std: 0.05
    }
    bias_filler {
      type: "constant"
      value: 0
    }
  }
}
layer {
  name: "relu2_coarse"
  type: "ReLU"
  bottom: "cccp2_coarse"
  top: "cccp2_coarse"
}
layer {
  name: "pool1_coarse"
  type: "Pooling"
  bottom: "cccp2_coarse"
  top: "pool1_coarse"
  pooling_param {
    pool: MAX
    kernel_size: 3
    stride: 2
  }
}
layer {
  name: "conv2_coarse"
  type: "Convolution"
  bottom: "pool1_coarse"
  top: "conv2_coarse"
  param {
    lr_mult: 0
    decay_mult: 0
  }
  param {
    lr_mult: 0
    decay_mult: 0
  }
  convolution_param {
    num_output: 256
    pad: 2
    kernel_size: 5
    stride: 1
    weight_filler {
      type: "gaussian"
      mean: 0
      std: 0.05
    }
    bias_filler {
      type: "constant"
      value: 0
    }
  }
}
layer {
  name: "relu3_coarse"
  type: "ReLU"
  bottom: "conv2_coarse"
  top: "conv2_coarse"
}
layer {
  name: "cccp3_coarse"
  type: "Convolution"
  bottom: "conv2_coarse"
  top: "cccp3_coarse"
  param {
    lr_mult: 0
    decay_mult: 0
  }
  param {
    lr_mult: 0
    decay_mult: 0
  }
  convolution_param {
    num_output: 256
    kernel_size: 1
    stride: 1
    weight_filler {
      type: "gaussian"
      mean: 0
      std: 0.05
    }
    bias_filler {
      type: "constant"
      value: 0
    }
  }
}
layer {
  name: "relu5_coarse"
  type: "ReLU"
  bottom: "cccp3_coarse"
  top: "cccp3_coarse"
}
layer {
  name: "cccp4_coarse"
  type: "Convolution"
  bottom: "cccp3_coarse"
  top: "cccp4_coarse"
  param {
    lr_mult: 0
    decay_mult: 0
  }
  param {
    lr_mult: 0
    decay_mult: 0
  }
  convolution_param {
    num_output: 256
    kernel_size: 1
    stride: 1
    weight_filler {
      type: "gaussian"
      mean: 0
      std: 0.05
    }
    bias_filler {
      type: "constant"
      value: 0
    }
  }
}
layer {
  name: "relu6_coarse"
  type: "ReLU"
  bottom: "cccp4_coarse"
  top: "cccp4_coarse"
}
layer {
  name: "pool2_coarse"
  type: "Pooling"
  bottom: "cccp4_coarse"
  top: "pool2_coarse"
  pooling_param {
    pool: MAX
    kernel_size: 3
    stride: 2
  }
}
layer {
  name: "conv3_coarse"
  type: "Convolution"
  bottom: "pool2_coarse"
  top: "conv3_coarse"
  param {
    lr_mult: 0
    decay_mult: 0
  }
  param {
    lr_mult: 0
    decay_mult: 0
  }
  convolution_param {
    num_output: 384
    pad: 1
    kernel_size: 3
    stride: 1
    weight_filler {
      type: "gaussian"
      mean: 0
      std: 0.01
    }
    bias_filler {
      type: "constant"
      value: 0
    }
  }
}
layer {
  name: "relu7_coarse"
  type: "ReLU"
  bottom: "conv3_coarse"
  top: "conv3_coarse"
}
layer {
  name: "cccp5_coarse"
  type: "Convolution"
  bottom: "conv3_coarse"
  top: "cccp5_coarse"
  param {
    lr_mult: 0
    decay_mult: 0
  }
  param {
    lr_mult: 0
    decay_mult: 0
  }
  convolution_param {
    num_output: 384
    kernel_size: 1
    stride: 1
    weight_filler {
      type: "gaussian"
      mean: 0
      std: 0.05
    }
    bias_filler {
      type: "constant"
      value: 0
    }
  }
}
layer {
  name: "relu8_coarse"
  type: "ReLU"
  bottom: "cccp5_coarse"
  top: "cccp5_coarse"
}
layer {
  name: "cccp6_coarse"
  type: "Convolution"
  bottom: "cccp5_coarse"
  top: "cccp6_coarse"
  param {
    lr_mult: 0
    decay_mult: 0
  }
  param {
    lr_mult: 0
    decay_mult: 0
  }
  convolution_param {
    num_output: 384
    kernel_size: 1
    stride: 1
    weight_filler {
      type: "gaussian"
      mean: 0
      std: 0.05
    }
    bias_filler {
      type: "constant"
      value: 0
    }
  }
}
layer {
  name: "relu9_coarse"
  type: "ReLU"
  bottom: "cccp6_coarse"
  top: "cccp6_coarse"
}
layer {
  name: "pool3_coarse"
  type: "Pooling"
  bottom: "cccp6_coarse"
  top: "pool3_coarse"
  pooling_param {
    pool: MAX
    kernel_size: 3
    stride: 2
  }
}
layer {
  name: "drop_coarse"
  type: "Dropout"
  bottom: "pool3_coarse"
  top: "pool3_coarse"
  dropout_param {
    dropout_ratio: 0.5
  }
}
layer {
  name: "conv1_fine"
  type: "Convolution"
  bottom: "data"
  top: "conv1_fine"
  param {
    lr_mult: 1
    decay_mult: 1
  }
  param {
    lr_mult: 2
    decay_mult: 0
  }
  convolution_param {
    num_output: 96
    kernel_size: 11
    stride: 4
    weight_filler {
      type: "gaussian"
      mean: 0
      std: 0.01
    }
    bias_filler {
      type: "constant"
      value: 0
    }
  }
}
layer {
  name: "relu0_fine"
  type: "ReLU"
  bottom: "conv1_fine"
  top: "conv1_fine"
}
layer {
  name: "cccp1_fine"
  type: "Convolution"
  bottom: "conv1_fine"
  top: "cccp1_fine"
  param {
    lr_mult: 1
    decay_mult: 1
  }
  param {
    lr_mult: 2
    decay_mult: 0
  }
  convolution_param {
    num_output: 96
    kernel_size: 1
    stride: 1
    weight_filler {
      type: "gaussian"
      mean: 0
      std: 0.05
    }
    bias_filler {
      type: "constant"
      value: 0
    }
  }
}
layer {
  name: "relu1_fine"
  type: "ReLU"
  bottom: "cccp1_fine"
  top: "cccp1_fine"
}
layer {
  name: "cccp2_fine"
  type: "Convolution"
  bottom: "cccp1_fine"
  top: "cccp2_fine"
  param {
    lr_mult: 1
    decay_mult: 1
  }
  param {
    lr_mult: 2
    decay_mult: 0
  }
  convolution_param {
    num_output: 96
    kernel_size: 1
    stride: 1
    weight_filler {
      type: "gaussian"
      mean: 0
      std: 0.05
    }
    bias_filler {
      type: "constant"
      value: 0
    }
  }
}
layer {
  name: "relu2_fine"
  type: "ReLU"
  bottom: "cccp2_fine"
  top: "cccp2_fine"
}
layer {
  name: "pool1_fine"
  type: "Pooling"
  bottom: "cccp2_fine"
  top: "pool1_fine"
  pooling_param {
    pool: MAX
    kernel_size: 3
    stride: 2
  }
}
layer {
  name: "conv2_fine"
  type: "Convolution"
  bottom: "pool1_fine"
  top: "conv2_fine"
  param {
    lr_mult: 1
    decay_mult: 1
  }
  param {
    lr_mult: 2
    decay_mult: 0
  }
  convolution_param {
    num_output: 256
    pad: 2
    kernel_size: 5
    stride: 1
    weight_filler {
      type: "gaussian"
      mean: 0
      std: 0.05
    }
    bias_filler {
      type: "constant"
      value: 0
    }
  }
}
layer {
  name: "relu3_fine"
  type: "ReLU"
  bottom: "conv2_fine"
  top: "conv2_fine"
}
layer {
  name: "cccp3_fine"
  type: "Convolution"
  bottom: "conv2_fine"
  top: "cccp3_fine"
  param {
    lr_mult: 1
    decay_mult: 1
  }
  param {
    lr_mult: 2
    decay_mult: 0
  }
  convolution_param {
    num_output: 256
    kernel_size: 1
    stride: 1
    weight_filler {
      type: "gaussian"
      mean: 0
      std: 0.05
    }
    bias_filler {
      type: "constant"
      value: 0
    }
  }
}
layer {
  name: "relu5_fine"
  type: "ReLU"
  bottom: "cccp3_fine"
  top: "cccp3_fine"
}
layer {
  name: "cccp4_fine"
  type: "Convolution"
  bottom: "cccp3_fine"
  top: "cccp4_fine"
  param {
    lr_mult: 1
    decay_mult: 1
  }
  param {
    lr_mult: 2
    decay_mult: 0
  }
  convolution_param {
    num_output: 256
    kernel_size: 1
    stride: 1
    weight_filler {
      type: "gaussian"
      mean: 0
      std: 0.05
    }
    bias_filler {
      type: "constant"
      value: 0
    }
  }
}
layer {
  name: "relu6_fine"
  type: "ReLU"
  bottom: "cccp4_fine"
  top: "cccp4_fine"
}
layer {
  name: "pool2_fine"
  type: "Pooling"
  bottom: "cccp4_fine"
  top: "pool2_fine"
  pooling_param {
    pool: MAX
    kernel_size: 3
    stride: 2
  }
}
layer {
  name: "conv3_fine"
  type: "Convolution"
  bottom: "pool2_fine"
  top: "conv3_fine"
  param {
    lr_mult: 1
    decay_mult: 1
  }
  param {
    lr_mult: 2
    decay_mult: 0
  }
  convolution_param {
    num_output: 384
    pad: 1
    kernel_size: 3
    stride: 1
    weight_filler {
      type: "gaussian"
      mean: 0
      std: 0.01
    }
    bias_filler {
      type: "constant"
      value: 0
    }
  }
}
layer {
  name: "relu7_fine"
  type: "ReLU"
  bottom: "conv3_fine"
  top: "conv3_fine"
}
layer {
  name: "cccp5_fine"
  type: "Convolution"
  bottom: "conv3_fine"
  top: "cccp5_fine"
  param {
    lr_mult: 1
    decay_mult: 1
  }
  param {
    lr_mult: 2
    decay_mult: 0
  }
  convolution_param {
    num_output: 384
    kernel_size: 1
    stride: 1
    weight_filler {
      type: "gaussian"
      mean: 0
      std: 0.05
    }
    bias_filler {
      type: "constant"
      value: 0
    }
  }
}
layer {
  name: "relu8_fine"
  type: "ReLU"
  bottom: "cccp5_fine"
  top: "cccp5_fine"
}
layer {
  name: "cccp6_fine"
  type: "Convolution"
  bottom: "cccp5_fine"
  top: "cccp6_fine"
  param {
    lr_mult: 1
    decay_mult: 1
  }
  param {
    lr_mult: 2
    decay_mult: 0
  }
  convolution_param {
    num_output: 384
    kernel_size: 1
    stride: 1
    weight_filler {
      type: "gaussian"
      mean: 0
      std: 0.05
    }
    bias_filler {
      type: "constant"
      value: 0
    }
  }
}
layer {
  name: "relu9_fine"
  type: "ReLU"
  bottom: "cccp6_fine"
  top: "cccp6_fine"
}
layer {
  name: "pool3_fine"
  type: "Pooling"
  bottom: "cccp6_fine"
  top: "pool3_fine"
  pooling_param {
    pool: MAX
    kernel_size: 3
    stride: 2
  }
}
layer {
  name: "drop_fine"
  type: "Dropout"
  bottom: "pool3_fine"
  top: "pool3_fine"
  dropout_param {
    dropout_ratio: 0.5
  }
}
layer {
  name: "conv4-1024_fine"
  type: "Convolution"
  bottom: "pool3_fine"
  top: "conv4_fine"
  param {
    lr_mult: 1
    decay_mult: 1
  }
  param {
    lr_mult: 2
    decay_mult: 0
  }
  convolution_param {
    num_output: 1024
    pad: 1
    kernel_size: 3
    stride: 1
    weight_filler {
      type: "gaussian"
      mean: 0
      std: 0.05
    }
    bias_filler {
      type: "constant"
      value: 0
    }
  }
}
layer {
  name: "relu10_fine"
  type: "ReLU"
  bottom: "conv4_fine"
  top: "conv4_fine"
}
layer {
  name: "cccp7-1024_fine"
  type: "Convolution"
  bottom: "conv4_fine"
  top: "cccp7_fine"
  param {
    lr_mult: 1
    decay_mult: 1
  }
  param {
    lr_mult: 2
    decay_mult: 0
  }
  convolution_param {
    num_output: 1024
    kernel_size: 1
    stride: 1
    weight_filler {
      type: "gaussian"
      mean: 0
      std: 0.05
    }
    bias_filler {
      type: "constant"
      value: 0
    }
  }
}
layer {
  name: "relu11_fine"
  type: "ReLU"
  bottom: "cccp7_fine"
  top: "cccp7_fine"
}
layer {
  name: "cccp8-1024_fine"
  type: "Convolution"
  bottom: "cccp7_fine"
  top: "cccp8_fine"
  param {
    lr_mult: 1
    decay_mult: 1
  }
  param {
    lr_mult: 2
    decay_mult: 0
  }
  convolution_param {
    num_output: 1000
    kernel_size: 1
    stride: 1
    weight_filler {
      type: "gaussian"
      mean: 0
      std: 0.01
    }
    bias_filler {
      type: "constant"
      value: 0
    }
  }
}
layer {
  name: "relu12_fine"
  type: "ReLU"
  bottom: "cccp8_fine"
  top: "cccp8_fine"
}
layer {
  name: "pool4_fine"
  type: "Pooling"
  bottom: "cccp8_fine"
  top: "pool4_fine"
  pooling_param {
    pool: AVE
    kernel_size: 6
    stride: 1
  }
}
layer {
  name: "loss_fine"
  type: "SoftmaxWithLoss"
  bottom: "pool4_fine"
  bottom: "label"
  loss_weight: 0.3
}
layer {
  name: "fuse"
  type: "Eltwise"
  bottom: "pool3_coarse"
  bottom: "pool3_fine"
  top: "pool3_fused"
  eltwise_param {
    operation: SUM
    coeff: 0.5
    coeff: 0.5
  }
}
layer {
  name: "conv4-1024_fused"
  type: "Convolution"
  bottom: "pool3_fused"
  top: "conv4_fused"
  param {
    lr_mult: 0.1
    decay_mult: 1
  }
  param {
    lr_mult: 0.2
    decay_mult: 0
  }
  convolution_param {
    num_output: 1024
    pad: 1
    kernel_size: 3
    stride: 1
    weight_filler {
      type: "gaussian"
      mean: 0
      std: 0.05
    }
    bias_filler {
      type: "constant"
      value: 0
    }
  }
}
layer {
  name: "relu10_fused"
  type: "ReLU"
  bottom: "conv4_fused"
  top: "conv4_fused"
}
layer {
  name: "cccp7-1024_fused"
  type: "Convolution"
  bottom: "conv4_fused"
  top: "cccp7_fused"
  param {
    lr_mult: 0.1
    decay_mult: 1
  }
  param {
    lr_mult: 0.2
    decay_mult: 0
  }
  convolution_param {
    num_output: 1024
    kernel_size: 1
    stride: 1
    weight_filler {
      type: "gaussian"
      mean: 0
      std: 0.05
    }
    bias_filler {
      type: "constant"
      value: 0
    }
  }
}
layer {
  name: "relu11_fused"
  type: "ReLU"
  bottom: "cccp7_fused"
  top: "cccp7_fused"
}
layer {
  name: "cccp8-1024_fused"
  type: "Convolution"
  bottom: "cccp7_fused"
  top: "cccp8_fused"
  param {
    lr_mult: 0.1
    decay_mult: 1
  }
  param {
    lr_mult: 0.2
    decay_mult: 0
  }
  convolution_param {
    num_output: 1000
    kernel_size: 1
    stride: 1
    weight_filler {
      type: "gaussian"
      mean: 0
      std: 0.01
    }
    bias_filler {
      type: "constant"
      value: 0
    }
  }
}
layer {
  name: "relu12_fused"
  type: "ReLU"
  bottom: "cccp8_fused"
  top: "cccp8_fused"
}
layer {
  name: "pool4_fused"
  type: "Pooling"
  bottom: "cccp8_fused"
  top: "pool4_fused"
  pooling_param {
    pool: AVE
    kernel_size: 6
    stride: 1
  }
}
layer {
  name: "loss_fused"
  type: "SoftmaxWithLoss"
  bottom: "pool4_fused"
  bottom: "label"
  loss_weight: 1
}
I0321 20:49:02.635648 21340 layer_factory.hpp:74] Creating layer data
I0321 20:49:02.635679 21340 net.cpp:84] Creating Layer data
I0321 20:49:02.635696 21340 net.cpp:338] data -> data
I0321 20:49:02.635735 21340 net.cpp:338] data -> label
I0321 20:49:02.635758 21340 net.cpp:113] Setting up data
I0321 20:49:02.644228 21340 db.cpp:34] Opened lmdb data/imagenet/data/ilsvrc12_train_lmdb
I0321 20:49:02.645159 21340 data_layer.cpp:67] output data size: 64,3,224,224
I0321 20:49:02.645186 21340 data_transformer.cpp:22] Loading mean file from: data/imagenet/data/imagenet_mean.binaryproto
I0321 20:49:02.725769 21340 net.cpp:120] Top shape: 64 3 224 224 (9633792)
I0321 20:49:02.725800 21340 net.cpp:120] Top shape: 64 (64)
I0321 20:49:02.725811 21340 layer_factory.hpp:74] Creating layer data_data_0_split
I0321 20:49:02.725827 21340 net.cpp:84] Creating Layer data_data_0_split
I0321 20:49:02.725836 21340 net.cpp:380] data_data_0_split <- data
I0321 20:49:02.725859 21340 net.cpp:338] data_data_0_split -> data_data_0_split_0
I0321 20:49:02.725875 21340 net.cpp:338] data_data_0_split -> data_data_0_split_1
I0321 20:49:02.725885 21340 net.cpp:113] Setting up data_data_0_split
I0321 20:49:02.725903 21340 net.cpp:120] Top shape: 64 3 224 224 (9633792)
I0321 20:49:02.725921 21340 net.cpp:120] Top shape: 64 3 224 224 (9633792)
I0321 20:49:02.725926 21340 layer_factory.hpp:74] Creating layer label_data_1_split
I0321 20:49:02.725934 21340 net.cpp:84] Creating Layer label_data_1_split
I0321 20:49:02.725941 21340 net.cpp:380] label_data_1_split <- label
I0321 20:49:02.725950 21340 net.cpp:338] label_data_1_split -> label_data_1_split_0
I0321 20:49:02.725960 21340 net.cpp:338] label_data_1_split -> label_data_1_split_1
I0321 20:49:02.725970 21340 net.cpp:113] Setting up label_data_1_split
I0321 20:49:02.725978 21340 net.cpp:120] Top shape: 64 (64)
I0321 20:49:02.725985 21340 net.cpp:120] Top shape: 64 (64)
I0321 20:49:02.725989 21340 layer_factory.hpp:74] Creating layer conv1_coarse
I0321 20:49:02.726006 21340 net.cpp:84] Creating Layer conv1_coarse
I0321 20:49:02.726012 21340 net.cpp:380] conv1_coarse <- data_data_0_split_0
I0321 20:49:02.726021 21340 net.cpp:338] conv1_coarse -> conv1_coarse
I0321 20:49:02.726030 21340 net.cpp:113] Setting up conv1_coarse
I0321 20:49:02.727361 21340 net.cpp:120] Top shape: 64 96 54 54 (17915904)
I0321 20:49:02.727382 21340 layer_factory.hpp:74] Creating layer relu0_coarse
I0321 20:49:02.727398 21340 net.cpp:84] Creating Layer relu0_coarse
I0321 20:49:02.727404 21340 net.cpp:380] relu0_coarse <- conv1_coarse
I0321 20:49:02.727413 21340 net.cpp:327] relu0_coarse -> conv1_coarse (in-place)
I0321 20:49:02.727421 21340 net.cpp:113] Setting up relu0_coarse
I0321 20:49:02.727458 21340 net.cpp:120] Top shape: 64 96 54 54 (17915904)
I0321 20:49:02.727464 21340 layer_factory.hpp:74] Creating layer cccp1_coarse
I0321 20:49:02.727474 21340 net.cpp:84] Creating Layer cccp1_coarse
I0321 20:49:02.727481 21340 net.cpp:380] cccp1_coarse <- conv1_coarse
I0321 20:49:02.727490 21340 net.cpp:338] cccp1_coarse -> cccp1_coarse
I0321 20:49:02.727499 21340 net.cpp:113] Setting up cccp1_coarse
I0321 20:49:02.727861 21340 net.cpp:120] Top shape: 64 96 54 54 (17915904)
I0321 20:49:02.727876 21340 layer_factory.hpp:74] Creating layer relu1_coarse
I0321 20:49:02.727885 21340 net.cpp:84] Creating Layer relu1_coarse
I0321 20:49:02.727891 21340 net.cpp:380] relu1_coarse <- cccp1_coarse
I0321 20:49:02.727898 21340 net.cpp:327] relu1_coarse -> cccp1_coarse (in-place)
I0321 20:49:02.727905 21340 net.cpp:113] Setting up relu1_coarse
I0321 20:49:02.727912 21340 net.cpp:120] Top shape: 64 96 54 54 (17915904)
I0321 20:49:02.727918 21340 layer_factory.hpp:74] Creating layer cccp2_coarse
I0321 20:49:02.727928 21340 net.cpp:84] Creating Layer cccp2_coarse
I0321 20:49:02.727933 21340 net.cpp:380] cccp2_coarse <- cccp1_coarse
I0321 20:49:02.727941 21340 net.cpp:338] cccp2_coarse -> cccp2_coarse
I0321 20:49:02.727952 21340 net.cpp:113] Setting up cccp2_coarse
I0321 20:49:02.728309 21340 net.cpp:120] Top shape: 64 96 54 54 (17915904)
I0321 20:49:02.728320 21340 layer_factory.hpp:74] Creating layer relu2_coarse
I0321 20:49:02.728330 21340 net.cpp:84] Creating Layer relu2_coarse
I0321 20:49:02.728335 21340 net.cpp:380] relu2_coarse <- cccp2_coarse
I0321 20:49:02.728341 21340 net.cpp:327] relu2_coarse -> cccp2_coarse (in-place)
I0321 20:49:02.728348 21340 net.cpp:113] Setting up relu2_coarse
I0321 20:49:02.728354 21340 net.cpp:120] Top shape: 64 96 54 54 (17915904)
I0321 20:49:02.728359 21340 layer_factory.hpp:74] Creating layer pool1_coarse
I0321 20:49:02.728368 21340 net.cpp:84] Creating Layer pool1_coarse
I0321 20:49:02.728374 21340 net.cpp:380] pool1_coarse <- cccp2_coarse
I0321 20:49:02.728382 21340 net.cpp:338] pool1_coarse -> pool1_coarse
I0321 20:49:02.728392 21340 net.cpp:113] Setting up pool1_coarse
I0321 20:49:02.728415 21340 net.cpp:120] Top shape: 64 96 27 27 (4478976)
I0321 20:49:02.728422 21340 layer_factory.hpp:74] Creating layer conv2_coarse
I0321 20:49:02.728444 21340 net.cpp:84] Creating Layer conv2_coarse
I0321 20:49:02.728451 21340 net.cpp:380] conv2_coarse <- pool1_coarse
I0321 20:49:02.728463 21340 net.cpp:338] conv2_coarse -> conv2_coarse
I0321 20:49:02.728472 21340 net.cpp:113] Setting up conv2_coarse
I0321 20:49:02.753779 21340 net.cpp:120] Top shape: 64 256 27 27 (11943936)
I0321 20:49:02.753796 21340 layer_factory.hpp:74] Creating layer relu3_coarse
I0321 20:49:02.753804 21340 net.cpp:84] Creating Layer relu3_coarse
I0321 20:49:02.753809 21340 net.cpp:380] relu3_coarse <- conv2_coarse
I0321 20:49:02.753816 21340 net.cpp:327] relu3_coarse -> conv2_coarse (in-place)
I0321 20:49:02.753823 21340 net.cpp:113] Setting up relu3_coarse
I0321 20:49:02.753829 21340 net.cpp:120] Top shape: 64 256 27 27 (11943936)
I0321 20:49:02.753846 21340 layer_factory.hpp:74] Creating layer cccp3_coarse
I0321 20:49:02.753859 21340 net.cpp:84] Creating Layer cccp3_coarse
I0321 20:49:02.753868 21340 net.cpp:380] cccp3_coarse <- conv2_coarse
I0321 20:49:02.753878 21340 net.cpp:338] cccp3_coarse -> cccp3_coarse
I0321 20:49:02.753887 21340 net.cpp:113] Setting up cccp3_coarse
I0321 20:49:02.756438 21340 net.cpp:120] Top shape: 64 256 27 27 (11943936)
I0321 20:49:02.756453 21340 layer_factory.hpp:74] Creating layer relu5_coarse
I0321 20:49:02.756460 21340 net.cpp:84] Creating Layer relu5_coarse
I0321 20:49:02.756466 21340 net.cpp:380] relu5_coarse <- cccp3_coarse
I0321 20:49:02.756474 21340 net.cpp:327] relu5_coarse -> cccp3_coarse (in-place)
I0321 20:49:02.756484 21340 net.cpp:113] Setting up relu5_coarse
I0321 20:49:02.756490 21340 net.cpp:120] Top shape: 64 256 27 27 (11943936)
I0321 20:49:02.756494 21340 layer_factory.hpp:74] Creating layer cccp4_coarse
I0321 20:49:02.756502 21340 net.cpp:84] Creating Layer cccp4_coarse
I0321 20:49:02.756522 21340 net.cpp:380] cccp4_coarse <- cccp3_coarse
I0321 20:49:02.756533 21340 net.cpp:338] cccp4_coarse -> cccp4_coarse
I0321 20:49:02.756542 21340 net.cpp:113] Setting up cccp4_coarse
I0321 20:49:02.759100 21340 net.cpp:120] Top shape: 64 256 27 27 (11943936)
I0321 20:49:02.759114 21340 layer_factory.hpp:74] Creating layer relu6_coarse
I0321 20:49:02.759121 21340 net.cpp:84] Creating Layer relu6_coarse
I0321 20:49:02.759126 21340 net.cpp:380] relu6_coarse <- cccp4_coarse
I0321 20:49:02.759135 21340 net.cpp:327] relu6_coarse -> cccp4_coarse (in-place)
I0321 20:49:02.759140 21340 net.cpp:113] Setting up relu6_coarse
I0321 20:49:02.759146 21340 net.cpp:120] Top shape: 64 256 27 27 (11943936)
I0321 20:49:02.759160 21340 layer_factory.hpp:74] Creating layer pool2_coarse
I0321 20:49:02.759171 21340 net.cpp:84] Creating Layer pool2_coarse
I0321 20:49:02.759176 21340 net.cpp:380] pool2_coarse <- cccp4_coarse
I0321 20:49:02.759184 21340 net.cpp:338] pool2_coarse -> pool2_coarse
I0321 20:49:02.759192 21340 net.cpp:113] Setting up pool2_coarse
I0321 20:49:02.759202 21340 net.cpp:120] Top shape: 64 256 13 13 (2768896)
I0321 20:49:02.759207 21340 layer_factory.hpp:74] Creating layer conv3_coarse
I0321 20:49:02.759217 21340 net.cpp:84] Creating Layer conv3_coarse
I0321 20:49:02.759222 21340 net.cpp:380] conv3_coarse <- pool2_coarse
I0321 20:49:02.759230 21340 net.cpp:338] conv3_coarse -> conv3_coarse
I0321 20:49:02.759239 21340 net.cpp:113] Setting up conv3_coarse
I0321 20:49:02.795769 21340 net.cpp:120] Top shape: 64 384 13 13 (4153344)
I0321 20:49:02.795806 21340 layer_factory.hpp:74] Creating layer relu7_coarse
I0321 20:49:02.795821 21340 net.cpp:84] Creating Layer relu7_coarse
I0321 20:49:02.795830 21340 net.cpp:380] relu7_coarse <- conv3_coarse
I0321 20:49:02.795851 21340 net.cpp:327] relu7_coarse -> conv3_coarse (in-place)
I0321 20:49:02.795866 21340 net.cpp:113] Setting up relu7_coarse
I0321 20:49:02.795879 21340 net.cpp:120] Top shape: 64 384 13 13 (4153344)
I0321 20:49:02.795889 21340 layer_factory.hpp:74] Creating layer cccp5_coarse
I0321 20:49:02.795907 21340 net.cpp:84] Creating Layer cccp5_coarse
I0321 20:49:02.795917 21340 net.cpp:380] cccp5_coarse <- conv3_coarse
I0321 20:49:02.795933 21340 net.cpp:338] cccp5_coarse -> cccp5_coarse
I0321 20:49:02.795944 21340 net.cpp:113] Setting up cccp5_coarse
I0321 20:49:02.802074 21340 net.cpp:120] Top shape: 64 384 13 13 (4153344)
I0321 20:49:02.802095 21340 layer_factory.hpp:74] Creating layer relu8_coarse
I0321 20:49:02.802104 21340 net.cpp:84] Creating Layer relu8_coarse
I0321 20:49:02.802111 21340 net.cpp:380] relu8_coarse <- cccp5_coarse
I0321 20:49:02.802119 21340 net.cpp:327] relu8_coarse -> cccp5_coarse (in-place)
I0321 20:49:02.802126 21340 net.cpp:113] Setting up relu8_coarse
I0321 20:49:02.802134 21340 net.cpp:120] Top shape: 64 384 13 13 (4153344)
I0321 20:49:02.802139 21340 layer_factory.hpp:74] Creating layer cccp6_coarse
I0321 20:49:02.802150 21340 net.cpp:84] Creating Layer cccp6_coarse
I0321 20:49:02.802155 21340 net.cpp:380] cccp6_coarse <- cccp5_coarse
I0321 20:49:02.802163 21340 net.cpp:338] cccp6_coarse -> cccp6_coarse
I0321 20:49:02.802175 21340 net.cpp:113] Setting up cccp6_coarse
I0321 20:49:02.808351 21340 net.cpp:120] Top shape: 64 384 13 13 (4153344)
I0321 20:49:02.808373 21340 layer_factory.hpp:74] Creating layer relu9_coarse
I0321 20:49:02.808385 21340 net.cpp:84] Creating Layer relu9_coarse
I0321 20:49:02.808392 21340 net.cpp:380] relu9_coarse <- cccp6_coarse
I0321 20:49:02.808398 21340 net.cpp:327] relu9_coarse -> cccp6_coarse (in-place)
I0321 20:49:02.808406 21340 net.cpp:113] Setting up relu9_coarse
I0321 20:49:02.808415 21340 net.cpp:120] Top shape: 64 384 13 13 (4153344)
I0321 20:49:02.808420 21340 layer_factory.hpp:74] Creating layer pool3_coarse
I0321 20:49:02.808434 21340 net.cpp:84] Creating Layer pool3_coarse
I0321 20:49:02.808440 21340 net.cpp:380] pool3_coarse <- cccp6_coarse
I0321 20:49:02.808449 21340 net.cpp:338] pool3_coarse -> pool3_coarse
I0321 20:49:02.808460 21340 net.cpp:113] Setting up pool3_coarse
I0321 20:49:02.808493 21340 net.cpp:120] Top shape: 64 384 6 6 (884736)
I0321 20:49:02.808501 21340 layer_factory.hpp:74] Creating layer drop_coarse
I0321 20:49:02.808522 21340 net.cpp:84] Creating Layer drop_coarse
I0321 20:49:02.808528 21340 net.cpp:380] drop_coarse <- pool3_coarse
I0321 20:49:02.808535 21340 net.cpp:327] drop_coarse -> pool3_coarse (in-place)
I0321 20:49:02.808542 21340 net.cpp:113] Setting up drop_coarse
I0321 20:49:02.808557 21340 net.cpp:120] Top shape: 64 384 6 6 (884736)
I0321 20:49:02.808563 21340 layer_factory.hpp:74] Creating layer conv1_fine
I0321 20:49:02.808575 21340 net.cpp:84] Creating Layer conv1_fine
I0321 20:49:02.808581 21340 net.cpp:380] conv1_fine <- data_data_0_split_1
I0321 20:49:02.808588 21340 net.cpp:338] conv1_fine -> conv1_fine
I0321 20:49:02.808596 21340 net.cpp:113] Setting up conv1_fine
I0321 20:49:02.809970 21340 net.cpp:120] Top shape: 64 96 54 54 (17915904)
I0321 20:49:02.809984 21340 layer_factory.hpp:74] Creating layer relu0_fine
I0321 20:49:02.809994 21340 net.cpp:84] Creating Layer relu0_fine
I0321 20:49:02.809999 21340 net.cpp:380] relu0_fine <- conv1_fine
I0321 20:49:02.810005 21340 net.cpp:327] relu0_fine -> conv1_fine (in-place)
I0321 20:49:02.810012 21340 net.cpp:113] Setting up relu0_fine
I0321 20:49:02.810019 21340 net.cpp:120] Top shape: 64 96 54 54 (17915904)
I0321 20:49:02.810024 21340 layer_factory.hpp:74] Creating layer cccp1_fine
I0321 20:49:02.810035 21340 net.cpp:84] Creating Layer cccp1_fine
I0321 20:49:02.810041 21340 net.cpp:380] cccp1_fine <- conv1_fine
I0321 20:49:02.810048 21340 net.cpp:338] cccp1_fine -> cccp1_fine
I0321 20:49:02.810055 21340 net.cpp:113] Setting up cccp1_fine
I0321 20:49:02.810422 21340 net.cpp:120] Top shape: 64 96 54 54 (17915904)
I0321 20:49:02.810432 21340 layer_factory.hpp:74] Creating layer relu1_fine
I0321 20:49:02.810443 21340 net.cpp:84] Creating Layer relu1_fine
I0321 20:49:02.810448 21340 net.cpp:380] relu1_fine <- cccp1_fine
I0321 20:49:02.810454 21340 net.cpp:327] relu1_fine -> cccp1_fine (in-place)
I0321 20:49:02.810461 21340 net.cpp:113] Setting up relu1_fine
I0321 20:49:02.810467 21340 net.cpp:120] Top shape: 64 96 54 54 (17915904)
I0321 20:49:02.810472 21340 layer_factory.hpp:74] Creating layer cccp2_fine
I0321 20:49:02.810483 21340 net.cpp:84] Creating Layer cccp2_fine
I0321 20:49:02.810488 21340 net.cpp:380] cccp2_fine <- cccp1_fine
I0321 20:49:02.810495 21340 net.cpp:338] cccp2_fine -> cccp2_fine
I0321 20:49:02.810501 21340 net.cpp:113] Setting up cccp2_fine
I0321 20:49:02.810885 21340 net.cpp:120] Top shape: 64 96 54 54 (17915904)
I0321 20:49:02.810895 21340 layer_factory.hpp:74] Creating layer relu2_fine
I0321 20:49:02.810905 21340 net.cpp:84] Creating Layer relu2_fine
I0321 20:49:02.810911 21340 net.cpp:380] relu2_fine <- cccp2_fine
I0321 20:49:02.810917 21340 net.cpp:327] relu2_fine -> cccp2_fine (in-place)
I0321 20:49:02.810923 21340 net.cpp:113] Setting up relu2_fine
I0321 20:49:02.810930 21340 net.cpp:120] Top shape: 64 96 54 54 (17915904)
I0321 20:49:02.810933 21340 layer_factory.hpp:74] Creating layer pool1_fine
I0321 20:49:02.810943 21340 net.cpp:84] Creating Layer pool1_fine
I0321 20:49:02.810950 21340 net.cpp:380] pool1_fine <- cccp2_fine
I0321 20:49:02.810956 21340 net.cpp:338] pool1_fine -> pool1_fine
I0321 20:49:02.810962 21340 net.cpp:113] Setting up pool1_fine
I0321 20:49:02.810971 21340 net.cpp:120] Top shape: 64 96 27 27 (4478976)
I0321 20:49:02.810976 21340 layer_factory.hpp:74] Creating layer conv2_fine
I0321 20:49:02.810992 21340 net.cpp:84] Creating Layer conv2_fine
I0321 20:49:02.810997 21340 net.cpp:380] conv2_fine <- pool1_fine
I0321 20:49:02.811007 21340 net.cpp:338] conv2_fine -> conv2_fine
I0321 20:49:02.811014 21340 net.cpp:113] Setting up conv2_fine
I0321 20:49:02.836030 21340 net.cpp:120] Top shape: 64 256 27 27 (11943936)
I0321 20:49:02.836046 21340 layer_factory.hpp:74] Creating layer relu3_fine
I0321 20:49:02.836055 21340 net.cpp:84] Creating Layer relu3_fine
I0321 20:49:02.836061 21340 net.cpp:380] relu3_fine <- conv2_fine
I0321 20:49:02.836078 21340 net.cpp:327] relu3_fine -> conv2_fine (in-place)
I0321 20:49:02.836102 21340 net.cpp:113] Setting up relu3_fine
I0321 20:49:02.836110 21340 net.cpp:120] Top shape: 64 256 27 27 (11943936)
I0321 20:49:02.836114 21340 layer_factory.hpp:74] Creating layer cccp3_fine
I0321 20:49:02.836127 21340 net.cpp:84] Creating Layer cccp3_fine
I0321 20:49:02.836134 21340 net.cpp:380] cccp3_fine <- conv2_fine
I0321 20:49:02.836144 21340 net.cpp:338] cccp3_fine -> cccp3_fine
I0321 20:49:02.836153 21340 net.cpp:113] Setting up cccp3_fine
I0321 20:49:02.838706 21340 net.cpp:120] Top shape: 64 256 27 27 (11943936)
I0321 20:49:02.838717 21340 layer_factory.hpp:74] Creating layer relu5_fine
I0321 20:49:02.838726 21340 net.cpp:84] Creating Layer relu5_fine
I0321 20:49:02.838731 21340 net.cpp:380] relu5_fine <- cccp3_fine
I0321 20:49:02.838737 21340 net.cpp:327] relu5_fine -> cccp3_fine (in-place)
I0321 20:49:02.838742 21340 net.cpp:113] Setting up relu5_fine
I0321 20:49:02.838748 21340 net.cpp:120] Top shape: 64 256 27 27 (11943936)
I0321 20:49:02.838754 21340 layer_factory.hpp:74] Creating layer cccp4_fine
I0321 20:49:02.838767 21340 net.cpp:84] Creating Layer cccp4_fine
I0321 20:49:02.838771 21340 net.cpp:380] cccp4_fine <- cccp3_fine
I0321 20:49:02.838780 21340 net.cpp:338] cccp4_fine -> cccp4_fine
I0321 20:49:02.838789 21340 net.cpp:113] Setting up cccp4_fine
I0321 20:49:02.841305 21340 net.cpp:120] Top shape: 64 256 27 27 (11943936)
I0321 20:49:02.841317 21340 layer_factory.hpp:74] Creating layer relu6_fine
I0321 20:49:02.841325 21340 net.cpp:84] Creating Layer relu6_fine
I0321 20:49:02.841330 21340 net.cpp:380] relu6_fine <- cccp4_fine
I0321 20:49:02.841336 21340 net.cpp:327] relu6_fine -> cccp4_fine (in-place)
I0321 20:49:02.841342 21340 net.cpp:113] Setting up relu6_fine
I0321 20:49:02.841349 21340 net.cpp:120] Top shape: 64 256 27 27 (11943936)
I0321 20:49:02.841353 21340 layer_factory.hpp:74] Creating layer pool2_fine
I0321 20:49:02.841363 21340 net.cpp:84] Creating Layer pool2_fine
I0321 20:49:02.841369 21340 net.cpp:380] pool2_fine <- cccp4_fine
I0321 20:49:02.841377 21340 net.cpp:338] pool2_fine -> pool2_fine
I0321 20:49:02.841383 21340 net.cpp:113] Setting up pool2_fine
I0321 20:49:02.841397 21340 net.cpp:120] Top shape: 64 256 13 13 (2768896)
I0321 20:49:02.841403 21340 layer_factory.hpp:74] Creating layer conv3_fine
I0321 20:49:02.841410 21340 net.cpp:84] Creating Layer conv3_fine
I0321 20:49:02.841416 21340 net.cpp:380] conv3_fine <- pool2_fine
I0321 20:49:02.841423 21340 net.cpp:338] conv3_fine -> conv3_fine
I0321 20:49:02.841429 21340 net.cpp:113] Setting up conv3_fine
I0321 20:49:02.876672 21340 net.cpp:120] Top shape: 64 384 13 13 (4153344)
I0321 20:49:02.876689 21340 layer_factory.hpp:74] Creating layer relu7_fine
I0321 20:49:02.876698 21340 net.cpp:84] Creating Layer relu7_fine
I0321 20:49:02.876703 21340 net.cpp:380] relu7_fine <- conv3_fine
I0321 20:49:02.876711 21340 net.cpp:327] relu7_fine -> conv3_fine (in-place)
I0321 20:49:02.876719 21340 net.cpp:113] Setting up relu7_fine
I0321 20:49:02.876727 21340 net.cpp:120] Top shape: 64 384 13 13 (4153344)
I0321 20:49:02.876732 21340 layer_factory.hpp:74] Creating layer cccp5_fine
I0321 20:49:02.876745 21340 net.cpp:84] Creating Layer cccp5_fine
I0321 20:49:02.876750 21340 net.cpp:380] cccp5_fine <- conv3_fine
I0321 20:49:02.876760 21340 net.cpp:338] cccp5_fine -> cccp5_fine
I0321 20:49:02.876770 21340 net.cpp:113] Setting up cccp5_fine
I0321 20:49:02.882580 21340 net.cpp:120] Top shape: 64 384 13 13 (4153344)
I0321 20:49:02.882602 21340 layer_factory.hpp:74] Creating layer relu8_fine
I0321 20:49:02.882612 21340 net.cpp:84] Creating Layer relu8_fine
I0321 20:49:02.882618 21340 net.cpp:380] relu8_fine <- cccp5_fine
I0321 20:49:02.882625 21340 net.cpp:327] relu8_fine -> cccp5_fine (in-place)
I0321 20:49:02.882633 21340 net.cpp:113] Setting up relu8_fine
I0321 20:49:02.882640 21340 net.cpp:120] Top shape: 64 384 13 13 (4153344)
I0321 20:49:02.882647 21340 layer_factory.hpp:74] Creating layer cccp6_fine
I0321 20:49:02.882658 21340 net.cpp:84] Creating Layer cccp6_fine
I0321 20:49:02.882663 21340 net.cpp:380] cccp6_fine <- cccp5_fine
I0321 20:49:02.882685 21340 net.cpp:338] cccp6_fine -> cccp6_fine
I0321 20:49:02.882695 21340 net.cpp:113] Setting up cccp6_fine
I0321 20:49:02.888432 21340 net.cpp:120] Top shape: 64 384 13 13 (4153344)
I0321 20:49:02.888443 21340 layer_factory.hpp:74] Creating layer relu9_fine
I0321 20:49:02.888451 21340 net.cpp:84] Creating Layer relu9_fine
I0321 20:49:02.888456 21340 net.cpp:380] relu9_fine <- cccp6_fine
I0321 20:49:02.888465 21340 net.cpp:327] relu9_fine -> cccp6_fine (in-place)
I0321 20:49:02.888473 21340 net.cpp:113] Setting up relu9_fine
I0321 20:49:02.888479 21340 net.cpp:120] Top shape: 64 384 13 13 (4153344)
I0321 20:49:02.888485 21340 layer_factory.hpp:74] Creating layer pool3_fine
I0321 20:49:02.888494 21340 net.cpp:84] Creating Layer pool3_fine
I0321 20:49:02.888499 21340 net.cpp:380] pool3_fine <- cccp6_fine
I0321 20:49:02.888505 21340 net.cpp:338] pool3_fine -> pool3_fine
I0321 20:49:02.888512 21340 net.cpp:113] Setting up pool3_fine
I0321 20:49:02.888522 21340 net.cpp:120] Top shape: 64 384 6 6 (884736)
I0321 20:49:02.888528 21340 layer_factory.hpp:74] Creating layer drop_fine
I0321 20:49:02.888536 21340 net.cpp:84] Creating Layer drop_fine
I0321 20:49:02.888542 21340 net.cpp:380] drop_fine <- pool3_fine
I0321 20:49:02.888551 21340 net.cpp:327] drop_fine -> pool3_fine (in-place)
I0321 20:49:02.888559 21340 net.cpp:113] Setting up drop_fine
I0321 20:49:02.888568 21340 net.cpp:120] Top shape: 64 384 6 6 (884736)
I0321 20:49:02.888574 21340 layer_factory.hpp:74] Creating layer pool3_fine_drop_fine_0_split
I0321 20:49:02.888583 21340 net.cpp:84] Creating Layer pool3_fine_drop_fine_0_split
I0321 20:49:02.888588 21340 net.cpp:380] pool3_fine_drop_fine_0_split <- pool3_fine
I0321 20:49:02.888597 21340 net.cpp:338] pool3_fine_drop_fine_0_split -> pool3_fine_drop_fine_0_split_0
I0321 20:49:02.888605 21340 net.cpp:338] pool3_fine_drop_fine_0_split -> pool3_fine_drop_fine_0_split_1
I0321 20:49:02.888613 21340 net.cpp:113] Setting up pool3_fine_drop_fine_0_split
I0321 20:49:02.888622 21340 net.cpp:120] Top shape: 64 384 6 6 (884736)
I0321 20:49:02.888628 21340 net.cpp:120] Top shape: 64 384 6 6 (884736)
I0321 20:49:02.888634 21340 layer_factory.hpp:74] Creating layer conv4-1024_fine
I0321 20:49:02.888643 21340 net.cpp:84] Creating Layer conv4-1024_fine
I0321 20:49:02.888649 21340 net.cpp:380] conv4-1024_fine <- pool3_fine_drop_fine_0_split_0
I0321 20:49:02.888659 21340 net.cpp:338] conv4-1024_fine -> conv4_fine
I0321 20:49:02.888670 21340 net.cpp:113] Setting up conv4-1024_fine
I0321 20:49:03.029929 21340 net.cpp:120] Top shape: 64 1024 6 6 (2359296)
I0321 20:49:03.029965 21340 layer_factory.hpp:74] Creating layer relu10_fine
I0321 20:49:03.029979 21340 net.cpp:84] Creating Layer relu10_fine
I0321 20:49:03.029988 21340 net.cpp:380] relu10_fine <- conv4_fine
I0321 20:49:03.029996 21340 net.cpp:327] relu10_fine -> conv4_fine (in-place)
I0321 20:49:03.030009 21340 net.cpp:113] Setting up relu10_fine
I0321 20:49:03.030016 21340 net.cpp:120] Top shape: 64 1024 6 6 (2359296)
I0321 20:49:03.030024 21340 layer_factory.hpp:74] Creating layer cccp7-1024_fine
I0321 20:49:03.030038 21340 net.cpp:84] Creating Layer cccp7-1024_fine
I0321 20:49:03.030045 21340 net.cpp:380] cccp7-1024_fine <- conv4_fine
I0321 20:49:03.030055 21340 net.cpp:338] cccp7-1024_fine -> cccp7_fine
I0321 20:49:03.030066 21340 net.cpp:113] Setting up cccp7-1024_fine
I0321 20:49:03.071593 21340 net.cpp:120] Top shape: 64 1024 6 6 (2359296)
I0321 20:49:03.071629 21340 layer_factory.hpp:74] Creating layer relu11_fine
I0321 20:49:03.071641 21340 net.cpp:84] Creating Layer relu11_fine
I0321 20:49:03.071648 21340 net.cpp:380] relu11_fine <- cccp7_fine
I0321 20:49:03.071660 21340 net.cpp:327] relu11_fine -> cccp7_fine (in-place)
I0321 20:49:03.071671 21340 net.cpp:113] Setting up relu11_fine
I0321 20:49:03.071678 21340 net.cpp:120] Top shape: 64 1024 6 6 (2359296)
I0321 20:49:03.071686 21340 layer_factory.hpp:74] Creating layer cccp8-1024_fine
I0321 20:49:03.071696 21340 net.cpp:84] Creating Layer cccp8-1024_fine
I0321 20:49:03.071702 21340 net.cpp:380] cccp8-1024_fine <- cccp7_fine
I0321 20:49:03.071734 21340 net.cpp:338] cccp8-1024_fine -> cccp8_fine
I0321 20:49:03.071746 21340 net.cpp:113] Setting up cccp8-1024_fine
I0321 20:49:03.112797 21340 net.cpp:120] Top shape: 64 1000 6 6 (2304000)
I0321 20:49:03.112818 21340 layer_factory.hpp:74] Creating layer relu12_fine
I0321 20:49:03.112828 21340 net.cpp:84] Creating Layer relu12_fine
I0321 20:49:03.112833 21340 net.cpp:380] relu12_fine <- cccp8_fine
I0321 20:49:03.112848 21340 net.cpp:327] relu12_fine -> cccp8_fine (in-place)
I0321 20:49:03.112855 21340 net.cpp:113] Setting up relu12_fine
I0321 20:49:03.112862 21340 net.cpp:120] Top shape: 64 1000 6 6 (2304000)
I0321 20:49:03.112867 21340 layer_factory.hpp:74] Creating layer pool4_fine
I0321 20:49:03.112877 21340 net.cpp:84] Creating Layer pool4_fine
I0321 20:49:03.112884 21340 net.cpp:380] pool4_fine <- cccp8_fine
I0321 20:49:03.112890 21340 net.cpp:338] pool4_fine -> pool4_fine
I0321 20:49:03.112900 21340 net.cpp:113] Setting up pool4_fine
I0321 20:49:03.112910 21340 net.cpp:120] Top shape: 64 1000 1 1 (64000)
I0321 20:49:03.112916 21340 layer_factory.hpp:74] Creating layer loss_fine
I0321 20:49:03.112931 21340 net.cpp:84] Creating Layer loss_fine
I0321 20:49:03.112936 21340 net.cpp:380] loss_fine <- pool4_fine
I0321 20:49:03.112943 21340 net.cpp:380] loss_fine <- label_data_1_split_0
I0321 20:49:03.112952 21340 net.cpp:338] loss_fine -> (automatic)
I0321 20:49:03.112960 21340 net.cpp:113] Setting up loss_fine
I0321 20:49:03.112973 21340 layer_factory.hpp:74] Creating layer loss_fine
I0321 20:49:03.113234 21340 net.cpp:120] Top shape: (1)
I0321 20:49:03.113241 21340 net.cpp:122]     with loss weight 0.3
I0321 20:49:03.113282 21340 layer_factory.hpp:74] Creating layer fuse
I0321 20:49:03.113292 21340 net.cpp:84] Creating Layer fuse
I0321 20:49:03.113299 21340 net.cpp:380] fuse <- pool3_coarse
I0321 20:49:03.113306 21340 net.cpp:380] fuse <- pool3_fine_drop_fine_0_split_1
I0321 20:49:03.113315 21340 net.cpp:338] fuse -> pool3_fused
I0321 20:49:03.113325 21340 net.cpp:113] Setting up fuse
I0321 20:49:03.113338 21340 net.cpp:120] Top shape: 64 384 6 6 (884736)
I0321 20:49:03.113344 21340 layer_factory.hpp:74] Creating layer conv4-1024_fused
I0321 20:49:03.113354 21340 net.cpp:84] Creating Layer conv4-1024_fused
I0321 20:49:03.113360 21340 net.cpp:380] conv4-1024_fused <- pool3_fused
I0321 20:49:03.113370 21340 net.cpp:338] conv4-1024_fused -> conv4_fused
I0321 20:49:03.113379 21340 net.cpp:113] Setting up conv4-1024_fused
I0321 20:49:03.240059 21340 net.cpp:120] Top shape: 64 1024 6 6 (2359296)
I0321 20:49:03.240095 21340 layer_factory.hpp:74] Creating layer relu10_fused
I0321 20:49:03.240109 21340 net.cpp:84] Creating Layer relu10_fused
I0321 20:49:03.240118 21340 net.cpp:380] relu10_fused <- conv4_fused
I0321 20:49:03.240128 21340 net.cpp:327] relu10_fused -> conv4_fused (in-place)
I0321 20:49:03.240139 21340 net.cpp:113] Setting up relu10_fused
I0321 20:49:03.240146 21340 net.cpp:120] Top shape: 64 1024 6 6 (2359296)
I0321 20:49:03.240151 21340 layer_factory.hpp:74] Creating layer cccp7-1024_fused
I0321 20:49:03.240164 21340 net.cpp:84] Creating Layer cccp7-1024_fused
I0321 20:49:03.240170 21340 net.cpp:380] cccp7-1024_fused <- conv4_fused
I0321 20:49:03.240180 21340 net.cpp:338] cccp7-1024_fused -> cccp7_fused
I0321 20:49:03.240190 21340 net.cpp:113] Setting up cccp7-1024_fused
I0321 20:49:03.274930 21340 net.cpp:120] Top shape: 64 1024 6 6 (2359296)
I0321 20:49:03.274950 21340 layer_factory.hpp:74] Creating layer relu11_fused
I0321 20:49:03.274977 21340 net.cpp:84] Creating Layer relu11_fused
I0321 20:49:03.274983 21340 net.cpp:380] relu11_fused <- cccp7_fused
I0321 20:49:03.274989 21340 net.cpp:327] relu11_fused -> cccp7_fused (in-place)
I0321 20:49:03.274996 21340 net.cpp:113] Setting up relu11_fused
I0321 20:49:03.275002 21340 net.cpp:120] Top shape: 64 1024 6 6 (2359296)
I0321 20:49:03.275007 21340 layer_factory.hpp:74] Creating layer cccp8-1024_fused
I0321 20:49:03.275019 21340 net.cpp:84] Creating Layer cccp8-1024_fused
I0321 20:49:03.275024 21340 net.cpp:380] cccp8-1024_fused <- cccp7_fused
I0321 20:49:03.275048 21340 net.cpp:338] cccp8-1024_fused -> cccp8_fused
I0321 20:49:03.275056 21340 net.cpp:113] Setting up cccp8-1024_fused
I0321 20:49:03.309782 21340 net.cpp:120] Top shape: 64 1000 6 6 (2304000)
I0321 20:49:03.309799 21340 layer_factory.hpp:74] Creating layer relu12_fused
I0321 20:49:03.309810 21340 net.cpp:84] Creating Layer relu12_fused
I0321 20:49:03.309814 21340 net.cpp:380] relu12_fused <- cccp8_fused
I0321 20:49:03.309820 21340 net.cpp:327] relu12_fused -> cccp8_fused (in-place)
I0321 20:49:03.309828 21340 net.cpp:113] Setting up relu12_fused
I0321 20:49:03.309834 21340 net.cpp:120] Top shape: 64 1000 6 6 (2304000)
I0321 20:49:03.309837 21340 layer_factory.hpp:74] Creating layer pool4_fused
I0321 20:49:03.309849 21340 net.cpp:84] Creating Layer pool4_fused
I0321 20:49:03.309864 21340 net.cpp:380] pool4_fused <- cccp8_fused
I0321 20:49:03.309870 21340 net.cpp:338] pool4_fused -> pool4_fused
I0321 20:49:03.309880 21340 net.cpp:113] Setting up pool4_fused
I0321 20:49:03.309888 21340 net.cpp:120] Top shape: 64 1000 1 1 (64000)
I0321 20:49:03.309893 21340 layer_factory.hpp:74] Creating layer loss_fused
I0321 20:49:03.309917 21340 net.cpp:84] Creating Layer loss_fused
I0321 20:49:03.309922 21340 net.cpp:380] loss_fused <- pool4_fused
I0321 20:49:03.309928 21340 net.cpp:380] loss_fused <- label_data_1_split_1
I0321 20:49:03.309938 21340 net.cpp:338] loss_fused -> (automatic)
I0321 20:49:03.309944 21340 net.cpp:113] Setting up loss_fused
…
I0321 20:49:03.313341 21340 net.cpp:257] The NetState phase (1) differed from the phase (0) specified by a rule in layer data
I0321 20:49:03.313891 21340 net.cpp:42] Initializing net from parameters: 
name: "nincaffe_res_e2_imagenet"
state {
  phase: TEST
}
layer {
  name: "data"
  type: "Data"
  top: "data"
  top: "label"
  include {
    phase: TEST
  }
  transform_param {
    mirror: false
    crop_size: 224
    mean_file: "data/imagenet/data/imagenet_mean.binaryproto"
  }
  data_param {
    source: "data/imagenet/data/ilsvrc12_val_lmdb"
    batch_size: 50
    backend: LMDB
  }
}
layer {
  name: "conv1_coarse"
  type: "Convolution"
  bottom: "data"
  top: "conv1_coarse"
  param {
    lr_mult: 0
    decay_mult: 0
  }
  param {
    lr_mult: 0
    decay_mult: 0
  }
  convolution_param {
    num_output: 96
    kernel_size: 11
    stride: 4
    weight_filler {
      type: "gaussian"
      mean: 0
      std: 0.01
    }
    bias_filler {
      type: "constant"
      value: 0
    }
  }
}
layer {
  name: "relu0_coarse"
  type: "ReLU"
  bottom: "conv1_coarse"
  top: "conv1_coarse"
}
layer {
  name: "cccp1_coarse"
  type: "Convolution"
  bottom: "conv1_coarse"
  top: "cccp1_coarse"
  param {
    lr_mult: 0
    decay_mult: 0
  }
  param {
    lr_mult: 0
    decay_mult: 0
  }
  convolution_param {
    num_output: 96
    kernel_size: 1
    stride: 1
    weight_filler {
      type: "gaussian"
      mean: 0
      std: 0.05
    }
    bias_filler {
      type: "constant"
      value: 0
    }
  }
}
layer {
  name: "relu1_coarse"
  type: "ReLU"
  bottom: "cccp1_coarse"
  top: "cccp1_coarse"
}
layer {
  name: "cccp2_coarse"
  type: "Convolution"
  bottom: "cccp1_coarse"
  top: "cccp2_coarse"
  param {
    lr_mult: 0
    decay_mult: 0
  }
  param {
    lr_mult: 0
    decay_mult: 0
  }
  convolution_param {
    num_output: 96
    kernel_size: 1
    stride: 1
    weight_filler {
      type: "gaussian"
      mean: 0
      std: 0.05
    }
    bias_filler {
      type: "constant"
      value: 0
    }
  }
}
layer {
  name: "relu2_coarse"
  type: "ReLU"
  bottom: "cccp2_coarse"
  top: "cccp2_coarse"
}
layer {
  name: "pool1_coarse"
  type: "Pooling"
  bottom: "cccp2_coarse"
  top: "pool1_coarse"
  pooling_param {
    pool: MAX
    kernel_size: 3
    stride: 2
  }
}
layer {
  name: "conv2_coarse"
  type: "Convolution"
  bottom: "pool1_coarse"
  top: "conv2_coarse"
  param {
    lr_mult: 0
    decay_mult: 0
  }
  param {
    lr_mult: 0
    decay_mult: 0
  }
  convolution_param {
    num_output: 256
    pad: 2
    kernel_size: 5
    stride: 1
    weight_filler {
      type: "gaussian"
      mean: 0
      std: 0.05
    }
    bias_filler {
      type: "constant"
      value: 0
    }
  }
}
layer {
  name: "relu3_coarse"
  type: "ReLU"
  bottom: "conv2_coarse"
  top: "conv2_coarse"
}
layer {
  name: "cccp3_coarse"
  type: "Convolution"
  bottom: "conv2_coarse"
  top: "cccp3_coarse"
  param {
    lr_mult: 0
    decay_mult: 0
  }
  param {
    lr_mult: 0
    decay_mult: 0
  }
  convolution_param {
    num_output: 256
    kernel_size: 1
    stride: 1
    weight_filler {
      type: "gaussian"
      mean: 0
      std: 0.05
    }
    bias_filler {
      type: "constant"
      value: 0
    }
  }
}
layer {
  name: "relu5_coarse"
  type: "ReLU"
  bottom: "cccp3_coarse"
  top: "cccp3_coarse"
}
layer {
  name: "cccp4_coarse"
  type: "Convolution"
  bottom: "cccp3_coarse"
  top: "cccp4_coarse"
  param {
    lr_mult: 0
    decay_mult: 0
  }
  param {
    lr_mult: 0
    decay_mult: 0
  }
  convolution_param {
    num_output: 256
    kernel_size: 1
    stride: 1
    weight_filler {
      type: "gaussian"
      mean: 0
      std: 0.05
    }
    bias_filler {
      type: "constant"
      value: 0
    }
  }
}
layer {
  name: "relu6_coarse"
  type: "ReLU"
  bottom: "cccp4_coarse"
  top: "cccp4_coarse"
}
layer {
  name: "pool2_coarse"
  type: "Pooling"
  bottom: "cccp4_coarse"
  top: "pool2_coarse"
  pooling_param {
    pool: MAX
    kernel_size: 3
    stride: 2
  }
}
layer {
  name: "conv3_coarse"
  type: "Convolution"
  bottom: "pool2_coarse"
  top: "conv3_coarse"
  param {
    lr_mult: 0
    decay_mult: 0
  }
  param {
    lr_mult: 0
    decay_mult: 0
  }
  convolution_param {
    num_output: 384
    pad: 1
    kernel_size: 3
    stride: 1
    weight_filler {
      type: "gaussian"
      mean: 0
      std: 0.01
    }
    bias_filler {
      type: "constant"
      value: 0
    }
  }
}
layer {
  name: "relu7_coarse"
  type: "ReLU"
  bottom: "conv3_coarse"
  top: "conv3_coarse"
}
layer {
  name: "cccp5_coarse"
  type: "Convolution"
  bottom: "conv3_coarse"
  top: "cccp5_coarse"
  param {
    lr_mult: 0
    decay_mult: 0
  }
  param {
    lr_mult: 0
    decay_mult: 0
  }
  convolution_param {
    num_output: 384
    kernel_size: 1
    stride: 1
    weight_filler {
      type: "gaussian"
      mean: 0
      std: 0.05
    }
    bias_filler {
      type: "constant"
      value: 0
    }
  }
}
layer {
  name: "relu8_coarse"
  type: "ReLU"
  bottom: "cccp5_coarse"
  top: "cccp5_coarse"
}
layer {
  name: "cccp6_coarse"
  type: "Convolution"
  bottom: "cccp5_coarse"
  top: "cccp6_coarse"
  param {
    lr_mult: 0
    decay_mult: 0
  }
  param {
    lr_mult: 0
    decay_mult: 0
  }
  convolution_param {
    num_output: 384
    kernel_size: 1
    stride: 1
    weight_filler {
      type: "gaussian"
      mean: 0
      std: 0.05
    }
    bias_filler {
      type: "constant"
      value: 0
    }
  }
}
layer {
  name: "relu9_coarse"
  type: "ReLU"
  bottom: "cccp6_coarse"
  top: "cccp6_coarse"
}
layer {
  name: "pool3_coarse"
  type: "Pooling"
  bottom: "cccp6_coarse"
  top: "pool3_coarse"
  pooling_param {
    pool: MAX
    kernel_size: 3
    stride: 2
  }
}
layer {
  name: "drop_coarse"
  type: "Dropout"
  bottom: "pool3_coarse"
  top: "pool3_coarse"
  dropout_param {
    dropout_ratio: 0.5
  }
}
layer {
  name: "conv4-1024_coarse"
  type: "Convolution"
  bottom: "pool3_coarse"
  top: "conv4_coarse"
  param {
    lr_mult: 0
    decay_mult: 0
  }
  param {
    lr_mult: 0
    decay_mult: 0
  }
  include {
    phase: TEST
  }
  convolution_param {
    num_output: 1024
    pad: 1
    kernel_size: 3
    stride: 1
    weight_filler {
      type: "gaussian"
      mean: 0
      std: 0.05
    }
    bias_filler {
      type: "constant"
      value: 0
    }
  }
}
layer {
  name: "relu10_coarse"
  type: "ReLU"
  bottom: "conv4_coarse"
  top: "conv4_coarse"
  include {
    phase: TEST
  }
}
layer {
  name: "cccp7-1024_coarse"
  type: "Convolution"
  bottom: "conv4_coarse"
  top: "cccp7_coarse"
  param {
    lr_mult: 0
    decay_mult: 0
  }
  param {
    lr_mult: 0
    decay_mult: 0
  }
  include {
    phase: TEST
  }
  convolution_param {
    num_output: 1024
    kernel_size: 1
    stride: 1
    weight_filler {
      type: "gaussian"
      mean: 0
      std: 0.05
    }
    bias_filler {
      type: "constant"
      value: 0
    }
  }
}
layer {
  name: "relu11_coarse"
  type: "ReLU"
  bottom: "cccp7_coarse"
  top: "cccp7_coarse"
  include {
    phase: TEST
  }
}
layer {
  name: "cccp8-1024_coarse"
  type: "Convolution"
  bottom: "cccp7_coarse"
  top: "cccp8_coarse"
  param {
    lr_mult: 0
    decay_mult: 0
  }
  param {
    lr_mult: 0
    decay_mult: 0
  }
  include {
    phase: TEST
  }
  convolution_param {
    num_output: 1000
    kernel_size: 1
    stride: 1
    weight_filler {
      type: "gaussian"
      mean: 0
      std: 0.01
    }
    bias_filler {
      type: "constant"
      value: 0
    }
  }
}
layer {
  name: "relu12_coarse"
  type: "ReLU"
  bottom: "cccp8_coarse"
  top: "cccp8_coarse"
  include {
    phase: TEST
  }
}
layer {
  name: "pool4_coarse"
  type: "Pooling"
  bottom: "cccp8_coarse"
  top: "pool4_coarse"
  include {
    phase: TEST
  }
  pooling_param {
    pool: AVE
    kernel_size: 6
    stride: 1
  }
}
layer {
  name: "accuracy_coarse"
  type: "Accuracy"
  bottom: "pool4_coarse"
  bottom: "label"
  top: "accuracy_coarse"
  include {
    phase: TEST
  }
}
layer {
  name: "loss_coarse"
  type: "SoftmaxWithLoss"
  bottom: "pool4_coarse"
  bottom: "label"
  loss_weight: 0.3
  include {
    phase: TEST
  }
}
layer {
  name: "conv1_fine"
  type: "Convolution"
  bottom: "data"
  top: "conv1_fine"
  param {
    lr_mult: 1
    decay_mult: 1
  }
  param {
    lr_mult: 2
    decay_mult: 0
  }
  convolution_param {
    num_output: 96
    kernel_size: 11
    stride: 4
    weight_filler {
      type: "gaussian"
      mean: 0
      std: 0.01
    }
    bias_filler {
      type: "constant"
      value: 0
    }
  }
}
layer {
  name: "relu0_fine"
  type: "ReLU"
  bottom: "conv1_fine"
  top: "conv1_fine"
}
layer {
  name: "cccp1_fine"
  type: "Convolution"
  bottom: "conv1_fine"
  top: "cccp1_fine"
  param {
    lr_mult: 1
    decay_mult: 1
  }
  param {
    lr_mult: 2
    decay_mult: 0
  }
  convolution_param {
    num_output: 96
    kernel_size: 1
    stride: 1
    weight_filler {
      type: "gaussian"
      mean: 0
      std: 0.05
    }
    bias_filler {
      type: "constant"
      value: 0
    }
  }
}
layer {
  name: "relu1_fine"
  type: "ReLU"
  bottom: "cccp1_fine"
  top: "cccp1_fine"
}
layer {
  name: "cccp2_fine"
  type: "Convolution"
  bottom: "cccp1_fine"
  top: "cccp2_fine"
  param {
    lr_mult: 1
    decay_mult: 1
  }
  param {
    lr_mult: 2
    decay_mult: 0
  }
  convolution_param {
    num_output: 96
    kernel_size: 1
    stride: 1
    weight_filler {
      type: "gaussian"
      mean: 0
      std: 0.05
    }
    bias_filler {
      type: "constant"
      value: 0
    }
  }
}
layer {
  name: "relu2_fine"
  type: "ReLU"
  bottom: "cccp2_fine"
  top: "cccp2_fine"
}
layer {
  name: "pool1_fine"
  type: "Pooling"
  bottom: "cccp2_fine"
  top: "pool1_fine"
  pooling_param {
    pool: MAX
    kernel_size: 3
    stride: 2
  }
}
layer {
  name: "conv2_fine"
  type: "Convolution"
  bottom: "pool1_fine"
  top: "conv2_fine"
  param {
    lr_mult: 1
    decay_mult: 1
  }
  param {
    lr_mult: 2
    decay_mult: 0
  }
  convolution_param {
    num_output: 256
    pad: 2
    kernel_size: 5
    stride: 1
    weight_filler {
      type: "gaussian"
      mean: 0
      std: 0.05
    }
    bias_filler {
      type: "constant"
      value: 0
    }
  }
}
layer {
  name: "relu3_fine"
  type: "ReLU"
  bottom: "conv2_fine"
  top: "conv2_fine"
}
layer {
  name: "cccp3_fine"
  type: "Convolution"
  bottom: "conv2_fine"
  top: "cccp3_fine"
  param {
    lr_mult: 1
    decay_mult: 1
  }
  param {
    lr_mult: 2
    decay_mult: 0
  }
  convolution_param {
    num_output: 256
    kernel_size: 1
    stride: 1
    weight_filler {
      type: "gaussian"
      mean: 0
      std: 0.05
    }
    bias_filler {
      type: "constant"
      value: 0
    }
  }
}
layer {
  name: "relu5_fine"
  type: "ReLU"
  bottom: "cccp3_fine"
  top: "cccp3_fine"
}
layer {
  name: "cccp4_fine"
  type: "Convolution"
  bottom: "cccp3_fine"
  top: "cccp4_fine"
  param {
    lr_mult: 1
    decay_mult: 1
  }
  param {
    lr_mult: 2
    decay_mult: 0
  }
  convolution_param {
    num_output: 256
    kernel_size: 1
    stride: 1
    weight_filler {
      type: "gaussian"
      mean: 0
      std: 0.05
    }
    bias_filler {
      type: "constant"
      value: 0
    }
  }
}
layer {
  name: "relu6_fine"
  type: "ReLU"
  bottom: "cccp4_fine"
  top: "cccp4_fine"
}
layer {
  name: "pool2_fine"
  type: "Pooling"
  bottom: "cccp4_fine"
  top: "pool2_fine"
  pooling_param {
    pool: MAX
    kernel_size: 3
    stride: 2
  }
}
layer {
  name: "conv3_fine"
  type: "Convolution"
  bottom: "pool2_fine"
  top: "conv3_fine"
  param {
    lr_mult: 1
    decay_mult: 1
  }
  param {
    lr_mult: 2
    decay_mult: 0
  }
  convolution_param {
    num_output: 384
    pad: 1
    kernel_size: 3
    stride: 1
    weight_filler {
      type: "gaussian"
      mean: 0
      std: 0.01
    }
    bias_filler {
      type: "constant"
      value: 0
    }
  }
}
layer {
  name: "relu7_fine"
  type: "ReLU"
  bottom: "conv3_fine"
  top: "conv3_fine"
}
layer {
  name: "cccp5_fine"
  type: "Convolution"
  bottom: "conv3_fine"
  top: "cccp5_fine"
  param {
    lr_mult: 1
    decay_mult: 1
  }
  param {
    lr_mult: 2
    decay_mult: 0
  }
  convolution_param {
    num_output: 384
    kernel_size: 1
    stride: 1
    weight_filler {
      type: "gaussian"
      mean: 0
      std: 0.05
    }
    bias_filler {
      type: "constant"
      value: 0
    }
  }
}
layer {
  name: "relu8_fine"
  type: "ReLU"
  bottom: "cccp5_fine"
  top: "cccp5_fine"
}
layer {
  name: "cccp6_fine"
  type: "Convolution"
  bottom: "cccp5_fine"
  top: "cccp6_fine"
  param {
    lr_mult: 1
    decay_mult: 1
  }
  param {
    lr_mult: 2
    decay_mult: 0
  }
  convolution_param {
    num_output: 384
    kernel_size: 1
    stride: 1
    weight_filler {
      type: "gaussian"
      mean: 0
      std: 0.05
    }
    bias_filler {
      type: "constant"
      value: 0
    }
  }
}
layer {
  name: "relu9_fine"
  type: "ReLU"
  bottom: "cccp6_fine"
  top: "cccp6_fine"
}
layer {
  name: "pool3_fine"
  type: "Pooling"
  bottom: "cccp6_fine"
  top: "pool3_fine"
  pooling_param {
    pool: MAX
    kernel_size: 3
    stride: 2
  }
}
layer {
  name: "drop_fine"
  type: "Dropout"
  bottom: "pool3_fine"
  top: "pool3_fine"
  dropout_param {
    dropout_ratio: 0.5
  }
}
layer {
  name: "conv4-1024_fine"
  type: "Convolution"
  bottom: "pool3_fine"
  top: "conv4_fine"
  param {
    lr_mult: 1
    decay_mult: 1
  }
  param {
    lr_mult: 2
    decay_mult: 0
  }
  convolution_param {
    num_output: 1024
    pad: 1
    kernel_size: 3
    stride: 1
    weight_filler {
      type: "gaussian"
      mean: 0
      std: 0.05
    }
    bias_filler {
      type: "constant"
      value: 0
    }
  }
}
layer {
  name: "relu10_fine"
  type: "ReLU"
  bottom: "conv4_fine"
  top: "conv4_fine"
}
layer {
  name: "cccp7-1024_fine"
  type: "Convolution"
  bottom: "conv4_fine"
  top: "cccp7_fine"
  param {
    lr_mult: 1
    decay_mult: 1
  }
  param {
    lr_mult: 2
    decay_mult: 0
  }
  convolution_param {
    num_output: 1024
    kernel_size: 1
    stride: 1
    weight_filler {
      type: "gaussian"
      mean: 0
      std: 0.05
    }
    bias_filler {
      type: "constant"
      value: 0
    }
  }
}
layer {
  name: "relu11_fine"
  type: "ReLU"
  bottom: "cccp7_fine"
  top: "cccp7_fine"
}
layer {
  name: "cccp8-1024_fine"
  type: "Convolution"
  bottom: "cccp7_fine"
  top: "cccp8_fine"
  param {
    lr_mult: 1
    decay_mult: 1
  }
  param {
    lr_mult: 2
    decay_mult: 0
  }
  convolution_param {
    num_output: 1000
    kernel_size: 1
    stride: 1
    weight_filler {
      type: "gaussian"
      mean: 0
      std: 0.01
    }
    bias_filler {
      type: "constant"
      value: 0
    }
  }
}
layer {
  name: "relu12_fine"
  type: "ReLU"
  bottom: "cccp8_fine"
  top: "cccp8_fine"
}
layer {
  name: "pool4_fine"
  type: "Pooling"
  bottom: "cccp8_fine"
  top: "pool4_fine"
  pooling_param {
    pool: AVE
    kernel_size: 6
    stride: 1
  }
}
layer {
  name: "accuracy_fine"
  type: "Accuracy"
  bottom: "pool4_fine"
  bottom: "label"
  top: "accuracy_fine"
  include {
    phase: TEST
  }
}
layer {
  name: "loss_fine"
  type: "SoftmaxWithLoss"
  bottom: "pool4_fine"
  bottom: "label"
  loss_weight: 0.3
}
layer {
  name: "fuse"
  type: "Eltwise"
  bottom: "pool3_coarse"
  bottom: "pool3_fine"
  top: "pool3_fused"
  eltwise_param {
    operation: SUM
    coeff: 0.5
    coeff: 0.5
  }
}
layer {
  name: "conv4-1024_fused"
  type: "Convolution"
  bottom: "pool3_fused"
  top: "conv4_fused"
  param {
    lr_mult: 0.1
    decay_mult: 1
  }
  param {
    lr_mult: 0.2
    decay_mult: 0
  }
  convolution_param {
    num_output: 1024
    pad: 1
    kernel_size: 3
    stride: 1
    weight_filler {
      type: "gaussian"
      mean: 0
      std: 0.05
    }
    bias_filler {
      type: "constant"
      value: 0
    }
  }
}
layer {
  name: "relu10_fused"
  type: "ReLU"
  bottom: "conv4_fused"
  top: "conv4_fused"
}
layer {
  name: "cccp7-1024_fused"
  type: "Convolution"
  bottom: "conv4_fused"
  top: "cccp7_fused"
  param {
    lr_mult: 0.1
    decay_mult: 1
  }
  param {
    lr_mult: 0.2
    decay_mult: 0
  }
  convolution_param {
    num_output: 1024
    kernel_size: 1
    stride: 1
    weight_filler {
      type: "gaussian"
      mean: 0
      std: 0.05
    }
    bias_filler {
      type: "constant"
      value: 0
    }
  }
}
layer {
  name: "relu11_fused"
  type: "ReLU"
  bottom: "cccp7_fused"
  top: "cccp7_fused"
}
layer {
  name: "cccp8-1024_fused"
  type: "Convolution"
  bottom: "cccp7_fused"
  top: "cccp8_fused"
  param {
    lr_mult: 0.1
    decay_mult: 1
  }
  param {
    lr_mult: 0.2
    decay_mult: 0
  }
  convolution_param {
    num_output: 1000
    kernel_size: 1
    stride: 1
    weight_filler {
      type: "gaussian"
      mean: 0
      std: 0.01
    }
    bias_filler {
      type: "constant"
      value: 0
    }
  }
}
layer {
  name: "relu12_fused"
  type: "ReLU"
  bottom: "cccp8_fused"
  top: "cccp8_fused"
}
layer {
  name: "pool4_fused"
  type: "Pooling"
  bottom: "cccp8_fused"
  top: "pool4_fused"
  pooling_param {
    pool: AVE
    kernel_size: 6
    stride: 1
  }
}
layer {
  name: "accuracy_fused"
  type: "Accuracy"
  bottom: "pool4_fused"
  bottom: "label"
  top: "accuracy_fused"
  include {
    phase: TEST
  }
}
layer {
  name: "loss_fused"
  type: "SoftmaxWithLoss"
  bottom: "pool4_fused"
  bottom: "label"
  loss_weight: 1
}
layer {
  name: "score_fuse_1"
  type: "Eltwise"
  bottom: "pool4_coarse"
  bottom: "pool4_fine"
  top: "pool4_fused_1"
  include {
    phase: TEST
  }
  eltwise_param {
    operation: SUM
    coeff: 1
    coeff: 1
  }
}
layer {
  name: "accuracy_fused_1"
  type: "Accuracy"
  bottom: "pool4_fused_1"
  bottom: "label"
  top: "accuracy_fused_1"
  include {
    phase: TEST
  }
}
layer {
  name: "score_fuse_2"
  type: "Eltwise"
  bottom: "pool4_fused_1"
  bottom: "pool4_fused"
  top: "pool4_fused_2"
  include {
    phase: TEST
  }
  eltwise_param {
    operation: SUM
    coeff: 0.3
    coeff: 1
  }
}
layer {
  name: "accuracy_fused_2"
  type: "Accuracy"
  bottom: "pool4_fused_2"
  bottom: "label"
  top: "accuracy_fused_2"
  include {
    phase: TEST
  }
}
I0321 20:49:03.314271 21340 layer_factory.hpp:74] Creating layer data
I0321 20:49:03.314285 21340 net.cpp:84] Creating Layer data
I0321 20:49:03.314292 21340 net.cpp:338] data -> data
I0321 20:49:03.314302 21340 net.cpp:338] data -> label
I0321 20:49:03.314311 21340 net.cpp:113] Setting up data
I0321 20:49:03.317275 21340 db.cpp:34] Opened lmdb data/imagenet/data/ilsvrc12_val_lmdb
I0321 20:49:03.318032 21340 data_layer.cpp:67] output data size: 50,3,224,224
I0321 20:49:03.318045 21340 data_transformer.cpp:22] Loading mean file from: data/imagenet/data/imagenet_mean.binaryproto
I0321 20:49:03.349403 21340 net.cpp:120] Top shape: 50 3 224 224 (7526400)
I0321 20:49:03.349421 21340 net.cpp:120] Top shape: 50 (50)
I0321 20:49:03.349428 21340 layer_factory.hpp:74] Creating layer data_data_0_split
I0321 20:49:03.349439 21340 net.cpp:84] Creating Layer data_data_0_split
I0321 20:49:03.349444 21340 net.cpp:380] data_data_0_split <- data
I0321 20:49:03.349450 21340 net.cpp:338] data_data_0_split -> data_data_0_split_0
I0321 20:49:03.349459 21340 net.cpp:338] data_data_0_split -> data_data_0_split_1
I0321 20:49:03.349490 21340 net.cpp:113] Setting up data_data_0_split
I0321 20:49:03.349499 21340 net.cpp:120] Top shape: 50 3 224 224 (7526400)
I0321 20:49:03.349505 21340 net.cpp:120] Top shape: 50 3 224 224 (7526400)
I0321 20:49:03.349512 21340 layer_factory.hpp:74] Creating layer label_data_1_split
I0321 20:49:03.349519 21340 net.cpp:84] Creating Layer label_data_1_split
I0321 20:49:03.349524 21340 net.cpp:380] label_data_1_split <- label
I0321 20:49:03.349529 21340 net.cpp:338] label_data_1_split -> label_data_1_split_0
I0321 20:49:03.349535 21340 net.cpp:338] label_data_1_split -> label_data_1_split_1
I0321 20:49:03.349544 21340 net.cpp:338] label_data_1_split -> label_data_1_split_2
I0321 20:49:03.349550 21340 net.cpp:338] label_data_1_split -> label_data_1_split_3
I0321 20:49:03.349556 21340 net.cpp:338] label_data_1_split -> label_data_1_split_4
I0321 20:49:03.349563 21340 net.cpp:338] label_data_1_split -> label_data_1_split_5
I0321 20:49:03.349570 21340 net.cpp:338] label_data_1_split -> label_data_1_split_6
I0321 20:49:03.349575 21340 net.cpp:338] label_data_1_split -> label_data_1_split_7
I0321 20:49:03.349581 21340 net.cpp:113] Setting up label_data_1_split
I0321 20:49:03.349591 21340 net.cpp:120] Top shape: 50 (50)
I0321 20:49:03.349596 21340 net.cpp:120] Top shape: 50 (50)
I0321 20:49:03.349601 21340 net.cpp:120] Top shape: 50 (50)
I0321 20:49:03.349606 21340 net.cpp:120] Top shape: 50 (50)
I0321 20:49:03.349611 21340 net.cpp:120] Top shape: 50 (50)
I0321 20:49:03.349628 21340 net.cpp:120] Top shape: 50 (50)
I0321 20:49:03.349634 21340 net.cpp:120] Top shape: 50 (50)
I0321 20:49:03.349638 21340 net.cpp:120] Top shape: 50 (50)
I0321 20:49:03.349642 21340 layer_factory.hpp:74] Creating layer conv1_coarse
I0321 20:49:03.349650 21340 net.cpp:84] Creating Layer conv1_coarse
I0321 20:49:03.349656 21340 net.cpp:380] conv1_coarse <- data_data_0_split_0
I0321 20:49:03.349663 21340 net.cpp:338] conv1_coarse -> conv1_coarse
I0321 20:49:03.349669 21340 net.cpp:113] Setting up conv1_coarse
I0321 20:49:03.350762 21340 net.cpp:120] Top shape: 50 96 54 54 (13996800)
I0321 20:49:03.350777 21340 layer_factory.hpp:74] Creating layer relu0_coarse
I0321 20:49:03.350785 21340 net.cpp:84] Creating Layer relu0_coarse
I0321 20:49:03.350790 21340 net.cpp:380] relu0_coarse <- conv1_coarse
I0321 20:49:03.350795 21340 net.cpp:327] relu0_coarse -> conv1_coarse (in-place)
I0321 20:49:03.350800 21340 net.cpp:113] Setting up relu0_coarse
I0321 20:49:03.350806 21340 net.cpp:120] Top shape: 50 96 54 54 (13996800)
I0321 20:49:03.350811 21340 layer_factory.hpp:74] Creating layer cccp1_coarse
I0321 20:49:03.350817 21340 net.cpp:84] Creating Layer cccp1_coarse
I0321 20:49:03.350821 21340 net.cpp:380] cccp1_coarse <- conv1_coarse
I0321 20:49:03.350827 21340 net.cpp:338] cccp1_coarse -> cccp1_coarse
I0321 20:49:03.350833 21340 net.cpp:113] Setting up cccp1_coarse
I0321 20:49:03.351141 21340 net.cpp:120] Top shape: 50 96 54 54 (13996800)
I0321 20:49:03.351158 21340 layer_factory.hpp:74] Creating layer relu1_coarse
I0321 20:49:03.351167 21340 net.cpp:84] Creating Layer relu1_coarse
I0321 20:49:03.351174 21340 net.cpp:380] relu1_coarse <- cccp1_coarse
I0321 20:49:03.351183 21340 net.cpp:327] relu1_coarse -> cccp1_coarse (in-place)
I0321 20:49:03.351191 21340 net.cpp:113] Setting up relu1_coarse
I0321 20:49:03.351198 21340 net.cpp:120] Top shape: 50 96 54 54 (13996800)
I0321 20:49:03.351202 21340 layer_factory.hpp:74] Creating layer cccp2_coarse
I0321 20:49:03.351210 21340 net.cpp:84] Creating Layer cccp2_coarse
I0321 20:49:03.351213 21340 net.cpp:380] cccp2_coarse <- cccp1_coarse
I0321 20:49:03.351219 21340 net.cpp:338] cccp2_coarse -> cccp2_coarse
I0321 20:49:03.351225 21340 net.cpp:113] Setting up cccp2_coarse
I0321 20:49:03.351550 21340 net.cpp:120] Top shape: 50 96 54 54 (13996800)
I0321 20:49:03.351562 21340 layer_factory.hpp:74] Creating layer relu2_coarse
I0321 20:49:03.351569 21340 net.cpp:84] Creating Layer relu2_coarse
I0321 20:49:03.351573 21340 net.cpp:380] relu2_coarse <- cccp2_coarse
I0321 20:49:03.351578 21340 net.cpp:327] relu2_coarse -> cccp2_coarse (in-place)
I0321 20:49:03.351584 21340 net.cpp:113] Setting up relu2_coarse
I0321 20:49:03.351589 21340 net.cpp:120] Top shape: 50 96 54 54 (13996800)
I0321 20:49:03.351593 21340 layer_factory.hpp:74] Creating layer pool1_coarse
I0321 20:49:03.351599 21340 net.cpp:84] Creating Layer pool1_coarse
I0321 20:49:03.351603 21340 net.cpp:380] pool1_coarse <- cccp2_coarse
I0321 20:49:03.351609 21340 net.cpp:338] pool1_coarse -> pool1_coarse
I0321 20:49:03.351614 21340 net.cpp:113] Setting up pool1_coarse
I0321 20:49:03.351625 21340 net.cpp:120] Top shape: 50 96 27 27 (3499200)
I0321 20:49:03.351630 21340 layer_factory.hpp:74] Creating layer conv2_coarse
I0321 20:49:03.351639 21340 net.cpp:84] Creating Layer conv2_coarse
I0321 20:49:03.351644 21340 net.cpp:380] conv2_coarse <- pool1_coarse
I0321 20:49:03.351650 21340 net.cpp:338] conv2_coarse -> conv2_coarse
I0321 20:49:03.351668 21340 net.cpp:113] Setting up conv2_coarse
I0321 20:49:03.371889 21340 net.cpp:120] Top shape: 50 256 27 27 (9331200)
I0321 20:49:03.371906 21340 layer_factory.hpp:74] Creating layer relu3_coarse
I0321 20:49:03.371912 21340 net.cpp:84] Creating Layer relu3_coarse
I0321 20:49:03.371917 21340 net.cpp:380] relu3_coarse <- conv2_coarse
I0321 20:49:03.371923 21340 net.cpp:327] relu3_coarse -> conv2_coarse (in-place)
I0321 20:49:03.371929 21340 net.cpp:113] Setting up relu3_coarse
I0321 20:49:03.371934 21340 net.cpp:120] Top shape: 50 256 27 27 (9331200)
I0321 20:49:03.371938 21340 layer_factory.hpp:74] Creating layer cccp3_coarse
I0321 20:49:03.371960 21340 net.cpp:84] Creating Layer cccp3_coarse
I0321 20:49:03.371965 21340 net.cpp:380] cccp3_coarse <- conv2_coarse
I0321 20:49:03.371971 21340 net.cpp:338] cccp3_coarse -> cccp3_coarse
I0321 20:49:03.371978 21340 net.cpp:113] Setting up cccp3_coarse
I0321 20:49:03.374199 21340 net.cpp:120] Top shape: 50 256 27 27 (9331200)
I0321 20:49:03.374238 21340 layer_factory.hpp:74] Creating layer relu5_coarse
I0321 20:49:03.374259 21340 net.cpp:84] Creating Layer relu5_coarse
I0321 20:49:03.374274 21340 net.cpp:380] relu5_coarse <- cccp3_coarse
I0321 20:49:03.374291 21340 net.cpp:327] relu5_coarse -> cccp3_coarse (in-place)
I0321 20:49:03.374307 21340 net.cpp:113] Setting up relu5_coarse
I0321 20:49:03.374325 21340 net.cpp:120] Top shape: 50 256 27 27 (9331200)
I0321 20:49:03.374338 21340 layer_factory.hpp:74] Creating layer cccp4_coarse
I0321 20:49:03.374357 21340 net.cpp:84] Creating Layer cccp4_coarse
I0321 20:49:03.374372 21340 net.cpp:380] cccp4_coarse <- cccp3_coarse
I0321 20:49:03.374392 21340 net.cpp:338] cccp4_coarse -> cccp4_coarse
I0321 20:49:03.374413 21340 net.cpp:113] Setting up cccp4_coarse
I0321 20:49:03.376507 21340 net.cpp:120] Top shape: 50 256 27 27 (9331200)
I0321 20:49:03.376538 21340 layer_factory.hpp:74] Creating layer relu6_coarse
I0321 20:49:03.376555 21340 net.cpp:84] Creating Layer relu6_coarse
I0321 20:49:03.376570 21340 net.cpp:380] relu6_coarse <- cccp4_coarse
I0321 20:49:03.376587 21340 net.cpp:327] relu6_coarse -> cccp4_coarse (in-place)
I0321 20:49:03.376605 21340 net.cpp:113] Setting up relu6_coarse
I0321 20:49:03.376623 21340 net.cpp:120] Top shape: 50 256 27 27 (9331200)
I0321 20:49:03.376637 21340 layer_factory.hpp:74] Creating layer pool2_coarse
I0321 20:49:03.376660 21340 net.cpp:84] Creating Layer pool2_coarse
I0321 20:49:03.376672 21340 net.cpp:380] pool2_coarse <- cccp4_coarse
I0321 20:49:03.376679 21340 net.cpp:338] pool2_coarse -> pool2_coarse
I0321 20:49:03.376698 21340 net.cpp:113] Setting up pool2_coarse
I0321 20:49:03.376709 21340 net.cpp:120] Top shape: 50 256 13 13 (2163200)
I0321 20:49:03.376714 21340 layer_factory.hpp:74] Creating layer conv3_coarse
I0321 20:49:03.376723 21340 net.cpp:84] Creating Layer conv3_coarse
I0321 20:49:03.376727 21340 net.cpp:380] conv3_coarse <- pool2_coarse
I0321 20:49:03.376734 21340 net.cpp:338] conv3_coarse -> conv3_coarse
I0321 20:49:03.376740 21340 net.cpp:113] Setting up conv3_coarse
I0321 20:49:03.406167 21340 net.cpp:120] Top shape: 50 384 13 13 (3244800)
I0321 20:49:03.406183 21340 layer_factory.hpp:74] Creating layer relu7_coarse
I0321 20:49:03.406189 21340 net.cpp:84] Creating Layer relu7_coarse
I0321 20:49:03.406193 21340 net.cpp:380] relu7_coarse <- conv3_coarse
I0321 20:49:03.406199 21340 net.cpp:327] relu7_coarse -> conv3_coarse (in-place)
I0321 20:49:03.406205 21340 net.cpp:113] Setting up relu7_coarse
I0321 20:49:03.406213 21340 net.cpp:120] Top shape: 50 384 13 13 (3244800)
I0321 20:49:03.406215 21340 layer_factory.hpp:74] Creating layer cccp5_coarse
I0321 20:49:03.406224 21340 net.cpp:84] Creating Layer cccp5_coarse
I0321 20:49:03.406229 21340 net.cpp:380] cccp5_coarse <- conv3_coarse
I0321 20:49:03.406234 21340 net.cpp:338] cccp5_coarse -> cccp5_coarse
I0321 20:49:03.406240 21340 net.cpp:113] Setting up cccp5_coarse
I0321 20:49:03.410998 21340 net.cpp:120] Top shape: 50 384 13 13 (3244800)
I0321 20:49:03.411010 21340 layer_factory.hpp:74] Creating layer relu8_coarse
I0321 20:49:03.411018 21340 net.cpp:84] Creating Layer relu8_coarse
I0321 20:49:03.411022 21340 net.cpp:380] relu8_coarse <- cccp5_coarse
I0321 20:49:03.411027 21340 net.cpp:327] relu8_coarse -> cccp5_coarse (in-place)
I0321 20:49:03.411032 21340 net.cpp:113] Setting up relu8_coarse
I0321 20:49:03.411038 21340 net.cpp:120] Top shape: 50 384 13 13 (3244800)
I0321 20:49:03.411042 21340 layer_factory.hpp:74] Creating layer cccp6_coarse
I0321 20:49:03.411051 21340 net.cpp:84] Creating Layer cccp6_coarse
I0321 20:49:03.411056 21340 net.cpp:380] cccp6_coarse <- cccp5_coarse
I0321 20:49:03.411061 21340 net.cpp:338] cccp6_coarse -> cccp6_coarse
I0321 20:49:03.411079 21340 net.cpp:113] Setting up cccp6_coarse
I0321 20:49:03.415848 21340 net.cpp:120] Top shape: 50 384 13 13 (3244800)
I0321 20:49:03.415860 21340 layer_factory.hpp:74] Creating layer relu9_coarse
I0321 20:49:03.415868 21340 net.cpp:84] Creating Layer relu9_coarse
I0321 20:49:03.415873 21340 net.cpp:380] relu9_coarse <- cccp6_coarse
I0321 20:49:03.415877 21340 net.cpp:327] relu9_coarse -> cccp6_coarse (in-place)
I0321 20:49:03.415882 21340 net.cpp:113] Setting up relu9_coarse
I0321 20:49:03.415887 21340 net.cpp:120] Top shape: 50 384 13 13 (3244800)
I0321 20:49:03.415891 21340 layer_factory.hpp:74] Creating layer pool3_coarse
I0321 20:49:03.415900 21340 net.cpp:84] Creating Layer pool3_coarse
I0321 20:49:03.415904 21340 net.cpp:380] pool3_coarse <- cccp6_coarse
I0321 20:49:03.415910 21340 net.cpp:338] pool3_coarse -> pool3_coarse
I0321 20:49:03.415915 21340 net.cpp:113] Setting up pool3_coarse
I0321 20:49:03.415925 21340 net.cpp:120] Top shape: 50 384 6 6 (691200)
I0321 20:49:03.415930 21340 layer_factory.hpp:74] Creating layer drop_coarse
I0321 20:49:03.415937 21340 net.cpp:84] Creating Layer drop_coarse
I0321 20:49:03.415941 21340 net.cpp:380] drop_coarse <- pool3_coarse
I0321 20:49:03.415946 21340 net.cpp:327] drop_coarse -> pool3_coarse (in-place)
I0321 20:49:03.415951 21340 net.cpp:113] Setting up drop_coarse
I0321 20:49:03.415958 21340 net.cpp:120] Top shape: 50 384 6 6 (691200)
I0321 20:49:03.415963 21340 layer_factory.hpp:74] Creating layer pool3_coarse_drop_coarse_0_split
I0321 20:49:03.415969 21340 net.cpp:84] Creating Layer pool3_coarse_drop_coarse_0_split
I0321 20:49:03.415973 21340 net.cpp:380] pool3_coarse_drop_coarse_0_split <- pool3_coarse
I0321 20:49:03.415978 21340 net.cpp:338] pool3_coarse_drop_coarse_0_split -> pool3_coarse_drop_coarse_0_split_0
I0321 20:49:03.415987 21340 net.cpp:338] pool3_coarse_drop_coarse_0_split -> pool3_coarse_drop_coarse_0_split_1
I0321 20:49:03.415993 21340 net.cpp:113] Setting up pool3_coarse_drop_coarse_0_split
I0321 20:49:03.416000 21340 net.cpp:120] Top shape: 50 384 6 6 (691200)
I0321 20:49:03.416007 21340 net.cpp:120] Top shape: 50 384 6 6 (691200)
I0321 20:49:03.416010 21340 layer_factory.hpp:74] Creating layer conv4-1024_coarse
I0321 20:49:03.416020 21340 net.cpp:84] Creating Layer conv4-1024_coarse
I0321 20:49:03.416025 21340 net.cpp:380] conv4-1024_coarse <- pool3_coarse_drop_coarse_0_split_0
I0321 20:49:03.416031 21340 net.cpp:338] conv4-1024_coarse -> conv4_coarse
I0321 20:49:03.416038 21340 net.cpp:113] Setting up conv4-1024_coarse
I0321 20:49:03.536504 21340 net.cpp:120] Top shape: 50 1024 6 6 (1843200)
I0321 20:49:03.536535 21340 layer_factory.hpp:74] Creating layer relu10_coarse
I0321 20:49:03.536550 21340 net.cpp:84] Creating Layer relu10_coarse
I0321 20:49:03.536558 21340 net.cpp:380] relu10_coarse <- conv4_coarse
I0321 20:49:03.536567 21340 net.cpp:327] relu10_coarse -> conv4_coarse (in-place)
I0321 20:49:03.536576 21340 net.cpp:113] Setting up relu10_coarse
I0321 20:49:03.536582 21340 net.cpp:120] Top shape: 50 1024 6 6 (1843200)
I0321 20:49:03.536586 21340 layer_factory.hpp:74] Creating layer cccp7-1024_coarse
I0321 20:49:03.536598 21340 net.cpp:84] Creating Layer cccp7-1024_coarse
I0321 20:49:03.536604 21340 net.cpp:380] cccp7-1024_coarse <- conv4_coarse
I0321 20:49:03.536612 21340 net.cpp:338] cccp7-1024_coarse -> cccp7_coarse
I0321 20:49:03.536620 21340 net.cpp:113] Setting up cccp7-1024_coarse
I0321 20:49:03.570909 21340 net.cpp:120] Top shape: 50 1024 6 6 (1843200)
I0321 20:49:03.570930 21340 layer_factory.hpp:74] Creating layer relu11_coarse
I0321 20:49:03.570940 21340 net.cpp:84] Creating Layer relu11_coarse
I0321 20:49:03.570945 21340 net.cpp:380] relu11_coarse <- cccp7_coarse
I0321 20:49:03.570952 21340 net.cpp:327] relu11_coarse -> cccp7_coarse (in-place)
I0321 20:49:03.570960 21340 net.cpp:113] Setting up relu11_coarse
I0321 20:49:03.570966 21340 net.cpp:120] Top shape: 50 1024 6 6 (1843200)
I0321 20:49:03.570971 21340 layer_factory.hpp:74] Creating layer cccp8-1024_coarse
I0321 20:49:03.570981 21340 net.cpp:84] Creating Layer cccp8-1024_coarse
I0321 20:49:03.571000 21340 net.cpp:380] cccp8-1024_coarse <- cccp7_coarse
I0321 20:49:03.571010 21340 net.cpp:338] cccp8-1024_coarse -> cccp8_coarse
I0321 20:49:03.571019 21340 net.cpp:113] Setting up cccp8-1024_coarse
I0321 20:49:03.605309 21340 net.cpp:120] Top shape: 50 1000 6 6 (1800000)
I0321 20:49:03.605330 21340 layer_factory.hpp:74] Creating layer relu12_coarse
I0321 20:49:03.605341 21340 net.cpp:84] Creating Layer relu12_coarse
I0321 20:49:03.605347 21340 net.cpp:380] relu12_coarse <- cccp8_coarse
I0321 20:49:03.605355 21340 net.cpp:327] relu12_coarse -> cccp8_coarse (in-place)
I0321 20:49:03.605362 21340 net.cpp:113] Setting up relu12_coarse
I0321 20:49:03.605370 21340 net.cpp:120] Top shape: 50 1000 6 6 (1800000)
I0321 20:49:03.605375 21340 layer_factory.hpp:74] Creating layer pool4_coarse
I0321 20:49:03.605391 21340 net.cpp:84] Creating Layer pool4_coarse
I0321 20:49:03.605396 21340 net.cpp:380] pool4_coarse <- cccp8_coarse
I0321 20:49:03.605404 21340 net.cpp:338] pool4_coarse -> pool4_coarse
I0321 20:49:03.605414 21340 net.cpp:113] Setting up pool4_coarse
I0321 20:49:03.605423 21340 net.cpp:120] Top shape: 50 1000 1 1 (50000)
I0321 20:49:03.605428 21340 layer_factory.hpp:74] Creating layer pool4_coarse_pool4_coarse_0_split
I0321 20:49:03.605437 21340 net.cpp:84] Creating Layer pool4_coarse_pool4_coarse_0_split
I0321 20:49:03.605442 21340 net.cpp:380] pool4_coarse_pool4_coarse_0_split <- pool4_coarse
I0321 20:49:03.605446 21340 net.cpp:338] pool4_coarse_pool4_coarse_0_split -> pool4_coarse_pool4_coarse_0_split_0
I0321 20:49:03.605453 21340 net.cpp:338] pool4_coarse_pool4_coarse_0_split -> pool4_coarse_pool4_coarse_0_split_1
I0321 20:49:03.605461 21340 net.cpp:338] pool4_coarse_pool4_coarse_0_split -> pool4_coarse_pool4_coarse_0_split_2
I0321 20:49:03.605475 21340 net.cpp:113] Setting up pool4_coarse_pool4_coarse_0_split
I0321 20:49:03.605482 21340 net.cpp:120] Top shape: 50 1000 1 1 (50000)
I0321 20:49:03.605489 21340 net.cpp:120] Top shape: 50 1000 1 1 (50000)
I0321 20:49:03.605494 21340 net.cpp:120] Top shape: 50 1000 1 1 (50000)
I0321 20:49:03.605499 21340 layer_factory.hpp:74] Creating layer accuracy_coarse
I0321 20:49:03.605515 21340 net.cpp:84] Creating Layer accuracy_coarse
I0321 20:49:03.605520 21340 net.cpp:380] accuracy_coarse <- pool4_coarse_pool4_coarse_0_split_0
I0321 20:49:03.605526 21340 net.cpp:380] accuracy_coarse <- label_data_1_split_0
I0321 20:49:03.605531 21340 net.cpp:338] accuracy_coarse -> accuracy_coarse
…
I0321 20:49:03.605583 21340 net.cpp:113] Setting up loss_coarse
I0321 20:49:03.605589 21340 layer_factory.hpp:74] Creating layer loss_coarse
I0321 20:49:03.605731 21340 net.cpp:120] Top shape: (1)
I0321 20:49:03.605741 21340 net.cpp:122]     with loss weight 0.3
I0321 20:49:03.605756 21340 layer_factory.hpp:74] Creating layer conv1_fine
I0321 20:49:03.605767 21340 net.cpp:84] Creating Layer conv1_fine
I0321 20:49:03.605773 21340 net.cpp:380] conv1_fine <- data_data_0_split_1
I0321 20:49:03.605782 21340 net.cpp:338] conv1_fine -> conv1_fine
I0321 20:49:03.605790 21340 net.cpp:113] Setting up conv1_fine
I0321 20:49:03.606931 21340 net.cpp:120] Top shape: 50 96 54 54 (13996800)
I0321 20:49:03.606961 21340 layer_factory.hpp:74] Creating layer relu0_fine
I0321 20:49:03.606968 21340 net.cpp:84] Creating Layer relu0_fine
I0321 20:49:03.606973 21340 net.cpp:380] relu0_fine <- conv1_fine
I0321 20:49:03.606978 21340 net.cpp:327] relu0_fine -> conv1_fine (in-place)
I0321 20:49:03.606984 21340 net.cpp:113] Setting up relu0_fine
I0321 20:49:03.606989 21340 net.cpp:120] Top shape: 50 96 54 54 (13996800)
I0321 20:49:03.607009 21340 layer_factory.hpp:74] Creating layer cccp1_fine
I0321 20:49:03.607019 21340 net.cpp:84] Creating Layer cccp1_fine
I0321 20:49:03.607024 21340 net.cpp:380] cccp1_fine <- conv1_fine
I0321 20:49:03.607033 21340 net.cpp:338] cccp1_fine -> cccp1_fine
I0321 20:49:03.607039 21340 net.cpp:113] Setting up cccp1_fine
I0321 20:49:03.607360 21340 net.cpp:120] Top shape: 50 96 54 54 (13996800)
I0321 20:49:03.607368 21340 layer_factory.hpp:74] Creating layer relu1_fine
I0321 20:49:03.607378 21340 net.cpp:84] Creating Layer relu1_fine
I0321 20:49:03.607383 21340 net.cpp:380] relu1_fine <- cccp1_fine
I0321 20:49:03.607388 21340 net.cpp:327] relu1_fine -> cccp1_fine (in-place)
I0321 20:49:03.607393 21340 net.cpp:113] Setting up relu1_fine
I0321 20:49:03.607398 21340 net.cpp:120] Top shape: 50 96 54 54 (13996800)
I0321 20:49:03.607405 21340 layer_factory.hpp:74] Creating layer cccp2_fine
I0321 20:49:03.607415 21340 net.cpp:84] Creating Layer cccp2_fine
I0321 20:49:03.607420 21340 net.cpp:380] cccp2_fine <- cccp1_fine
I0321 20:49:03.607427 21340 net.cpp:338] cccp2_fine -> cccp2_fine
I0321 20:49:03.607434 21340 net.cpp:113] Setting up cccp2_fine
I0321 20:49:03.607743 21340 net.cpp:120] Top shape: 50 96 54 54 (13996800)
I0321 20:49:03.607751 21340 layer_factory.hpp:74] Creating layer relu2_fine
I0321 20:49:03.607758 21340 net.cpp:84] Creating Layer relu2_fine
I0321 20:49:03.607762 21340 net.cpp:380] relu2_fine <- cccp2_fine
I0321 20:49:03.607767 21340 net.cpp:327] relu2_fine -> cccp2_fine (in-place)
I0321 20:49:03.607791 21340 net.cpp:113] Setting up relu2_fine
I0321 20:49:03.607796 21340 net.cpp:120] Top shape: 50 96 54 54 (13996800)
I0321 20:49:03.607801 21340 layer_factory.hpp:74] Creating layer pool1_fine
I0321 20:49:03.607810 21340 net.cpp:84] Creating Layer pool1_fine
I0321 20:49:03.607815 21340 net.cpp:380] pool1_fine <- cccp2_fine
I0321 20:49:03.607820 21340 net.cpp:338] pool1_fine -> pool1_fine
I0321 20:49:03.607825 21340 net.cpp:113] Setting up pool1_fine
I0321 20:49:03.607836 21340 net.cpp:120] Top shape: 50 96 27 27 (3499200)
I0321 20:49:03.607844 21340 layer_factory.hpp:74] Creating layer conv2_fine
I0321 20:49:03.607852 21340 net.cpp:84] Creating Layer conv2_fine
I0321 20:49:03.607857 21340 net.cpp:380] conv2_fine <- pool1_fine
I0321 20:49:03.607862 21340 net.cpp:338] conv2_fine -> conv2_fine
I0321 20:49:03.607868 21340 net.cpp:113] Setting up conv2_fine
I0321 20:49:03.628377 21340 net.cpp:120] Top shape: 50 256 27 27 (9331200)
I0321 20:49:03.628391 21340 layer_factory.hpp:74] Creating layer relu3_fine
I0321 20:49:03.628397 21340 net.cpp:84] Creating Layer relu3_fine
I0321 20:49:03.628402 21340 net.cpp:380] relu3_fine <- conv2_fine
I0321 20:49:03.628407 21340 net.cpp:327] relu3_fine -> conv2_fine (in-place)
I0321 20:49:03.628412 21340 net.cpp:113] Setting up relu3_fine
I0321 20:49:03.628418 21340 net.cpp:120] Top shape: 50 256 27 27 (9331200)
I0321 20:49:03.628422 21340 layer_factory.hpp:74] Creating layer cccp3_fine
I0321 20:49:03.628432 21340 net.cpp:84] Creating Layer cccp3_fine
I0321 20:49:03.628437 21340 net.cpp:380] cccp3_fine <- conv2_fine
I0321 20:49:03.628442 21340 net.cpp:338] cccp3_fine -> cccp3_fine
I0321 20:49:03.628448 21340 net.cpp:113] Setting up cccp3_fine
I0321 20:49:03.630596 21340 net.cpp:120] Top shape: 50 256 27 27 (9331200)
I0321 20:49:03.630630 21340 layer_factory.hpp:74] Creating layer relu5_fine
I0321 20:49:03.630637 21340 net.cpp:84] Creating Layer relu5_fine
I0321 20:49:03.630641 21340 net.cpp:380] relu5_fine <- cccp3_fine
I0321 20:49:03.630646 21340 net.cpp:327] relu5_fine -> cccp3_fine (in-place)
I0321 20:49:03.630651 21340 net.cpp:113] Setting up relu5_fine
I0321 20:49:03.630656 21340 net.cpp:120] Top shape: 50 256 27 27 (9331200)
I0321 20:49:03.630678 21340 layer_factory.hpp:74] Creating layer cccp4_fine
I0321 20:49:03.630688 21340 net.cpp:84] Creating Layer cccp4_fine
I0321 20:49:03.630692 21340 net.cpp:380] cccp4_fine <- cccp3_fine
I0321 20:49:03.630698 21340 net.cpp:338] cccp4_fine -> cccp4_fine
I0321 20:49:03.630717 21340 net.cpp:113] Setting up cccp4_fine
I0321 20:49:03.633110 21340 net.cpp:120] Top shape: 50 256 27 27 (9331200)
I0321 20:49:03.633121 21340 layer_factory.hpp:74] Creating layer relu6_fine
I0321 20:49:03.633128 21340 net.cpp:84] Creating Layer relu6_fine
I0321 20:49:03.633132 21340 net.cpp:380] relu6_fine <- cccp4_fine
I0321 20:49:03.633137 21340 net.cpp:327] relu6_fine -> cccp4_fine (in-place)
I0321 20:49:03.633142 21340 net.cpp:113] Setting up relu6_fine
I0321 20:49:03.633148 21340 net.cpp:120] Top shape: 50 256 27 27 (9331200)
I0321 20:49:03.633152 21340 layer_factory.hpp:74] Creating layer pool2_fine
I0321 20:49:03.633159 21340 net.cpp:84] Creating Layer pool2_fine
I0321 20:49:03.633162 21340 net.cpp:380] pool2_fine <- cccp4_fine
I0321 20:49:03.633170 21340 net.cpp:338] pool2_fine -> pool2_fine
I0321 20:49:03.633178 21340 net.cpp:113] Setting up pool2_fine
I0321 20:49:03.633189 21340 net.cpp:120] Top shape: 50 256 13 13 (2163200)
I0321 20:49:03.633194 21340 layer_factory.hpp:74] Creating layer conv3_fine
I0321 20:49:03.633203 21340 net.cpp:84] Creating Layer conv3_fine
I0321 20:49:03.633206 21340 net.cpp:380] conv3_fine <- pool2_fine
I0321 20:49:03.633214 21340 net.cpp:338] conv3_fine -> conv3_fine
I0321 20:49:03.633221 21340 net.cpp:113] Setting up conv3_fine
I0321 20:49:03.662993 21340 net.cpp:120] Top shape: 50 384 13 13 (3244800)
I0321 20:49:03.663025 21340 layer_factory.hpp:74] Creating layer relu7_fine
I0321 20:49:03.663033 21340 net.cpp:84] Creating Layer relu7_fine
I0321 20:49:03.663038 21340 net.cpp:380] relu7_fine <- conv3_fine
I0321 20:49:03.663043 21340 net.cpp:327] relu7_fine -> conv3_fine (in-place)
I0321 20:49:03.663049 21340 net.cpp:113] Setting up relu7_fine
I0321 20:49:03.663055 21340 net.cpp:120] Top shape: 50 384 13 13 (3244800)
I0321 20:49:03.663059 21340 layer_factory.hpp:74] Creating layer cccp5_fine
I0321 20:49:03.663066 21340 net.cpp:84] Creating Layer cccp5_fine
I0321 20:49:03.663070 21340 net.cpp:380] cccp5_fine <- conv3_fine
I0321 20:49:03.663079 21340 net.cpp:338] cccp5_fine -> cccp5_fine
I0321 20:49:03.663085 21340 net.cpp:113] Setting up cccp5_fine
I0321 20:49:03.667965 21340 net.cpp:120] Top shape: 50 384 13 13 (3244800)
I0321 20:49:03.667976 21340 layer_factory.hpp:74] Creating layer relu8_fine
I0321 20:49:03.667986 21340 net.cpp:84] Creating Layer relu8_fine
I0321 20:49:03.667991 21340 net.cpp:380] relu8_fine <- cccp5_fine
I0321 20:49:03.667996 21340 net.cpp:327] relu8_fine -> cccp5_fine (in-place)
I0321 20:49:03.668001 21340 net.cpp:113] Setting up relu8_fine
I0321 20:49:03.668009 21340 net.cpp:120] Top shape: 50 384 13 13 (3244800)
I0321 20:49:03.668014 21340 layer_factory.hpp:74] Creating layer cccp6_fine
I0321 20:49:03.668025 21340 net.cpp:84] Creating Layer cccp6_fine
I0321 20:49:03.668030 21340 net.cpp:380] cccp6_fine <- cccp5_fine
I0321 20:49:03.668036 21340 net.cpp:338] cccp6_fine -> cccp6_fine
I0321 20:49:03.668043 21340 net.cpp:113] Setting up cccp6_fine
I0321 20:49:03.672780 21340 net.cpp:120] Top shape: 50 384 13 13 (3244800)
I0321 20:49:03.672790 21340 layer_factory.hpp:74] Creating layer relu9_fine
I0321 20:49:03.672796 21340 net.cpp:84] Creating Layer relu9_fine
I0321 20:49:03.672799 21340 net.cpp:380] relu9_fine <- cccp6_fine
I0321 20:49:03.672806 21340 net.cpp:327] relu9_fine -> cccp6_fine (in-place)
I0321 20:49:03.672811 21340 net.cpp:113] Setting up relu9_fine
I0321 20:49:03.672816 21340 net.cpp:120] Top shape: 50 384 13 13 (3244800)
I0321 20:49:03.672821 21340 layer_factory.hpp:74] Creating layer pool3_fine
I0321 20:49:03.672832 21340 net.cpp:84] Creating Layer pool3_fine
I0321 20:49:03.672835 21340 net.cpp:380] pool3_fine <- cccp6_fine
I0321 20:49:03.672843 21340 net.cpp:338] pool3_fine -> pool3_fine
I0321 20:49:03.672850 21340 net.cpp:113] Setting up pool3_fine
I0321 20:49:03.672858 21340 net.cpp:120] Top shape: 50 384 6 6 (691200)
I0321 20:49:03.672863 21340 layer_factory.hpp:74] Creating layer drop_fine
I0321 20:49:03.672873 21340 net.cpp:84] Creating Layer drop_fine
I0321 20:49:03.672876 21340 net.cpp:380] drop_fine <- pool3_fine
I0321 20:49:03.672883 21340 net.cpp:327] drop_fine -> pool3_fine (in-place)
I0321 20:49:03.672901 21340 net.cpp:113] Setting up drop_fine
I0321 20:49:03.672911 21340 net.cpp:120] Top shape: 50 384 6 6 (691200)
I0321 20:49:03.672915 21340 layer_factory.hpp:74] Creating layer pool3_fine_drop_fine_0_split
I0321 20:49:03.672924 21340 net.cpp:84] Creating Layer pool3_fine_drop_fine_0_split
I0321 20:49:03.672927 21340 net.cpp:380] pool3_fine_drop_fine_0_split <- pool3_fine
I0321 20:49:03.672932 21340 net.cpp:338] pool3_fine_drop_fine_0_split -> pool3_fine_drop_fine_0_split_0
I0321 20:49:03.672940 21340 net.cpp:338] pool3_fine_drop_fine_0_split -> pool3_fine_drop_fine_0_split_1
I0321 20:49:03.672946 21340 net.cpp:113] Setting up pool3_fine_drop_fine_0_split
I0321 20:49:03.672952 21340 net.cpp:120] Top shape: 50 384 6 6 (691200)
I0321 20:49:03.672957 21340 net.cpp:120] Top shape: 50 384 6 6 (691200)
I0321 20:49:03.672962 21340 layer_factory.hpp:74] Creating layer conv4-1024_fine
I0321 20:49:03.672972 21340 net.cpp:84] Creating Layer conv4-1024_fine
I0321 20:49:03.672989 21340 net.cpp:380] conv4-1024_fine <- pool3_fine_drop_fine_0_split_0
I0321 20:49:03.672998 21340 net.cpp:338] conv4-1024_fine -> conv4_fine
I0321 20:49:03.673005 21340 net.cpp:113] Setting up conv4-1024_fine
I0321 20:49:03.796185 21340 net.cpp:120] Top shape: 50 1024 6 6 (1843200)
I0321 20:49:03.796212 21340 layer_factory.hpp:74] Creating layer relu10_fine
I0321 20:49:03.796238 21340 net.cpp:84] Creating Layer relu10_fine
I0321 20:49:03.796247 21340 net.cpp:380] relu10_fine <- conv4_fine
I0321 20:49:03.796262 21340 net.cpp:327] relu10_fine -> conv4_fine (in-place)
I0321 20:49:03.796268 21340 net.cpp:113] Setting up relu10_fine
I0321 20:49:03.796275 21340 net.cpp:120] Top shape: 50 1024 6 6 (1843200)
I0321 20:49:03.796279 21340 layer_factory.hpp:74] Creating layer cccp7-1024_fine
I0321 20:49:03.796288 21340 net.cpp:84] Creating Layer cccp7-1024_fine
I0321 20:49:03.796293 21340 net.cpp:380] cccp7-1024_fine <- conv4_fine
I0321 20:49:03.796304 21340 net.cpp:338] cccp7-1024_fine -> cccp7_fine
I0321 20:49:03.796313 21340 net.cpp:113] Setting up cccp7-1024_fine
I0321 20:49:03.832165 21340 net.cpp:120] Top shape: 50 1024 6 6 (1843200)
I0321 20:49:03.832190 21340 layer_factory.hpp:74] Creating layer relu11_fine
I0321 20:49:03.832202 21340 net.cpp:84] Creating Layer relu11_fine
I0321 20:49:03.832208 21340 net.cpp:380] relu11_fine <- cccp7_fine
I0321 20:49:03.832214 21340 net.cpp:327] relu11_fine -> cccp7_fine (in-place)
I0321 20:49:03.832234 21340 net.cpp:113] Setting up relu11_fine
I0321 20:49:03.832240 21340 net.cpp:120] Top shape: 50 1024 6 6 (1843200)
I0321 20:49:03.832244 21340 layer_factory.hpp:74] Creating layer cccp8-1024_fine
I0321 20:49:03.832257 21340 net.cpp:84] Creating Layer cccp8-1024_fine
I0321 20:49:03.832263 21340 net.cpp:380] cccp8-1024_fine <- cccp7_fine
I0321 20:49:03.832269 21340 net.cpp:338] cccp8-1024_fine -> cccp8_fine
I0321 20:49:03.832276 21340 net.cpp:113] Setting up cccp8-1024_fine
I0321 20:49:03.867301 21340 net.cpp:120] Top shape: 50 1000 6 6 (1800000)
I0321 20:49:03.867321 21340 layer_factory.hpp:74] Creating layer relu12_fine
I0321 20:49:03.867347 21340 net.cpp:84] Creating Layer relu12_fine
I0321 20:49:03.867353 21340 net.cpp:380] relu12_fine <- cccp8_fine
I0321 20:49:03.867360 21340 net.cpp:327] relu12_fine -> cccp8_fine (in-place)
I0321 20:49:03.867372 21340 net.cpp:113] Setting up relu12_fine
I0321 20:49:03.867382 21340 net.cpp:120] Top shape: 50 1000 6 6 (1800000)
I0321 20:49:03.867386 21340 layer_factory.hpp:74] Creating layer pool4_fine
I0321 20:49:03.867396 21340 net.cpp:84] Creating Layer pool4_fine
I0321 20:49:03.867403 21340 net.cpp:380] pool4_fine <- cccp8_fine
I0321 20:49:03.867410 21340 net.cpp:338] pool4_fine -> pool4_fine
I0321 20:49:03.867419 21340 net.cpp:113] Setting up pool4_fine
I0321 20:49:03.867429 21340 net.cpp:120] Top shape: 50 1000 1 1 (50000)
I0321 20:49:03.867434 21340 layer_factory.hpp:74] Creating layer pool4_fine_pool4_fine_0_split
I0321 20:49:03.867449 21340 net.cpp:84] Creating Layer pool4_fine_pool4_fine_0_split
I0321 20:49:03.867475 21340 net.cpp:380] pool4_fine_pool4_fine_0_split <- pool4_fine
I0321 20:49:03.867486 21340 net.cpp:338] pool4_fine_pool4_fine_0_split -> pool4_fine_pool4_fine_0_split_0
I0321 20:49:03.867496 21340 net.cpp:338] pool4_fine_pool4_fine_0_split -> pool4_fine_pool4_fine_0_split_1
I0321 20:49:03.867504 21340 net.cpp:338] pool4_fine_pool4_fine_0_split -> pool4_fine_pool4_fine_0_split_2
I0321 20:49:03.867511 21340 net.cpp:113] Setting up pool4_fine_pool4_fine_0_split
I0321 20:49:03.867518 21340 net.cpp:120] Top shape: 50 1000 1 1 (50000)
I0321 20:49:03.867524 21340 net.cpp:120] Top shape: 50 1000 1 1 (50000)
I0321 20:49:03.867528 21340 net.cpp:120] Top shape: 50 1000 1 1 (50000)
I0321 20:49:03.867532 21340 layer_factory.hpp:74] Creating layer accuracy_fine
I0321 20:49:03.867542 21340 net.cpp:84] Creating Layer accuracy_fine
I0321 20:49:03.867548 21340 net.cpp:380] accuracy_fine <- pool4_fine_pool4_fine_0_split_0
I0321 20:49:03.867559 21340 net.cpp:380] accuracy_fine <- label_data_1_split_2
I0321 20:49:03.867568 21340 net.cpp:338] accuracy_fine -> accuracy_fine
…
I0321 20:49:03.867630 21340 layer_factory.hpp:74] Creating layer loss_fine
I0321 20:49:03.867782 21340 net.cpp:120] Top shape: (1)
I0321 20:49:03.867789 21340 net.cpp:122]     with loss weight 0.3
I0321 20:49:03.867805 21340 layer_factory.hpp:74] Creating layer fuse
I0321 20:49:03.867812 21340 net.cpp:84] Creating Layer fuse
I0321 20:49:03.867818 21340 net.cpp:380] fuse <- pool3_coarse_drop_coarse_0_split_1
I0321 20:49:03.867823 21340 net.cpp:380] fuse <- pool3_fine_drop_fine_0_split_1
I0321 20:49:03.867830 21340 net.cpp:338] fuse -> pool3_fused
I0321 20:49:03.867837 21340 net.cpp:113] Setting up fuse
I0321 20:49:03.867851 21340 net.cpp:120] Top shape: 50 384 6 6 (691200)
I0321 20:49:03.867856 21340 layer_factory.hpp:74] Creating layer conv4-1024_fused
I0321 20:49:03.867868 21340 net.cpp:84] Creating Layer conv4-1024_fused
I0321 20:49:03.867873 21340 net.cpp:380] conv4-1024_fused <- pool3_fused
I0321 20:49:03.867882 21340 net.cpp:338] conv4-1024_fused -> conv4_fused
I0321 20:49:03.867892 21340 net.cpp:113] Setting up conv4-1024_fused
I0321 20:49:03.997759 21340 net.cpp:120] Top shape: 50 1024 6 6 (1843200)
I0321 20:49:03.997882 21340 layer_factory.hpp:74] Creating layer relu10_fused
I0321 20:49:03.997923 21340 net.cpp:84] Creating Layer relu10_fused
I0321 20:49:03.997972 21340 net.cpp:380] relu10_fused <- conv4_fused
I0321 20:49:03.997983 21340 net.cpp:327] relu10_fused -> conv4_fused (in-place)
I0321 20:49:03.997995 21340 net.cpp:113] Setting up relu10_fused
I0321 20:49:03.998004 21340 net.cpp:120] Top shape: 50 1024 6 6 (1843200)
I0321 20:49:03.998009 21340 layer_factory.hpp:74] Creating layer cccp7-1024_fused
I0321 20:49:03.998029 21340 net.cpp:84] Creating Layer cccp7-1024_fused
I0321 20:49:03.998035 21340 net.cpp:380] cccp7-1024_fused <- conv4_fused
I0321 20:49:03.998070 21340 net.cpp:338] cccp7-1024_fused -> cccp7_fused
I0321 20:49:03.998101 21340 net.cpp:113] Setting up cccp7-1024_fused
I0321 20:49:04.032749 21340 net.cpp:120] Top shape: 50 1024 6 6 (1843200)
I0321 20:49:04.032768 21340 layer_factory.hpp:74] Creating layer relu11_fused
I0321 20:49:04.032783 21340 net.cpp:84] Creating Layer relu11_fused
I0321 20:49:04.032788 21340 net.cpp:380] relu11_fused <- cccp7_fused
I0321 20:49:04.032799 21340 net.cpp:327] relu11_fused -> cccp7_fused (in-place)
I0321 20:49:04.032805 21340 net.cpp:113] Setting up relu11_fused
I0321 20:49:04.032810 21340 net.cpp:120] Top shape: 50 1024 6 6 (1843200)
I0321 20:49:04.032815 21340 layer_factory.hpp:74] Creating layer cccp8-1024_fused
I0321 20:49:04.032855 21340 net.cpp:84] Creating Layer cccp8-1024_fused
I0321 20:49:04.032861 21340 net.cpp:380] cccp8-1024_fused <- cccp7_fused
I0321 20:49:04.032876 21340 net.cpp:338] cccp8-1024_fused -> cccp8_fused
I0321 20:49:04.032886 21340 net.cpp:113] Setting up cccp8-1024_fused
I0321 20:49:04.066002 21340 net.cpp:120] Top shape: 50 1000 6 6 (1800000)
I0321 20:49:04.066015 21340 layer_factory.hpp:74] Creating layer relu12_fused
I0321 20:49:04.066020 21340 net.cpp:84] Creating Layer relu12_fused
I0321 20:49:04.066025 21340 net.cpp:380] relu12_fused <- cccp8_fused
I0321 20:49:04.066032 21340 net.cpp:327] relu12_fused -> cccp8_fused (in-place)
I0321 20:49:04.066037 21340 net.cpp:113] Setting up relu12_fused
I0321 20:49:04.066042 21340 net.cpp:120] Top shape: 50 1000 6 6 (1800000)
I0321 20:49:04.066046 21340 layer_factory.hpp:74] Creating layer pool4_fused
I0321 20:49:04.066061 21340 net.cpp:84] Creating Layer pool4_fused
I0321 20:49:04.066066 21340 net.cpp:380] pool4_fused <- cccp8_fused
I0321 20:49:04.066092 21340 net.cpp:338] pool4_fused -> pool4_fused
I0321 20:49:04.066100 21340 net.cpp:113] Setting up pool4_fused
I0321 20:49:04.066109 21340 net.cpp:120] Top shape: 50 1000 1 1 (50000)
I0321 20:49:04.066114 21340 layer_factory.hpp:74] Creating layer pool4_fused_pool4_fused_0_split
I0321 20:49:04.066125 21340 net.cpp:84] Creating Layer pool4_fused_pool4_fused_0_split
I0321 20:49:04.066130 21340 net.cpp:380] pool4_fused_pool4_fused_0_split <- pool4_fused
I0321 20:49:04.066136 21340 net.cpp:338] pool4_fused_pool4_fused_0_split -> pool4_fused_pool4_fused_0_split_0
I0321 20:49:04.066143 21340 net.cpp:338] pool4_fused_pool4_fused_0_split -> pool4_fused_pool4_fused_0_split_1
I0321 20:49:04.066256 21340 net.cpp:338] pool4_fused_pool4_fused_0_split -> pool4_fused_pool4_fused_0_split_2
I0321 20:49:04.066264 21340 net.cpp:113] Setting up pool4_fused_pool4_fused_0_split
I0321 20:49:04.066283 21340 net.cpp:120] Top shape: 50 1000 1 1 (50000)
I0321 20:49:04.066290 21340 net.cpp:120] Top shape: 50 1000 1 1 (50000)
I0321 20:49:04.066295 21340 net.cpp:120] Top shape: 50 1000 1 1 (50000)
I0321 20:49:04.066299 21340 layer_factory.hpp:74] Creating layer accuracy_fused
I0321 20:49:04.066318 21340 net.cpp:84] Creating Layer accuracy_fused
I0321 20:49:04.066323 21340 net.cpp:380] accuracy_fused <- pool4_fused_pool4_fused_0_split_0
I0321 20:49:04.066329 21340 net.cpp:380] accuracy_fused <- label_data_1_split_4
I0321 20:49:04.066335 21340 net.cpp:338] accuracy_fused -> accuracy_fused
…
