…
I0318 20:27:02.256685 22424 net.cpp:313] The NetState phase (0) differed from the phase (1) specified by a rule in layer accuracy
I0318 20:27:02.256970 22424 net.cpp:49] Initializing net from parameters: 
name: "nincaffe_imagenet"
state {
  phase: TRAIN
}
layer {
  name: "data"
  type: "Data"
  top: "data"
  top: "label"
  include {
    phase: TRAIN
  }
  transform_param {
    mirror: true
    crop_size: 224
    mean_file: "data/imagenet/data/imagenet_mean.binaryproto"
  }
  data_param {
    source: "data/imagenet/data/ilsvrc12_train_lmdb"
    batch_size: 64
    backend: LMDB
  }
}
layer {
  name: "conv1"
  type: "Convolution"
  bottom: "data"
  top: "conv1"
  param {
    lr_mult: 1
    decay_mult: 1
  }
  param {
    lr_mult: 2
    decay_mult: 0
  }
  convolution_param {
    num_output: 96
    kernel_size: 11
    stride: 4
    weight_filler {
      type: "gaussian"
      mean: 0
      std: 0.01
    }
    bias_filler {
      type: "constant"
      value: 0
    }
  }
}
layer {
  name: "relu0"
  type: "ReLU"
  bottom: "conv1"
  top: "conv1"
}
layer {
  name: "cccp1"
  type: "Convolution"
  bottom: "conv1"
  top: "cccp1"
  param {
    lr_mult: 1
    decay_mult: 1
  }
  param {
    lr_mult: 2
    decay_mult: 0
  }
  convolution_param {
    num_output: 96
    kernel_size: 1
    stride: 1
    weight_filler {
      type: "gaussian"
      mean: 0
      std: 0.05
    }
    bias_filler {
      type: "constant"
      value: 0
    }
  }
}
layer {
  name: "relu1"
  type: "ReLU"
  bottom: "cccp1"
  top: "cccp1"
}
layer {
  name: "cccp2"
  type: "Convolution"
  bottom: "cccp1"
  top: "cccp2"
  param {
    lr_mult: 1
    decay_mult: 1
  }
  param {
    lr_mult: 2
    decay_mult: 0
  }
  convolution_param {
    num_output: 96
    kernel_size: 1
    stride: 1
    weight_filler {
      type: "gaussian"
      mean: 0
      std: 0.05
    }
    bias_filler {
      type: "constant"
      value: 0
    }
  }
}
layer {
  name: "relu2"
  type: "ReLU"
  bottom: "cccp2"
  top: "cccp2"
}
layer {
  name: "pool1"
  type: "Pooling"
  bottom: "cccp2"
  top: "pool1"
  pooling_param {
    pool: MAX
    kernel_size: 3
    stride: 2
  }
}
layer {
  name: "conv2"
  type: "Convolution"
  bottom: "pool1"
  top: "conv2"
  param {
    lr_mult: 1
    decay_mult: 1
  }
  param {
    lr_mult: 2
    decay_mult: 0
  }
  convolution_param {
    num_output: 256
    pad: 2
    kernel_size: 5
    stride: 1
    weight_filler {
      type: "gaussian"
      mean: 0
      std: 0.05
    }
    bias_filler {
      type: "constant"
      value: 0
    }
  }
}
layer {
  name: "relu3"
  type: "ReLU"
  bottom: "conv2"
  top: "conv2"
}
layer {
  name: "cccp3"
  type: "Convolution"
  bottom: "conv2"
  top: "cccp3"
  param {
    lr_mult: 1
    decay_mult: 1
  }
  param {
    lr_mult: 2
    decay_mult: 0
  }
  convolution_param {
    num_output: 256
    kernel_size: 1
    stride: 1
    weight_filler {
      type: "gaussian"
      mean: 0
      std: 0.05
    }
    bias_filler {
      type: "constant"
      value: 0
    }
  }
}
layer {
  name: "relu5"
  type: "ReLU"
  bottom: "cccp3"
  top: "cccp3"
}
layer {
  name: "cccp4"
  type: "Convolution"
  bottom: "cccp3"
  top: "cccp4"
  param {
    lr_mult: 1
    decay_mult: 1
  }
  param {
    lr_mult: 2
    decay_mult: 0
  }
  convolution_param {
    num_output: 256
    kernel_size: 1
    stride: 1
    weight_filler {
      type: "gaussian"
      mean: 0
      std: 0.05
    }
    bias_filler {
      type: "constant"
      value: 0
    }
  }
}
layer {
  name: "relu6"
  type: "ReLU"
  bottom: "cccp4"
  top: "cccp4"
}
layer {
  name: "pool2"
  type: "Pooling"
  bottom: "cccp4"
  top: "pool2"
  pooling_param {
    pool: MAX
    kernel_size: 3
    stride: 2
  }
}
layer {
  name: "conv3"
  type: "Convolution"
  bottom: "pool2"
  top: "conv3"
  param {
    lr_mult: 1
    decay_mult: 1
  }
  param {
    lr_mult: 2
    decay_mult: 0
  }
  convolution_param {
    num_output: 384
    pad: 1
    kernel_size: 3
    stride: 1
    weight_filler {
      type: "gaussian"
      mean: 0
      std: 0.01
    }
    bias_filler {
      type: "constant"
      value: 0
    }
  }
}
layer {
  name: "relu7"
  type: "ReLU"
  bottom: "conv3"
  top: "conv3"
}
layer {
  name: "cccp5"
  type: "Convolution"
  bottom: "conv3"
  top: "cccp5"
  param {
    lr_mult: 1
    decay_mult: 1
  }
  param {
    lr_mult: 2
    decay_mult: 0
  }
  convolution_param {
    num_output: 384
    kernel_size: 1
    stride: 1
    weight_filler {
      type: "gaussian"
      mean: 0
      std: 0.05
    }
    bias_filler {
      type: "constant"
      value: 0
    }
  }
}
layer {
  name: "relu8"
  type: "ReLU"
  bottom: "cccp5"
  top: "cccp5"
}
layer {
  name: "cccp6"
  type: "Convolution"
  bottom: "cccp5"
  top: "cccp6"
  param {
    lr_mult: 1
    decay_mult: 1
  }
  param {
    lr_mult: 2
    decay_mult: 0
  }
  convolution_param {
    num_output: 384
    kernel_size: 1
    stride: 1
    weight_filler {
      type: "gaussian"
      mean: 0
      std: 0.05
    }
    bias_filler {
      type: "constant"
      value: 0
    }
  }
}
layer {
  name: "relu9"
  type: "ReLU"
  bottom: "cccp6"
  top: "cccp6"
}
layer {
  name: "pool3"
  type: "Pooling"
  bottom: "cccp6"
  top: "pool3"
  pooling_param {
    pool: MAX
    kernel_size: 3
    stride: 2
  }
}
layer {
  name: "drop"
  type: "Dropout"
  bottom: "pool3"
  top: "pool3"
  dropout_param {
    dropout_ratio: 0.5
  }
}
layer {
  name: "conv4-1024"
  type: "Convolution"
  bottom: "pool3"
  top: "conv4"
  param {
    lr_mult: 1
    decay_mult: 1
  }
  param {
    lr_mult: 2
    decay_mult: 0
  }
  convolution_param {
    num_output: 1024
    pad: 1
    kernel_size: 3
    stride: 1
    weight_filler {
      type: "gaussian"
      mean: 0
      std: 0.05
    }
    bias_filler {
      type: "constant"
      value: 0
    }
  }
}
layer {
  name: "relu10"
  type: "ReLU"
  bottom: "conv4"
  top: "conv4"
}
layer {
  name: "cccp7-1024"
  type: "Convolution"
  bottom: "conv4"
  top: "cccp7"
  param {
    lr_mult: 1
    decay_mult: 1
  }
  param {
    lr_mult: 2
    decay_mult: 0
  }
  convolution_param {
    num_output: 1024
    kernel_size: 1
    stride: 1
    weight_filler {
      type: "gaussian"
      mean: 0
      std: 0.05
    }
    bias_filler {
      type: "constant"
      value: 0
    }
  }
}
layer {
  name: "relu11"
  type: "ReLU"
  bottom: "cccp7"
  top: "cccp7"
}
layer {
  name: "cccp8-1024"
  type: "Convolution"
  bottom: "cccp7"
  top: "cccp8"
  param {
    lr_mult: 1
    decay_mult: 1
  }
  param {
    lr_mult: 2
    decay_mult: 0
  }
  convolution_param {
    num_output: 1000
    kernel_size: 1
    stride: 1
    weight_filler {
      type: "gaussian"
      mean: 0
      std: 0.01
    }
    bias_filler {
      type: "constant"
      value: 0
    }
  }
}
layer {
  name: "relu12"
  type: "ReLU"
  bottom: "cccp8"
  top: "cccp8"
}
layer {
  name: "pool4"
  type: "Pooling"
  bottom: "cccp8"
  top: "pool4"
  pooling_param {
    pool: AVE
    kernel_size: 6
    stride: 1
  }
}
layer {
  name: "loss"
  type: "SoftmaxWithLoss"
  bottom: "pool4"
  bottom: "label"
  include {
    phase: TRAIN
  }
}
I0318 20:27:02.257180 22424 layer_factory.hpp:77] Creating layer data
I0318 20:27:02.257784 22424 net.cpp:91] Creating Layer data
I0318 20:27:02.257843 22424 net.cpp:399] data -> data
I0318 20:27:02.257892 22424 net.cpp:399] data -> label
I0318 20:27:02.257918 22424 data_transformer.cpp:25] Loading mean file from: data/imagenet/data/imagenet_mean.binaryproto
I0318 20:27:02.271374 22427 db_lmdb.cpp:35] Opened lmdb data/imagenet/data/ilsvrc12_train_lmdb
I0318 20:27:02.362093 22424 data_layer.cpp:41] output data size: 64,3,224,224
I0318 20:27:02.459303 22424 net.cpp:141] Setting up data
I0318 20:27:02.459375 22424 net.cpp:148] Top shape: 64 3 224 224 (9633792)
I0318 20:27:02.459386 22424 net.cpp:148] Top shape: 64 (64)
I0318 20:27:02.459393 22424 net.cpp:156] Memory required for data: 38535424
I0318 20:27:02.459406 22424 layer_factory.hpp:77] Creating layer conv1
I0318 20:27:02.459442 22424 net.cpp:91] Creating Layer conv1
I0318 20:27:02.459452 22424 net.cpp:425] conv1 <- data
I0318 20:27:02.459475 22424 net.cpp:399] conv1 -> conv1
I0318 20:27:02.463057 22424 net.cpp:141] Setting up conv1
I0318 20:27:02.463078 22424 net.cpp:148] Top shape: 64 96 54 54 (17915904)
I0318 20:27:02.463091 22424 net.cpp:156] Memory required for data: 110199040
I0318 20:27:02.463115 22424 layer_factory.hpp:77] Creating layer relu0
I0318 20:27:02.463138 22424 net.cpp:91] Creating Layer relu0
I0318 20:27:02.463148 22424 net.cpp:425] relu0 <- conv1
I0318 20:27:02.463158 22424 net.cpp:386] relu0 -> conv1 (in-place)
I0318 20:27:02.463174 22424 net.cpp:141] Setting up relu0
I0318 20:27:02.463183 22424 net.cpp:148] Top shape: 64 96 54 54 (17915904)
I0318 20:27:02.463191 22424 net.cpp:156] Memory required for data: 181862656
I0318 20:27:02.463196 22424 layer_factory.hpp:77] Creating layer cccp1
I0318 20:27:02.463210 22424 net.cpp:91] Creating Layer cccp1
I0318 20:27:02.463217 22424 net.cpp:425] cccp1 <- conv1
I0318 20:27:02.463227 22424 net.cpp:399] cccp1 -> cccp1
I0318 20:27:02.469622 22424 net.cpp:141] Setting up cccp1
I0318 20:27:02.469645 22424 net.cpp:148] Top shape: 64 96 54 54 (17915904)
I0318 20:27:02.469658 22424 net.cpp:156] Memory required for data: 253526272
I0318 20:27:02.469671 22424 layer_factory.hpp:77] Creating layer relu1
I0318 20:27:02.469683 22424 net.cpp:91] Creating Layer relu1
I0318 20:27:02.469689 22424 net.cpp:425] relu1 <- cccp1
I0318 20:27:02.469697 22424 net.cpp:386] relu1 -> cccp1 (in-place)
I0318 20:27:02.469712 22424 net.cpp:141] Setting up relu1
I0318 20:27:02.469719 22424 net.cpp:148] Top shape: 64 96 54 54 (17915904)
I0318 20:27:02.469723 22424 net.cpp:156] Memory required for data: 325189888
I0318 20:27:02.469729 22424 layer_factory.hpp:77] Creating layer cccp2
I0318 20:27:02.469748 22424 net.cpp:91] Creating Layer cccp2
I0318 20:27:02.469754 22424 net.cpp:425] cccp2 <- cccp1
I0318 20:27:02.469764 22424 net.cpp:399] cccp2 -> cccp2
I0318 20:27:02.470419 22424 net.cpp:141] Setting up cccp2
I0318 20:27:02.470434 22424 net.cpp:148] Top shape: 64 96 54 54 (17915904)
I0318 20:27:02.470439 22424 net.cpp:156] Memory required for data: 396853504
I0318 20:27:02.470453 22424 layer_factory.hpp:77] Creating layer relu2
I0318 20:27:02.470460 22424 net.cpp:91] Creating Layer relu2
I0318 20:27:02.470466 22424 net.cpp:425] relu2 <- cccp2
I0318 20:27:02.470474 22424 net.cpp:386] relu2 -> cccp2 (in-place)
I0318 20:27:02.470481 22424 net.cpp:141] Setting up relu2
I0318 20:27:02.470489 22424 net.cpp:148] Top shape: 64 96 54 54 (17915904)
I0318 20:27:02.470494 22424 net.cpp:156] Memory required for data: 468517120
I0318 20:27:02.470499 22424 layer_factory.hpp:77] Creating layer pool1
I0318 20:27:02.470506 22424 net.cpp:91] Creating Layer pool1
I0318 20:27:02.470525 22424 net.cpp:425] pool1 <- cccp2
I0318 20:27:02.470532 22424 net.cpp:399] pool1 -> pool1
I0318 20:27:02.470592 22424 net.cpp:141] Setting up pool1
I0318 20:27:02.470602 22424 net.cpp:148] Top shape: 64 96 27 27 (4478976)
I0318 20:27:02.470607 22424 net.cpp:156] Memory required for data: 486433024
I0318 20:27:02.470621 22424 layer_factory.hpp:77] Creating layer conv2
I0318 20:27:02.470636 22424 net.cpp:91] Creating Layer conv2
I0318 20:27:02.470643 22424 net.cpp:425] conv2 <- pool1
I0318 20:27:02.470674 22424 net.cpp:399] conv2 -> conv2
I0318 20:27:02.497191 22424 net.cpp:141] Setting up conv2
I0318 20:27:02.497210 22424 net.cpp:148] Top shape: 64 256 27 27 (11943936)
I0318 20:27:02.497215 22424 net.cpp:156] Memory required for data: 534208768
I0318 20:27:02.497225 22424 layer_factory.hpp:77] Creating layer relu3
I0318 20:27:02.497233 22424 net.cpp:91] Creating Layer relu3
I0318 20:27:02.497238 22424 net.cpp:425] relu3 <- conv2
I0318 20:27:02.497246 22424 net.cpp:386] relu3 -> conv2 (in-place)
I0318 20:27:02.497254 22424 net.cpp:141] Setting up relu3
I0318 20:27:02.497261 22424 net.cpp:148] Top shape: 64 256 27 27 (11943936)
I0318 20:27:02.497268 22424 net.cpp:156] Memory required for data: 581984512
I0318 20:27:02.497272 22424 layer_factory.hpp:77] Creating layer cccp3
I0318 20:27:02.497284 22424 net.cpp:91] Creating Layer cccp3
I0318 20:27:02.497289 22424 net.cpp:425] cccp3 <- conv2
I0318 20:27:02.497298 22424 net.cpp:399] cccp3 -> cccp3
I0318 20:27:02.499959 22424 net.cpp:141] Setting up cccp3
I0318 20:27:02.499971 22424 net.cpp:148] Top shape: 64 256 27 27 (11943936)
I0318 20:27:02.499975 22424 net.cpp:156] Memory required for data: 629760256
I0318 20:27:02.499989 22424 layer_factory.hpp:77] Creating layer relu5
I0318 20:27:02.499996 22424 net.cpp:91] Creating Layer relu5
I0318 20:27:02.500001 22424 net.cpp:425] relu5 <- cccp3
I0318 20:27:02.500008 22424 net.cpp:386] relu5 -> cccp3 (in-place)
I0318 20:27:02.500016 22424 net.cpp:141] Setting up relu5
I0318 20:27:02.500021 22424 net.cpp:148] Top shape: 64 256 27 27 (11943936)
I0318 20:27:02.500025 22424 net.cpp:156] Memory required for data: 677536000
I0318 20:27:02.500030 22424 layer_factory.hpp:77] Creating layer cccp4
I0318 20:27:02.500044 22424 net.cpp:91] Creating Layer cccp4
I0318 20:27:02.500051 22424 net.cpp:425] cccp4 <- cccp3
I0318 20:27:02.500057 22424 net.cpp:399] cccp4 -> cccp4
I0318 20:27:02.502704 22424 net.cpp:141] Setting up cccp4
I0318 20:27:02.502717 22424 net.cpp:148] Top shape: 64 256 27 27 (11943936)
I0318 20:27:02.502722 22424 net.cpp:156] Memory required for data: 725311744
I0318 20:27:02.502729 22424 layer_factory.hpp:77] Creating layer relu6
I0318 20:27:02.502738 22424 net.cpp:91] Creating Layer relu6
I0318 20:27:02.502744 22424 net.cpp:425] relu6 <- cccp4
I0318 20:27:02.502751 22424 net.cpp:386] relu6 -> cccp4 (in-place)
I0318 20:27:02.502760 22424 net.cpp:141] Setting up relu6
I0318 20:27:02.502766 22424 net.cpp:148] Top shape: 64 256 27 27 (11943936)
I0318 20:27:02.502770 22424 net.cpp:156] Memory required for data: 773087488
I0318 20:27:02.502774 22424 layer_factory.hpp:77] Creating layer pool2
I0318 20:27:02.502781 22424 net.cpp:91] Creating Layer pool2
I0318 20:27:02.502786 22424 net.cpp:425] pool2 <- cccp4
I0318 20:27:02.502794 22424 net.cpp:399] pool2 -> pool2
I0318 20:27:02.502833 22424 net.cpp:141] Setting up pool2
I0318 20:27:02.502841 22424 net.cpp:148] Top shape: 64 256 13 13 (2768896)
I0318 20:27:02.502846 22424 net.cpp:156] Memory required for data: 784163072
I0318 20:27:02.502851 22424 layer_factory.hpp:77] Creating layer conv3
I0318 20:27:02.502863 22424 net.cpp:91] Creating Layer conv3
I0318 20:27:02.502869 22424 net.cpp:425] conv3 <- pool2
I0318 20:27:02.502877 22424 net.cpp:399] conv3 -> conv3
I0318 20:27:02.534454 22428 blocking_queue.cpp:50] Waiting for data
I0318 20:27:02.537560 22424 net.cpp:141] Setting up conv3
I0318 20:27:02.537580 22424 net.cpp:148] Top shape: 64 384 13 13 (4153344)
I0318 20:27:02.537585 22424 net.cpp:156] Memory required for data: 800776448
I0318 20:27:02.537593 22424 layer_factory.hpp:77] Creating layer relu7
I0318 20:27:02.537606 22424 net.cpp:91] Creating Layer relu7
I0318 20:27:02.537611 22424 net.cpp:425] relu7 <- conv3
I0318 20:27:02.537618 22424 net.cpp:386] relu7 -> conv3 (in-place)
I0318 20:27:02.537628 22424 net.cpp:141] Setting up relu7
I0318 20:27:02.537636 22424 net.cpp:148] Top shape: 64 384 13 13 (4153344)
I0318 20:27:02.537639 22424 net.cpp:156] Memory required for data: 817389824
I0318 20:27:02.537643 22424 layer_factory.hpp:77] Creating layer cccp5
I0318 20:27:02.537672 22424 net.cpp:91] Creating Layer cccp5
I0318 20:27:02.537678 22424 net.cpp:425] cccp5 <- conv3
I0318 20:27:02.537686 22424 net.cpp:399] cccp5 -> cccp5
I0318 20:27:02.544004 22424 net.cpp:141] Setting up cccp5
I0318 20:27:02.544021 22424 net.cpp:148] Top shape: 64 384 13 13 (4153344)
I0318 20:27:02.544028 22424 net.cpp:156] Memory required for data: 834003200
I0318 20:27:02.544036 22424 layer_factory.hpp:77] Creating layer relu8
I0318 20:27:02.544045 22424 net.cpp:91] Creating Layer relu8
I0318 20:27:02.544052 22424 net.cpp:425] relu8 <- cccp5
I0318 20:27:02.544059 22424 net.cpp:386] relu8 -> cccp5 (in-place)
I0318 20:27:02.544069 22424 net.cpp:141] Setting up relu8
I0318 20:27:02.544075 22424 net.cpp:148] Top shape: 64 384 13 13 (4153344)
I0318 20:27:02.544080 22424 net.cpp:156] Memory required for data: 850616576
I0318 20:27:02.544083 22424 layer_factory.hpp:77] Creating layer cccp6
I0318 20:27:02.544095 22424 net.cpp:91] Creating Layer cccp6
I0318 20:27:02.544100 22424 net.cpp:425] cccp6 <- cccp5
I0318 20:27:02.544108 22424 net.cpp:399] cccp6 -> cccp6
I0318 20:27:02.550434 22424 net.cpp:141] Setting up cccp6
I0318 20:27:02.550451 22424 net.cpp:148] Top shape: 64 384 13 13 (4153344)
I0318 20:27:02.550468 22424 net.cpp:156] Memory required for data: 867229952
I0318 20:27:02.550482 22424 layer_factory.hpp:77] Creating layer relu9
I0318 20:27:02.550508 22424 net.cpp:91] Creating Layer relu9
I0318 20:27:02.550514 22424 net.cpp:425] relu9 <- cccp6
I0318 20:27:02.550521 22424 net.cpp:386] relu9 -> cccp6 (in-place)
I0318 20:27:02.550531 22424 net.cpp:141] Setting up relu9
I0318 20:27:02.550542 22424 net.cpp:148] Top shape: 64 384 13 13 (4153344)
I0318 20:27:02.550546 22424 net.cpp:156] Memory required for data: 883843328
I0318 20:27:02.550551 22424 layer_factory.hpp:77] Creating layer pool3
I0318 20:27:02.550565 22424 net.cpp:91] Creating Layer pool3
I0318 20:27:02.550571 22424 net.cpp:425] pool3 <- cccp6
I0318 20:27:02.550577 22424 net.cpp:399] pool3 -> pool3
I0318 20:27:02.550618 22424 net.cpp:141] Setting up pool3
I0318 20:27:02.550626 22424 net.cpp:148] Top shape: 64 384 6 6 (884736)
I0318 20:27:02.550631 22424 net.cpp:156] Memory required for data: 887382272
I0318 20:27:02.550637 22424 layer_factory.hpp:77] Creating layer drop
I0318 20:27:02.550649 22424 net.cpp:91] Creating Layer drop
I0318 20:27:02.550655 22424 net.cpp:425] drop <- pool3
I0318 20:27:02.550662 22424 net.cpp:386] drop -> pool3 (in-place)
I0318 20:27:02.550690 22424 net.cpp:141] Setting up drop
I0318 20:27:02.550698 22424 net.cpp:148] Top shape: 64 384 6 6 (884736)
I0318 20:27:02.550705 22424 net.cpp:156] Memory required for data: 890921216
I0318 20:27:02.550709 22424 layer_factory.hpp:77] Creating layer conv4-1024
I0318 20:27:02.550721 22424 net.cpp:91] Creating Layer conv4-1024
I0318 20:27:02.550727 22424 net.cpp:425] conv4-1024 <- pool3
I0318 20:27:02.550735 22424 net.cpp:399] conv4-1024 -> conv4
I0318 20:27:02.688293 22424 net.cpp:141] Setting up conv4-1024
I0318 20:27:02.688331 22424 net.cpp:148] Top shape: 64 1024 6 6 (2359296)
I0318 20:27:02.688338 22424 net.cpp:156] Memory required for data: 900358400
I0318 20:27:02.688347 22424 layer_factory.hpp:77] Creating layer relu10
I0318 20:27:02.688359 22424 net.cpp:91] Creating Layer relu10
I0318 20:27:02.688365 22424 net.cpp:425] relu10 <- conv4
I0318 20:27:02.688374 22424 net.cpp:386] relu10 -> conv4 (in-place)
I0318 20:27:02.688385 22424 net.cpp:141] Setting up relu10
I0318 20:27:02.688390 22424 net.cpp:148] Top shape: 64 1024 6 6 (2359296)
I0318 20:27:02.688393 22424 net.cpp:156] Memory required for data: 909795584
I0318 20:27:02.688398 22424 layer_factory.hpp:77] Creating layer cccp7-1024
I0318 20:27:02.688410 22424 net.cpp:91] Creating Layer cccp7-1024
I0318 20:27:02.688417 22424 net.cpp:425] cccp7-1024 <- conv4
I0318 20:27:02.688426 22424 net.cpp:399] cccp7-1024 -> cccp7
I0318 20:27:02.729688 22424 net.cpp:141] Setting up cccp7-1024
I0318 20:27:02.729728 22424 net.cpp:148] Top shape: 64 1024 6 6 (2359296)
I0318 20:27:02.729733 22424 net.cpp:156] Memory required for data: 919232768
I0318 20:27:02.729773 22424 layer_factory.hpp:77] Creating layer relu11
I0318 20:27:02.729785 22424 net.cpp:91] Creating Layer relu11
I0318 20:27:02.729791 22424 net.cpp:425] relu11 <- cccp7
I0318 20:27:02.729799 22424 net.cpp:386] relu11 -> cccp7 (in-place)
I0318 20:27:02.729813 22424 net.cpp:141] Setting up relu11
I0318 20:27:02.729820 22424 net.cpp:148] Top shape: 64 1024 6 6 (2359296)
I0318 20:27:02.729825 22424 net.cpp:156] Memory required for data: 928669952
I0318 20:27:02.729828 22424 layer_factory.hpp:77] Creating layer cccp8-1024
I0318 20:27:02.729842 22424 net.cpp:91] Creating Layer cccp8-1024
I0318 20:27:02.729847 22424 net.cpp:425] cccp8-1024 <- cccp7
I0318 20:27:02.729856 22424 net.cpp:399] cccp8-1024 -> cccp8
I0318 20:27:02.771296 22424 net.cpp:141] Setting up cccp8-1024
I0318 20:27:02.771334 22424 net.cpp:148] Top shape: 64 1000 6 6 (2304000)
I0318 20:27:02.771342 22424 net.cpp:156] Memory required for data: 937885952
I0318 20:27:02.771353 22424 layer_factory.hpp:77] Creating layer relu12
I0318 20:27:02.771365 22424 net.cpp:91] Creating Layer relu12
I0318 20:27:02.771373 22424 net.cpp:425] relu12 <- cccp8
I0318 20:27:02.771383 22424 net.cpp:386] relu12 -> cccp8 (in-place)
I0318 20:27:02.771396 22424 net.cpp:141] Setting up relu12
I0318 20:27:02.771404 22424 net.cpp:148] Top shape: 64 1000 6 6 (2304000)
I0318 20:27:02.771409 22424 net.cpp:156] Memory required for data: 947101952
I0318 20:27:02.771412 22424 layer_factory.hpp:77] Creating layer pool4
I0318 20:27:02.771420 22424 net.cpp:91] Creating Layer pool4
I0318 20:27:02.771426 22424 net.cpp:425] pool4 <- cccp8
I0318 20:27:02.771433 22424 net.cpp:399] pool4 -> pool4
I0318 20:27:02.771467 22424 net.cpp:141] Setting up pool4
I0318 20:27:02.771476 22424 net.cpp:148] Top shape: 64 1000 1 1 (64000)
I0318 20:27:02.771481 22424 net.cpp:156] Memory required for data: 947357952
I0318 20:27:02.771488 22424 layer_factory.hpp:77] Creating layer loss
I0318 20:27:02.771503 22424 net.cpp:91] Creating Layer loss
I0318 20:27:02.771509 22424 net.cpp:425] loss <- pool4
I0318 20:27:02.771515 22424 net.cpp:425] loss <- label
I0318 20:27:02.771528 22424 net.cpp:399] loss -> (automatic)
I0318 20:27:02.771543 22424 layer_factory.hpp:77] Creating layer loss
…
I0318 20:27:02.774947 22424 net.cpp:313] The NetState phase (1) differed from the phase (0) specified by a rule in layer loss
I0318 20:27:02.775483 22424 net.cpp:49] Initializing net from parameters: 
name: "nincaffe_imagenet"
state {
  phase: TEST
}
layer {
  name: "data"
  type: "Data"
  top: "data"
  top: "label"
  include {
    phase: TEST
  }
  transform_param {
    mirror: false
    crop_size: 224
    mean_file: "data/imagenet/data/imagenet_mean.binaryproto"
  }
  data_param {
    source: "data/imagenet/data/ilsvrc12_val_lmdb"
    batch_size: 50
    backend: LMDB
  }
}
layer {
  name: "conv1"
  type: "Convolution"
  bottom: "data"
  top: "conv1"
  param {
    lr_mult: 1
    decay_mult: 1
  }
  param {
    lr_mult: 2
    decay_mult: 0
  }
  convolution_param {
    num_output: 96
    kernel_size: 11
    stride: 4
    weight_filler {
      type: "gaussian"
      mean: 0
      std: 0.01
    }
    bias_filler {
      type: "constant"
      value: 0
    }
  }
}
layer {
  name: "relu0"
  type: "ReLU"
  bottom: "conv1"
  top: "conv1"
}
layer {
  name: "cccp1"
  type: "Convolution"
  bottom: "conv1"
  top: "cccp1"
  param {
    lr_mult: 1
    decay_mult: 1
  }
  param {
    lr_mult: 2
    decay_mult: 0
  }
  convolution_param {
    num_output: 96
    kernel_size: 1
    stride: 1
    weight_filler {
      type: "gaussian"
      mean: 0
      std: 0.05
    }
    bias_filler {
      type: "constant"
      value: 0
    }
  }
}
layer {
  name: "relu1"
  type: "ReLU"
  bottom: "cccp1"
  top: "cccp1"
}
layer {
  name: "cccp2"
  type: "Convolution"
  bottom: "cccp1"
  top: "cccp2"
  param {
    lr_mult: 1
    decay_mult: 1
  }
  param {
    lr_mult: 2
    decay_mult: 0
  }
  convolution_param {
    num_output: 96
    kernel_size: 1
    stride: 1
    weight_filler {
      type: "gaussian"
      mean: 0
      std: 0.05
    }
    bias_filler {
      type: "constant"
      value: 0
    }
  }
}
layer {
  name: "relu2"
  type: "ReLU"
  bottom: "cccp2"
  top: "cccp2"
}
layer {
  name: "pool1"
  type: "Pooling"
  bottom: "cccp2"
  top: "pool1"
  pooling_param {
    pool: MAX
    kernel_size: 3
    stride: 2
  }
}
layer {
  name: "conv2"
  type: "Convolution"
  bottom: "pool1"
  top: "conv2"
  param {
    lr_mult: 1
    decay_mult: 1
  }
  param {
    lr_mult: 2
    decay_mult: 0
  }
  convolution_param {
    num_output: 256
    pad: 2
    kernel_size: 5
    stride: 1
    weight_filler {
      type: "gaussian"
      mean: 0
      std: 0.05
    }
    bias_filler {
      type: "constant"
      value: 0
    }
  }
}
layer {
  name: "relu3"
  type: "ReLU"
  bottom: "conv2"
  top: "conv2"
}
layer {
  name: "cccp3"
  type: "Convolution"
  bottom: "conv2"
  top: "cccp3"
  param {
    lr_mult: 1
    decay_mult: 1
  }
  param {
    lr_mult: 2
    decay_mult: 0
  }
  convolution_param {
    num_output: 256
    kernel_size: 1
    stride: 1
    weight_filler {
      type: "gaussian"
      mean: 0
      std: 0.05
    }
    bias_filler {
      type: "constant"
      value: 0
    }
  }
}
layer {
  name: "relu5"
  type: "ReLU"
  bottom: "cccp3"
  top: "cccp3"
}
layer {
  name: "cccp4"
  type: "Convolution"
  bottom: "cccp3"
  top: "cccp4"
  param {
    lr_mult: 1
    decay_mult: 1
  }
  param {
    lr_mult: 2
    decay_mult: 0
  }
  convolution_param {
    num_output: 256
    kernel_size: 1
    stride: 1
    weight_filler {
      type: "gaussian"
      mean: 0
      std: 0.05
    }
    bias_filler {
      type: "constant"
      value: 0
    }
  }
}
layer {
  name: "relu6"
  type: "ReLU"
  bottom: "cccp4"
  top: "cccp4"
}
layer {
  name: "pool2"
  type: "Pooling"
  bottom: "cccp4"
  top: "pool2"
  pooling_param {
    pool: MAX
    kernel_size: 3
    stride: 2
  }
}
layer {
  name: "conv3"
  type: "Convolution"
  bottom: "pool2"
  top: "conv3"
  param {
    lr_mult: 1
    decay_mult: 1
  }
  param {
    lr_mult: 2
    decay_mult: 0
  }
  convolution_param {
    num_output: 384
    pad: 1
    kernel_size: 3
    stride: 1
    weight_filler {
      type: "gaussian"
      mean: 0
      std: 0.01
    }
    bias_filler {
      type: "constant"
      value: 0
    }
  }
}
layer {
  name: "relu7"
  type: "ReLU"
  bottom: "conv3"
  top: "conv3"
}
layer {
  name: "cccp5"
  type: "Convolution"
  bottom: "conv3"
  top: "cccp5"
  param {
    lr_mult: 1
    decay_mult: 1
  }
  param {
    lr_mult: 2
    decay_mult: 0
  }
  convolution_param {
    num_output: 384
    kernel_size: 1
    stride: 1
    weight_filler {
      type: "gaussian"
      mean: 0
      std: 0.05
    }
    bias_filler {
      type: "constant"
      value: 0
    }
  }
}
layer {
  name: "relu8"
  type: "ReLU"
  bottom: "cccp5"
  top: "cccp5"
}
layer {
  name: "cccp6"
  type: "Convolution"
  bottom: "cccp5"
  top: "cccp6"
  param {
    lr_mult: 1
    decay_mult: 1
  }
  param {
    lr_mult: 2
    decay_mult: 0
  }
  convolution_param {
    num_output: 384
    kernel_size: 1
    stride: 1
    weight_filler {
      type: "gaussian"
      mean: 0
      std: 0.05
    }
    bias_filler {
      type: "constant"
      value: 0
    }
  }
}
layer {
  name: "relu9"
  type: "ReLU"
  bottom: "cccp6"
  top: "cccp6"
}
layer {
  name: "pool3"
  type: "Pooling"
  bottom: "cccp6"
  top: "pool3"
  pooling_param {
    pool: MAX
    kernel_size: 3
    stride: 2
  }
}
layer {
  name: "drop"
  type: "Dropout"
  bottom: "pool3"
  top: "pool3"
  dropout_param {
    dropout_ratio: 0.5
  }
}
layer {
  name: "conv4-1024"
  type: "Convolution"
  bottom: "pool3"
  top: "conv4"
  param {
    lr_mult: 1
    decay_mult: 1
  }
  param {
    lr_mult: 2
    decay_mult: 0
  }
  convolution_param {
    num_output: 1024
    pad: 1
    kernel_size: 3
    stride: 1
    weight_filler {
      type: "gaussian"
      mean: 0
      std: 0.05
    }
    bias_filler {
      type: "constant"
      value: 0
    }
  }
}
layer {
  name: "relu10"
  type: "ReLU"
  bottom: "conv4"
  top: "conv4"
}
layer {
  name: "cccp7-1024"
  type: "Convolution"
  bottom: "conv4"
  top: "cccp7"
  param {
    lr_mult: 1
    decay_mult: 1
  }
  param {
    lr_mult: 2
    decay_mult: 0
  }
  convolution_param {
    num_output: 1024
    kernel_size: 1
    stride: 1
    weight_filler {
      type: "gaussian"
      mean: 0
      std: 0.05
    }
    bias_filler {
      type: "constant"
      value: 0
    }
  }
}
layer {
  name: "relu11"
  type: "ReLU"
  bottom: "cccp7"
  top: "cccp7"
}
layer {
  name: "cccp8-1024"
  type: "Convolution"
  bottom: "cccp7"
  top: "cccp8"
  param {
    lr_mult: 1
    decay_mult: 1
  }
  param {
    lr_mult: 2
    decay_mult: 0
  }
  convolution_param {
    num_output: 1000
    kernel_size: 1
    stride: 1
    weight_filler {
      type: "gaussian"
      mean: 0
      std: 0.01
    }
    bias_filler {
      type: "constant"
      value: 0
    }
  }
}
layer {
  name: "relu12"
  type: "ReLU"
  bottom: "cccp8"
  top: "cccp8"
}
layer {
  name: "pool4"
  type: "Pooling"
  bottom: "cccp8"
  top: "pool4"
  pooling_param {
    pool: AVE
    kernel_size: 6
    stride: 1
  }
}
layer {
  name: "accuracy"
  type: "Accuracy"
  bottom: "pool4"
  bottom: "label"
  top: "accuracy"
  include {
    phase: TEST
  }
}
I0318 20:27:02.775758 22424 layer_factory.hpp:77] Creating layer data
I0318 20:27:02.775924 22424 net.cpp:91] Creating Layer data
I0318 20:27:02.775945 22424 net.cpp:399] data -> data
I0318 20:27:02.775970 22424 net.cpp:399] data -> label
I0318 20:27:02.775991 22424 data_transformer.cpp:25] Loading mean file from: data/imagenet/data/imagenet_mean.binaryproto
I0318 20:27:03.160331 22429 db_lmdb.cpp:35] Opened lmdb data/imagenet/data/ilsvrc12_val_lmdb
I0318 20:27:03.427098 22424 data_layer.cpp:41] output data size: 50,3,224,224
I0318 20:27:03.504987 22424 net.cpp:141] Setting up data
I0318 20:27:03.505033 22424 net.cpp:148] Top shape: 50 3 224 224 (7526400)
I0318 20:27:03.505043 22424 net.cpp:148] Top shape: 50 (50)
I0318 20:27:03.505049 22424 net.cpp:156] Memory required for data: 30105800
I0318 20:27:03.505059 22424 layer_factory.hpp:77] Creating layer conv1
I0318 20:27:03.505084 22424 net.cpp:91] Creating Layer conv1
I0318 20:27:03.505091 22424 net.cpp:425] conv1 <- data
I0318 20:27:03.505106 22424 net.cpp:399] conv1 -> conv1
I0318 20:27:03.508044 22424 net.cpp:141] Setting up conv1
I0318 20:27:03.508069 22424 net.cpp:148] Top shape: 50 96 54 54 (13996800)
I0318 20:27:03.508078 22424 net.cpp:156] Memory required for data: 86093000
I0318 20:27:03.508095 22424 layer_factory.hpp:77] Creating layer relu0
I0318 20:27:03.508110 22424 net.cpp:91] Creating Layer relu0
I0318 20:27:03.508116 22424 net.cpp:425] relu0 <- conv1
I0318 20:27:03.508147 22424 net.cpp:386] relu0 -> conv1 (in-place)
I0318 20:27:03.508160 22424 net.cpp:141] Setting up relu0
I0318 20:27:03.508167 22424 net.cpp:148] Top shape: 50 96 54 54 (13996800)
I0318 20:27:03.508175 22424 net.cpp:156] Memory required for data: 142080200
I0318 20:27:03.508182 22424 layer_factory.hpp:77] Creating layer cccp1
I0318 20:27:03.508194 22424 net.cpp:91] Creating Layer cccp1
I0318 20:27:03.508201 22424 net.cpp:425] cccp1 <- conv1
I0318 20:27:03.508211 22424 net.cpp:399] cccp1 -> cccp1
I0318 20:27:03.512744 22424 net.cpp:141] Setting up cccp1
I0318 20:27:03.512768 22424 net.cpp:148] Top shape: 50 96 54 54 (13996800)
I0318 20:27:03.512775 22424 net.cpp:156] Memory required for data: 198067400
I0318 20:27:03.512789 22424 layer_factory.hpp:77] Creating layer relu1
I0318 20:27:03.512801 22424 net.cpp:91] Creating Layer relu1
I0318 20:27:03.512809 22424 net.cpp:425] relu1 <- cccp1
I0318 20:27:03.512816 22424 net.cpp:386] relu1 -> cccp1 (in-place)
I0318 20:27:03.512830 22424 net.cpp:141] Setting up relu1
I0318 20:27:03.512838 22424 net.cpp:148] Top shape: 50 96 54 54 (13996800)
I0318 20:27:03.512843 22424 net.cpp:156] Memory required for data: 254054600
I0318 20:27:03.512850 22424 layer_factory.hpp:77] Creating layer cccp2
I0318 20:27:03.512863 22424 net.cpp:91] Creating Layer cccp2
I0318 20:27:03.512871 22424 net.cpp:425] cccp2 <- cccp1
I0318 20:27:03.512881 22424 net.cpp:399] cccp2 -> cccp2
I0318 20:27:03.513598 22424 net.cpp:141] Setting up cccp2
I0318 20:27:03.513612 22424 net.cpp:148] Top shape: 50 96 54 54 (13996800)
I0318 20:27:03.513619 22424 net.cpp:156] Memory required for data: 310041800
I0318 20:27:03.513633 22424 layer_factory.hpp:77] Creating layer relu2
I0318 20:27:03.513644 22424 net.cpp:91] Creating Layer relu2
I0318 20:27:03.513651 22424 net.cpp:425] relu2 <- cccp2
I0318 20:27:03.513659 22424 net.cpp:386] relu2 -> cccp2 (in-place)
I0318 20:27:03.513669 22424 net.cpp:141] Setting up relu2
I0318 20:27:03.513677 22424 net.cpp:148] Top shape: 50 96 54 54 (13996800)
I0318 20:27:03.513682 22424 net.cpp:156] Memory required for data: 366029000
I0318 20:27:03.513689 22424 layer_factory.hpp:77] Creating layer pool1
I0318 20:27:03.513698 22424 net.cpp:91] Creating Layer pool1
I0318 20:27:03.513703 22424 net.cpp:425] pool1 <- cccp2
I0318 20:27:03.513711 22424 net.cpp:399] pool1 -> pool1
I0318 20:27:03.513787 22424 net.cpp:141] Setting up pool1
I0318 20:27:03.513798 22424 net.cpp:148] Top shape: 50 96 27 27 (3499200)
I0318 20:27:03.513804 22424 net.cpp:156] Memory required for data: 380025800
I0318 20:27:03.513810 22424 layer_factory.hpp:77] Creating layer conv2
I0318 20:27:03.513826 22424 net.cpp:91] Creating Layer conv2
I0318 20:27:03.513834 22424 net.cpp:425] conv2 <- pool1
I0318 20:27:03.513844 22424 net.cpp:399] conv2 -> conv2
I0318 20:27:03.541102 22424 net.cpp:141] Setting up conv2
I0318 20:27:03.541121 22424 net.cpp:148] Top shape: 50 256 27 27 (9331200)
I0318 20:27:03.541129 22424 net.cpp:156] Memory required for data: 417350600
I0318 20:27:03.541138 22424 layer_factory.hpp:77] Creating layer relu3
I0318 20:27:03.541149 22424 net.cpp:91] Creating Layer relu3
I0318 20:27:03.541157 22424 net.cpp:425] relu3 <- conv2
I0318 20:27:03.541163 22424 net.cpp:386] relu3 -> conv2 (in-place)
I0318 20:27:03.541173 22424 net.cpp:141] Setting up relu3
I0318 20:27:03.541180 22424 net.cpp:148] Top shape: 50 256 27 27 (9331200)
I0318 20:27:03.541184 22424 net.cpp:156] Memory required for data: 454675400
I0318 20:27:03.541189 22424 layer_factory.hpp:77] Creating layer cccp3
I0318 20:27:03.541201 22424 net.cpp:91] Creating Layer cccp3
I0318 20:27:03.541208 22424 net.cpp:425] cccp3 <- conv2
I0318 20:27:03.541215 22424 net.cpp:399] cccp3 -> cccp3
I0318 20:27:03.543998 22424 net.cpp:141] Setting up cccp3
I0318 20:27:03.544009 22424 net.cpp:148] Top shape: 50 256 27 27 (9331200)
I0318 20:27:03.544015 22424 net.cpp:156] Memory required for data: 492000200
I0318 20:27:03.544029 22424 layer_factory.hpp:77] Creating layer relu5
I0318 20:27:03.544039 22424 net.cpp:91] Creating Layer relu5
I0318 20:27:03.544044 22424 net.cpp:425] relu5 <- cccp3
I0318 20:27:03.544052 22424 net.cpp:386] relu5 -> cccp3 (in-place)
I0318 20:27:03.544061 22424 net.cpp:141] Setting up relu5
I0318 20:27:03.544070 22424 net.cpp:148] Top shape: 50 256 27 27 (9331200)
I0318 20:27:03.544073 22424 net.cpp:156] Memory required for data: 529325000
I0318 20:27:03.544077 22424 layer_factory.hpp:77] Creating layer cccp4
I0318 20:27:03.544090 22424 net.cpp:91] Creating Layer cccp4
I0318 20:27:03.544096 22424 net.cpp:425] cccp4 <- cccp3
I0318 20:27:03.544104 22424 net.cpp:399] cccp4 -> cccp4
I0318 20:27:03.546892 22424 net.cpp:141] Setting up cccp4
I0318 20:27:03.546905 22424 net.cpp:148] Top shape: 50 256 27 27 (9331200)
I0318 20:27:03.546910 22424 net.cpp:156] Memory required for data: 566649800
I0318 20:27:03.546929 22424 layer_factory.hpp:77] Creating layer relu6
I0318 20:27:03.546939 22424 net.cpp:91] Creating Layer relu6
I0318 20:27:03.546946 22424 net.cpp:425] relu6 <- cccp4
I0318 20:27:03.546952 22424 net.cpp:386] relu6 -> cccp4 (in-place)
I0318 20:27:03.546962 22424 net.cpp:141] Setting up relu6
I0318 20:27:03.546968 22424 net.cpp:148] Top shape: 50 256 27 27 (9331200)
I0318 20:27:03.546972 22424 net.cpp:156] Memory required for data: 603974600
I0318 20:27:03.546977 22424 layer_factory.hpp:77] Creating layer pool2
I0318 20:27:03.546986 22424 net.cpp:91] Creating Layer pool2
I0318 20:27:03.546991 22424 net.cpp:425] pool2 <- cccp4
I0318 20:27:03.546998 22424 net.cpp:399] pool2 -> pool2
I0318 20:27:03.547049 22424 net.cpp:141] Setting up pool2
I0318 20:27:03.547057 22424 net.cpp:148] Top shape: 50 256 13 13 (2163200)
I0318 20:27:03.547061 22424 net.cpp:156] Memory required for data: 612627400
I0318 20:27:03.547067 22424 layer_factory.hpp:77] Creating layer conv3
I0318 20:27:03.547088 22424 net.cpp:91] Creating Layer conv3
I0318 20:27:03.547094 22424 net.cpp:425] conv3 <- pool2
I0318 20:27:03.547102 22424 net.cpp:399] conv3 -> conv3
I0318 20:27:03.581885 22424 net.cpp:141] Setting up conv3
I0318 20:27:03.581904 22424 net.cpp:148] Top shape: 50 384 13 13 (3244800)
I0318 20:27:03.581909 22424 net.cpp:156] Memory required for data: 625606600
I0318 20:27:03.581918 22424 layer_factory.hpp:77] Creating layer relu7
I0318 20:27:03.581930 22424 net.cpp:91] Creating Layer relu7
I0318 20:27:03.581936 22424 net.cpp:425] relu7 <- conv3
I0318 20:27:03.581959 22424 net.cpp:386] relu7 -> conv3 (in-place)
I0318 20:27:03.581972 22424 net.cpp:141] Setting up relu7
I0318 20:27:03.581979 22424 net.cpp:148] Top shape: 50 384 13 13 (3244800)
I0318 20:27:03.581984 22424 net.cpp:156] Memory required for data: 638585800
I0318 20:27:03.581989 22424 layer_factory.hpp:77] Creating layer cccp5
I0318 20:27:03.582000 22424 net.cpp:91] Creating Layer cccp5
I0318 20:27:03.582005 22424 net.cpp:425] cccp5 <- conv3
I0318 20:27:03.582015 22424 net.cpp:399] cccp5 -> cccp5
I0318 20:27:03.588371 22424 net.cpp:141] Setting up cccp5
I0318 20:27:03.588387 22424 net.cpp:148] Top shape: 50 384 13 13 (3244800)
I0318 20:27:03.588392 22424 net.cpp:156] Memory required for data: 651565000
I0318 20:27:03.588402 22424 layer_factory.hpp:77] Creating layer relu8
I0318 20:27:03.588410 22424 net.cpp:91] Creating Layer relu8
I0318 20:27:03.588416 22424 net.cpp:425] relu8 <- cccp5
I0318 20:27:03.588425 22424 net.cpp:386] relu8 -> cccp5 (in-place)
I0318 20:27:03.588435 22424 net.cpp:141] Setting up relu8
I0318 20:27:03.588443 22424 net.cpp:148] Top shape: 50 384 13 13 (3244800)
I0318 20:27:03.588446 22424 net.cpp:156] Memory required for data: 664544200
I0318 20:27:03.588450 22424 layer_factory.hpp:77] Creating layer cccp6
I0318 20:27:03.588462 22424 net.cpp:91] Creating Layer cccp6
I0318 20:27:03.588469 22424 net.cpp:425] cccp6 <- cccp5
I0318 20:27:03.588475 22424 net.cpp:399] cccp6 -> cccp6
I0318 20:27:03.594840 22424 net.cpp:141] Setting up cccp6
I0318 20:27:03.594856 22424 net.cpp:148] Top shape: 50 384 13 13 (3244800)
I0318 20:27:03.594861 22424 net.cpp:156] Memory required for data: 677523400
I0318 20:27:03.594876 22424 layer_factory.hpp:77] Creating layer relu9
I0318 20:27:03.594887 22424 net.cpp:91] Creating Layer relu9
I0318 20:27:03.594893 22424 net.cpp:425] relu9 <- cccp6
I0318 20:27:03.594902 22424 net.cpp:386] relu9 -> cccp6 (in-place)
I0318 20:27:03.594910 22424 net.cpp:141] Setting up relu9
I0318 20:27:03.594918 22424 net.cpp:148] Top shape: 50 384 13 13 (3244800)
I0318 20:27:03.594921 22424 net.cpp:156] Memory required for data: 690502600
I0318 20:27:03.594925 22424 layer_factory.hpp:77] Creating layer pool3
I0318 20:27:03.594933 22424 net.cpp:91] Creating Layer pool3
I0318 20:27:03.594938 22424 net.cpp:425] pool3 <- cccp6
I0318 20:27:03.594944 22424 net.cpp:399] pool3 -> pool3
I0318 20:27:03.594986 22424 net.cpp:141] Setting up pool3
I0318 20:27:03.594997 22424 net.cpp:148] Top shape: 50 384 6 6 (691200)
I0318 20:27:03.595002 22424 net.cpp:156] Memory required for data: 693267400
I0318 20:27:03.595007 22424 layer_factory.hpp:77] Creating layer drop
I0318 20:27:03.595016 22424 net.cpp:91] Creating Layer drop
I0318 20:27:03.595021 22424 net.cpp:425] drop <- pool3
I0318 20:27:03.595026 22424 net.cpp:386] drop -> pool3 (in-place)
I0318 20:27:03.595053 22424 net.cpp:141] Setting up drop
I0318 20:27:03.595062 22424 net.cpp:148] Top shape: 50 384 6 6 (691200)
I0318 20:27:03.595065 22424 net.cpp:156] Memory required for data: 696032200
I0318 20:27:03.595070 22424 layer_factory.hpp:77] Creating layer conv4-1024
I0318 20:27:03.595084 22424 net.cpp:91] Creating Layer conv4-1024
I0318 20:27:03.595090 22424 net.cpp:425] conv4-1024 <- pool3
I0318 20:27:03.595099 22424 net.cpp:399] conv4-1024 -> conv4
I0318 20:27:03.732836 22424 net.cpp:141] Setting up conv4-1024
I0318 20:27:03.732870 22424 net.cpp:148] Top shape: 50 1024 6 6 (1843200)
I0318 20:27:03.732877 22424 net.cpp:156] Memory required for data: 703405000
I0318 20:27:03.732887 22424 layer_factory.hpp:77] Creating layer relu10
I0318 20:27:03.732900 22424 net.cpp:91] Creating Layer relu10
I0318 20:27:03.732905 22424 net.cpp:425] relu10 <- conv4
I0318 20:27:03.732921 22424 net.cpp:386] relu10 -> conv4 (in-place)
I0318 20:27:03.732933 22424 net.cpp:141] Setting up relu10
I0318 20:27:03.732939 22424 net.cpp:148] Top shape: 50 1024 6 6 (1843200)
I0318 20:27:03.732945 22424 net.cpp:156] Memory required for data: 710777800
I0318 20:27:03.732949 22424 layer_factory.hpp:77] Creating layer cccp7-1024
I0318 20:27:03.732966 22424 net.cpp:91] Creating Layer cccp7-1024
I0318 20:27:03.732990 22424 net.cpp:425] cccp7-1024 <- conv4
I0318 20:27:03.733000 22424 net.cpp:399] cccp7-1024 -> cccp7
I0318 20:27:03.776162 22424 net.cpp:141] Setting up cccp7-1024
I0318 20:27:03.776183 22424 net.cpp:148] Top shape: 50 1024 6 6 (1843200)
I0318 20:27:03.776190 22424 net.cpp:156] Memory required for data: 718150600
I0318 20:27:03.776198 22424 layer_factory.hpp:77] Creating layer relu11
I0318 20:27:03.776207 22424 net.cpp:91] Creating Layer relu11
I0318 20:27:03.776212 22424 net.cpp:425] relu11 <- cccp7
I0318 20:27:03.776219 22424 net.cpp:386] relu11 -> cccp7 (in-place)
I0318 20:27:03.776228 22424 net.cpp:141] Setting up relu11
I0318 20:27:03.776235 22424 net.cpp:148] Top shape: 50 1024 6 6 (1843200)
I0318 20:27:03.776242 22424 net.cpp:156] Memory required for data: 725523400
I0318 20:27:03.776247 22424 layer_factory.hpp:77] Creating layer cccp8-1024
I0318 20:27:03.776260 22424 net.cpp:91] Creating Layer cccp8-1024
I0318 20:27:03.776267 22424 net.cpp:425] cccp8-1024 <- cccp7
I0318 20:27:03.776276 22424 net.cpp:399] cccp8-1024 -> cccp8
I0318 20:27:03.818434 22424 net.cpp:141] Setting up cccp8-1024
I0318 20:27:03.818466 22424 net.cpp:148] Top shape: 50 1000 6 6 (1800000)
I0318 20:27:03.818471 22424 net.cpp:156] Memory required for data: 732723400
I0318 20:27:03.818485 22424 layer_factory.hpp:77] Creating layer relu12
I0318 20:27:03.818500 22424 net.cpp:91] Creating Layer relu12
I0318 20:27:03.818509 22424 net.cpp:425] relu12 <- cccp8
I0318 20:27:03.818517 22424 net.cpp:386] relu12 -> cccp8 (in-place)
I0318 20:27:03.818528 22424 net.cpp:141] Setting up relu12
I0318 20:27:03.818536 22424 net.cpp:148] Top shape: 50 1000 6 6 (1800000)
I0318 20:27:03.818539 22424 net.cpp:156] Memory required for data: 739923400
I0318 20:27:03.818543 22424 layer_factory.hpp:77] Creating layer pool4
I0318 20:27:03.818550 22424 net.cpp:91] Creating Layer pool4
I0318 20:27:03.818564 22424 net.cpp:425] pool4 <- cccp8
I0318 20:27:03.818575 22424 net.cpp:399] pool4 -> pool4
I0318 20:27:03.818624 22424 net.cpp:141] Setting up pool4
I0318 20:27:03.818634 22424 net.cpp:148] Top shape: 50 1000 1 1 (50000)
I0318 20:27:03.818637 22424 net.cpp:156] Memory required for data: 740123400
I0318 20:27:03.818645 22424 layer_factory.hpp:77] Creating layer accuracy
I0318 20:27:03.818658 22424 net.cpp:91] Creating Layer accuracy
I0318 20:27:03.818665 22424 net.cpp:425] accuracy <- pool4
I0318 20:27:03.818670 22424 net.cpp:425] accuracy <- label
I0318 20:27:03.818678 22424 net.cpp:399] accuracy -> accuracy
…
