…
I0908 09:09:23.631537 20626 net.cpp:257] The NetState phase (0) differed from the phase (1) specified by a rule in layer accuracy_fine
I0908 09:09:23.632249 20626 net.cpp:42] Initializing net from parameters: 
name: "CIFAR10_full"
state {
  phase: TRAIN
}
layer {
  name: "cifar"
  type: "Data"
  top: "data"
  top: "label"
  include {
    phase: TRAIN
  }
  transform_param {
    mirror: true
    mean_file: "data/pklcifar100/data/pklcifar100_mean.binaryproto"
  }
  data_param {
    source: "data/pklcifar100/data/pklcifar100_train_leveldb"
    batch_size: 128
    backend: LEVELDB
  }
}
layer {
  name: "conv1_coarse"
  type: "Convolution"
  bottom: "data"
  top: "conv1_coarse"
  param {
    lr_mult: 0
    decay_mult: 0
  }
  param {
    lr_mult: 0
    decay_mult: 0
  }
  convolution_param {
    num_output: 192
    pad: 2
    kernel_size: 5
    weight_filler {
      type: "gaussian"
      std: 0.05
    }
    bias_filler {
      type: "constant"
    }
  }
}
layer {
  name: "relu1_coarse"
  type: "ReLU"
  bottom: "conv1_coarse"
  top: "conv1_coarse"
}
layer {
  name: "cccp1_coarse"
  type: "Convolution"
  bottom: "conv1_coarse"
  top: "cccp1_coarse"
  param {
    lr_mult: 0
    decay_mult: 0
  }
  param {
    lr_mult: 0
    decay_mult: 0
  }
  convolution_param {
    num_output: 160
    kernel_size: 1
    group: 1
    weight_filler {
      type: "gaussian"
      std: 0.05
    }
    bias_filler {
      type: "constant"
      value: 0
    }
  }
}
layer {
  name: "relu_cccp1_coarse"
  type: "ReLU"
  bottom: "cccp1_coarse"
  top: "cccp1_coarse"
}
layer {
  name: "cccp2_coarse"
  type: "Convolution"
  bottom: "cccp1_coarse"
  top: "cccp2_coarse"
  param {
    lr_mult: 0
    decay_mult: 0
  }
  param {
    lr_mult: 0
    decay_mult: 0
  }
  convolution_param {
    num_output: 96
    kernel_size: 1
    group: 1
    weight_filler {
      type: "gaussian"
      std: 0.05
    }
    bias_filler {
      type: "constant"
      value: 0
    }
  }
}
layer {
  name: "relu_cccp2_coarse"
  type: "ReLU"
  bottom: "cccp2_coarse"
  top: "cccp2_coarse"
}
layer {
  name: "pool1_coarse"
  type: "Pooling"
  bottom: "cccp2_coarse"
  top: "pool1_coarse"
  pooling_param {
    pool: MAX
    kernel_size: 3
    stride: 2
  }
}
layer {
  name: "drop3_coarse"
  type: "Dropout"
  bottom: "pool1_coarse"
  top: "pool1_coarse"
  dropout_param {
    dropout_ratio: 0.5
  }
}
layer {
  name: "conv2_coarse"
  type: "Convolution"
  bottom: "pool1_coarse"
  top: "conv2_coarse"
  param {
    lr_mult: 0
    decay_mult: 0
  }
  param {
    lr_mult: 0
    decay_mult: 0
  }
  convolution_param {
    num_output: 192
    pad: 2
    kernel_size: 5
    weight_filler {
      type: "gaussian"
      std: 0.05
    }
    bias_filler {
      type: "constant"
    }
  }
}
layer {
  name: "relu2_coarse"
  type: "ReLU"
  bottom: "conv2_coarse"
  top: "conv2_coarse"
}
layer {
  name: "cccp3_coarse"
  type: "Convolution"
  bottom: "conv2_coarse"
  top: "cccp3_coarse"
  param {
    lr_mult: 0
    decay_mult: 0
  }
  param {
    lr_mult: 0
    decay_mult: 0
  }
  convolution_param {
    num_output: 192
    kernel_size: 1
    group: 1
    weight_filler {
      type: "gaussian"
      std: 0.05
    }
    bias_filler {
      type: "constant"
      value: 0
    }
  }
}
layer {
  name: "relu_cccp3_coarse"
  type: "ReLU"
  bottom: "cccp3_coarse"
  top: "cccp3_coarse"
}
layer {
  name: "cccp4_coarse"
  type: "Convolution"
  bottom: "cccp3_coarse"
  top: "cccp4_coarse"
  param {
    lr_mult: 0
    decay_mult: 0
  }
  param {
    lr_mult: 0
    decay_mult: 0
  }
  convolution_param {
    num_output: 192
    kernel_size: 1
    group: 1
    weight_filler {
      type: "gaussian"
      std: 0.05
    }
    bias_filler {
      type: "constant"
      value: 0
    }
  }
}
layer {
  name: "relu_cccp4_coarse"
  type: "ReLU"
  bottom: "cccp4_coarse"
  top: "cccp4_coarse"
}
layer {
  name: "pool2_coarse"
  type: "Pooling"
  bottom: "cccp4_coarse"
  top: "pool2_coarse"
  pooling_param {
    pool: AVE
    kernel_size: 3
    stride: 2
  }
}
layer {
  name: "drop6_coarse"
  type: "Dropout"
  bottom: "pool2_coarse"
  top: "pool2_coarse"
  dropout_param {
    dropout_ratio: 0.5
  }
}
layer {
  name: "conv3_coarse"
  type: "Convolution"
  bottom: "pool2_coarse"
  top: "conv3_coarse"
  param {
    lr_mult: 0
    decay_mult: 0
  }
  param {
    lr_mult: 0
    decay_mult: 0
  }
  convolution_param {
    num_output: 192
    pad: 1
    kernel_size: 3
    weight_filler {
      type: "gaussian"
      std: 0.05
    }
    bias_filler {
      type: "constant"
    }
  }
}
layer {
  name: "relu3_coarse"
  type: "ReLU"
  bottom: "conv3_coarse"
  top: "conv3_coarse"
}
layer {
  name: "cccp5_coarse"
  type: "Convolution"
  bottom: "conv3_coarse"
  top: "cccp5_coarse"
  param {
    lr_mult: 0
    decay_mult: 0
  }
  param {
    lr_mult: 0
    decay_mult: 0
  }
  convolution_param {
    num_output: 192
    kernel_size: 1
    group: 1
    weight_filler {
      type: "gaussian"
      std: 0.05
    }
    bias_filler {
      type: "constant"
      value: 0
    }
  }
}
layer {
  name: "relu_cccp5_coarse"
  type: "ReLU"
  bottom: "cccp5_coarse"
  top: "cccp5_coarse"
}
layer {
  name: "conv1_fine"
  type: "Convolution"
  bottom: "data"
  top: "conv1_fine"
  param {
    lr_mult: 1
    decay_mult: 1
  }
  param {
    lr_mult: 2
    decay_mult: 0
  }
  convolution_param {
    num_output: 192
    pad: 2
    kernel_size: 5
    weight_filler {
      type: "gaussian"
      std: 0.05
    }
    bias_filler {
      type: "constant"
    }
  }
}
layer {
  name: "relu1_fine"
  type: "ReLU"
  bottom: "conv1_fine"
  top: "conv1_fine"
}
layer {
  name: "cccp1_fine"
  type: "Convolution"
  bottom: "conv1_fine"
  top: "cccp1_fine"
  param {
    lr_mult: 1
    decay_mult: 1
  }
  param {
    lr_mult: 2
    decay_mult: 0
  }
  convolution_param {
    num_output: 160
    kernel_size: 1
    group: 1
    weight_filler {
      type: "gaussian"
      std: 0.05
    }
    bias_filler {
      type: "constant"
      value: 0
    }
  }
}
layer {
  name: "relu_cccp1_fine"
  type: "ReLU"
  bottom: "cccp1_fine"
  top: "cccp1_fine"
}
layer {
  name: "cccp2_fine"
  type: "Convolution"
  bottom: "cccp1_fine"
  top: "cccp2_fine"
  param {
    lr_mult: 1
    decay_mult: 1
  }
  param {
    lr_mult: 2
    decay_mult: 0
  }
  convolution_param {
    num_output: 96
    kernel_size: 1
    group: 1
    weight_filler {
      type: "gaussian"
      std: 0.05
    }
    bias_filler {
      type: "constant"
      value: 0
    }
  }
}
layer {
  name: "relu_cccp2_fine"
  type: "ReLU"
  bottom: "cccp2_fine"
  top: "cccp2_fine"
}
layer {
  name: "pool1_fine"
  type: "Pooling"
  bottom: "cccp2_fine"
  top: "pool1_fine"
  pooling_param {
    pool: MAX
    kernel_size: 3
    stride: 2
  }
}
layer {
  name: "drop3_fine"
  type: "Dropout"
  bottom: "pool1_fine"
  top: "pool1_fine"
  dropout_param {
    dropout_ratio: 0.5
  }
}
layer {
  name: "conv2_fine"
  type: "Convolution"
  bottom: "pool1_fine"
  top: "conv2_fine"
  param {
    lr_mult: 1
    decay_mult: 1
  }
  param {
    lr_mult: 2
    decay_mult: 0
  }
  convolution_param {
    num_output: 192
    pad: 2
    kernel_size: 5
    weight_filler {
      type: "gaussian"
      std: 0.05
    }
    bias_filler {
      type: "constant"
    }
  }
}
layer {
  name: "relu2_fine"
  type: "ReLU"
  bottom: "conv2_fine"
  top: "conv2_fine"
}
layer {
  name: "cccp3_fine"
  type: "Convolution"
  bottom: "conv2_fine"
  top: "cccp3_fine"
  param {
    lr_mult: 1
    decay_mult: 1
  }
  param {
    lr_mult: 2
    decay_mult: 0
  }
  convolution_param {
    num_output: 192
    kernel_size: 1
    group: 1
    weight_filler {
      type: "gaussian"
      std: 0.05
    }
    bias_filler {
      type: "constant"
      value: 0
    }
  }
}
layer {
  name: "relu_cccp3_fine"
  type: "ReLU"
  bottom: "cccp3_fine"
  top: "cccp3_fine"
}
layer {
  name: "cccp4_fine"
  type: "Convolution"
  bottom: "cccp3_fine"
  top: "cccp4_fine"
  param {
    lr_mult: 1
    decay_mult: 1
  }
  param {
    lr_mult: 2
    decay_mult: 0
  }
  convolution_param {
    num_output: 192
    kernel_size: 1
    group: 1
    weight_filler {
      type: "gaussian"
      std: 0.05
    }
    bias_filler {
      type: "constant"
      value: 0
    }
  }
}
layer {
  name: "relu_cccp4_fine"
  type: "ReLU"
  bottom: "cccp4_fine"
  top: "cccp4_fine"
}
layer {
  name: "pool2_fine"
  type: "Pooling"
  bottom: "cccp4_fine"
  top: "pool2_fine"
  pooling_param {
    pool: AVE
    kernel_size: 3
    stride: 2
  }
}
layer {
  name: "drop6_fine"
  type: "Dropout"
  bottom: "pool2_fine"
  top: "pool2_fine"
  dropout_param {
    dropout_ratio: 0.5
  }
}
layer {
  name: "conv3_fine"
  type: "Convolution"
  bottom: "pool2_fine"
  top: "conv3_fine"
  param {
    lr_mult: 1
    decay_mult: 1
  }
  param {
    lr_mult: 2
    decay_mult: 0
  }
  convolution_param {
    num_output: 192
    pad: 1
    kernel_size: 3
    weight_filler {
      type: "gaussian"
      std: 0.05
    }
    bias_filler {
      type: "constant"
    }
  }
}
layer {
  name: "relu3_fine"
  type: "ReLU"
  bottom: "conv3_fine"
  top: "conv3_fine"
}
layer {
  name: "cccp5_fine"
  type: "Convolution"
  bottom: "conv3_fine"
  top: "cccp5_fine"
  param {
    lr_mult: 1
    decay_mult: 1
  }
  param {
    lr_mult: 2
    decay_mult: 0
  }
  convolution_param {
    num_output: 192
    kernel_size: 1
    group: 1
    weight_filler {
      type: "gaussian"
      std: 0.05
    }
    bias_filler {
      type: "constant"
      value: 0
    }
  }
}
layer {
  name: "relu_cccp5_fine"
  type: "ReLU"
  bottom: "cccp5_fine"
  top: "cccp5_fine"
}
layer {
  name: "fuse"
  type: "Eltwise"
  bottom: "cccp5_fine"
  bottom: "cccp5_coarse"
  top: "cccp5_fused"
  eltwise_param {
    operation: SUM
    coeff: 0.5
    coeff: 0.5
  }
}
layer {
  name: "cccp6_coarse"
  type: "Convolution"
  bottom: "cccp5_fused"
  top: "cccp6_coarse"
  param {
    lr_mult: 0.01
    decay_mult: 1
  }
  param {
    lr_mult: 0.01
    decay_mult: 0
  }
  convolution_param {
    num_output: 100
    kernel_size: 1
    group: 1
    weight_filler {
      type: "gaussian"
      std: 0.05
    }
    bias_filler {
      type: "constant"
      value: 0
    }
  }
}
layer {
  name: "relu_cccp6_coarse"
  type: "ReLU"
  bottom: "cccp6_coarse"
  top: "cccp6_coarse"
}
layer {
  name: "pool3_coarse"
  type: "Pooling"
  bottom: "cccp6_coarse"
  top: "pool3_coarse"
  pooling_param {
    pool: AVE
    kernel_size: 8
    stride: 1
  }
}
layer {
  name: "loss_coarse"
  type: "SoftmaxWithLoss"
  bottom: "pool3_coarse"
  bottom: "label"
  top: "loss_coarse"
}
layer {
  name: "cccp6_fine"
  type: "Convolution"
  bottom: "cccp5_fine"
  top: "cccp6_fine"
  param {
    lr_mult: 0.1
    decay_mult: 1
  }
  param {
    lr_mult: 0.1
    decay_mult: 0
  }
  convolution_param {
    num_output: 100
    kernel_size: 1
    group: 1
    weight_filler {
      type: "gaussian"
      std: 0.05
    }
    bias_filler {
      type: "constant"
      value: 0
    }
  }
}
layer {
  name: "relu_cccp6_fine"
  type: "ReLU"
  bottom: "cccp6_fine"
  top: "cccp6_fine"
}
layer {
  name: "pool3_fine"
  type: "Pooling"
  bottom: "cccp6_fine"
  top: "pool3_fine"
  pooling_param {
    pool: AVE
    kernel_size: 8
    stride: 1
  }
}
layer {
  name: "loss_fine"
  type: "SoftmaxWithLoss"
  bottom: "pool3_fine"
  bottom: "label"
  top: "loss_fine"
  loss_weight: 0.3
}
I0908 09:09:23.632766 20626 layer_factory.hpp:74] Creating layer cifar
I0908 09:09:23.632820 20626 net.cpp:84] Creating Layer cifar
I0908 09:09:23.632840 20626 net.cpp:338] cifar -> data
I0908 09:09:23.632891 20626 net.cpp:338] cifar -> label
I0908 09:09:23.632920 20626 net.cpp:113] Setting up cifar
I0908 09:09:23.738754 20626 db.cpp:20] Opened leveldb data/pklcifar100/data/pklcifar100_train_leveldb
I0908 09:09:23.762184 20626 data_layer.cpp:67] output data size: 128,3,32,32
I0908 09:09:23.762226 20626 data_transformer.cpp:22] Loading mean file from: data/pklcifar100/data/pklcifar100_mean.binaryproto
I0908 09:09:23.788053 20626 net.cpp:120] Top shape: 128 3 32 32 (393216)
I0908 09:09:23.788079 20626 net.cpp:120] Top shape: 128 (128)
I0908 09:09:23.788094 20626 layer_factory.hpp:74] Creating layer data_cifar_0_split
I0908 09:09:23.788120 20626 net.cpp:84] Creating Layer data_cifar_0_split
I0908 09:09:23.788136 20626 net.cpp:380] data_cifar_0_split <- data
I0908 09:09:23.788166 20626 net.cpp:338] data_cifar_0_split -> data_cifar_0_split_0
I0908 09:09:23.788189 20626 net.cpp:338] data_cifar_0_split -> data_cifar_0_split_1
I0908 09:09:23.788204 20626 net.cpp:113] Setting up data_cifar_0_split
I0908 09:09:23.788228 20626 net.cpp:120] Top shape: 128 3 32 32 (393216)
I0908 09:09:23.788241 20626 net.cpp:120] Top shape: 128 3 32 32 (393216)
I0908 09:09:23.788251 20626 layer_factory.hpp:74] Creating layer label_cifar_1_split
I0908 09:09:23.788265 20626 net.cpp:84] Creating Layer label_cifar_1_split
I0908 09:09:23.788275 20626 net.cpp:380] label_cifar_1_split <- label
I0908 09:09:23.788290 20626 net.cpp:338] label_cifar_1_split -> label_cifar_1_split_0
I0908 09:09:23.788308 20626 net.cpp:338] label_cifar_1_split -> label_cifar_1_split_1
I0908 09:09:23.788322 20626 net.cpp:113] Setting up label_cifar_1_split
I0908 09:09:23.788338 20626 net.cpp:120] Top shape: 128 (128)
I0908 09:09:23.788349 20626 net.cpp:120] Top shape: 128 (128)
I0908 09:09:23.788358 20626 layer_factory.hpp:74] Creating layer conv1_coarse
I0908 09:09:23.788381 20626 net.cpp:84] Creating Layer conv1_coarse
I0908 09:09:23.788393 20626 net.cpp:380] conv1_coarse <- data_cifar_0_split_0
I0908 09:09:23.788408 20626 net.cpp:338] conv1_coarse -> conv1_coarse
I0908 09:09:23.788434 20626 net.cpp:113] Setting up conv1_coarse
I0908 09:09:23.789572 20626 net.cpp:120] Top shape: 128 192 32 32 (25165824)
I0908 09:09:23.789600 20626 layer_factory.hpp:74] Creating layer relu1_coarse
I0908 09:09:23.789618 20626 net.cpp:84] Creating Layer relu1_coarse
I0908 09:09:23.789628 20626 net.cpp:380] relu1_coarse <- conv1_coarse
I0908 09:09:23.789641 20626 net.cpp:327] relu1_coarse -> conv1_coarse (in-place)
I0908 09:09:23.789655 20626 net.cpp:113] Setting up relu1_coarse
I0908 09:09:23.789671 20626 net.cpp:120] Top shape: 128 192 32 32 (25165824)
I0908 09:09:23.789687 20626 layer_factory.hpp:74] Creating layer cccp1_coarse
I0908 09:09:23.789702 20626 net.cpp:84] Creating Layer cccp1_coarse
I0908 09:09:23.789712 20626 net.cpp:380] cccp1_coarse <- conv1_coarse
I0908 09:09:23.789727 20626 net.cpp:338] cccp1_coarse -> cccp1_coarse
I0908 09:09:23.789747 20626 net.cpp:113] Setting up cccp1_coarse
I0908 09:09:23.792037 20626 net.cpp:120] Top shape: 128 160 32 32 (20971520)
I0908 09:09:23.792059 20626 layer_factory.hpp:74] Creating layer relu_cccp1_coarse
I0908 09:09:23.792075 20626 net.cpp:84] Creating Layer relu_cccp1_coarse
I0908 09:09:23.792086 20626 net.cpp:380] relu_cccp1_coarse <- cccp1_coarse
I0908 09:09:23.792099 20626 net.cpp:327] relu_cccp1_coarse -> cccp1_coarse (in-place)
I0908 09:09:23.792112 20626 net.cpp:113] Setting up relu_cccp1_coarse
I0908 09:09:23.792124 20626 net.cpp:120] Top shape: 128 160 32 32 (20971520)
I0908 09:09:23.792135 20626 layer_factory.hpp:74] Creating layer cccp2_coarse
I0908 09:09:23.792151 20626 net.cpp:84] Creating Layer cccp2_coarse
I0908 09:09:23.792160 20626 net.cpp:380] cccp2_coarse <- cccp1_coarse
I0908 09:09:23.792174 20626 net.cpp:338] cccp2_coarse -> cccp2_coarse
I0908 09:09:23.792191 20626 net.cpp:113] Setting up cccp2_coarse
I0908 09:09:23.793431 20626 net.cpp:120] Top shape: 128 96 32 32 (12582912)
I0908 09:09:23.793488 20626 layer_factory.hpp:74] Creating layer relu_cccp2_coarse
I0908 09:09:23.793514 20626 net.cpp:84] Creating Layer relu_cccp2_coarse
I0908 09:09:23.793524 20626 net.cpp:380] relu_cccp2_coarse <- cccp2_coarse
I0908 09:09:23.793581 20626 net.cpp:327] relu_cccp2_coarse -> cccp2_coarse (in-place)
I0908 09:09:23.793601 20626 net.cpp:113] Setting up relu_cccp2_coarse
I0908 09:09:23.793615 20626 net.cpp:120] Top shape: 128 96 32 32 (12582912)
I0908 09:09:23.793625 20626 layer_factory.hpp:74] Creating layer pool1_coarse
I0908 09:09:23.793640 20626 net.cpp:84] Creating Layer pool1_coarse
I0908 09:09:23.793649 20626 net.cpp:380] pool1_coarse <- cccp2_coarse
I0908 09:09:23.793664 20626 net.cpp:338] pool1_coarse -> pool1_coarse
I0908 09:09:23.793690 20626 net.cpp:113] Setting up pool1_coarse
I0908 09:09:23.793761 20626 net.cpp:120] Top shape: 128 96 16 16 (3145728)
I0908 09:09:23.793779 20626 layer_factory.hpp:74] Creating layer drop3_coarse
I0908 09:09:23.793797 20626 net.cpp:84] Creating Layer drop3_coarse
I0908 09:09:23.793808 20626 net.cpp:380] drop3_coarse <- pool1_coarse
I0908 09:09:23.793822 20626 net.cpp:327] drop3_coarse -> pool1_coarse (in-place)
I0908 09:09:23.793838 20626 net.cpp:113] Setting up drop3_coarse
I0908 09:09:23.793859 20626 net.cpp:120] Top shape: 128 96 16 16 (3145728)
I0908 09:09:23.793869 20626 layer_factory.hpp:74] Creating layer conv2_coarse
I0908 09:09:23.793892 20626 net.cpp:84] Creating Layer conv2_coarse
I0908 09:09:23.793903 20626 net.cpp:380] conv2_coarse <- pool1_coarse
I0908 09:09:23.793917 20626 net.cpp:338] conv2_coarse -> conv2_coarse
I0908 09:09:23.793933 20626 net.cpp:113] Setting up conv2_coarse
I0908 09:09:23.824683 20626 net.cpp:120] Top shape: 128 192 16 16 (6291456)
I0908 09:09:23.824708 20626 layer_factory.hpp:74] Creating layer relu2_coarse
I0908 09:09:23.824720 20626 net.cpp:84] Creating Layer relu2_coarse
I0908 09:09:23.824728 20626 net.cpp:380] relu2_coarse <- conv2_coarse
I0908 09:09:23.824738 20626 net.cpp:327] relu2_coarse -> conv2_coarse (in-place)
I0908 09:09:23.824748 20626 net.cpp:113] Setting up relu2_coarse
I0908 09:09:23.824760 20626 net.cpp:120] Top shape: 128 192 16 16 (6291456)
I0908 09:09:23.824769 20626 layer_factory.hpp:74] Creating layer cccp3_coarse
I0908 09:09:23.824780 20626 net.cpp:84] Creating Layer cccp3_coarse
I0908 09:09:23.824787 20626 net.cpp:380] cccp3_coarse <- conv2_coarse
I0908 09:09:23.824797 20626 net.cpp:338] cccp3_coarse -> cccp3_coarse
I0908 09:09:23.824810 20626 net.cpp:113] Setting up cccp3_coarse
I0908 09:09:23.827100 20626 net.cpp:120] Top shape: 128 192 16 16 (6291456)
I0908 09:09:23.827126 20626 layer_factory.hpp:74] Creating layer relu_cccp3_coarse
I0908 09:09:23.827160 20626 net.cpp:84] Creating Layer relu_cccp3_coarse
I0908 09:09:23.827169 20626 net.cpp:380] relu_cccp3_coarse <- cccp3_coarse
I0908 09:09:23.827183 20626 net.cpp:327] relu_cccp3_coarse -> cccp3_coarse (in-place)
I0908 09:09:23.827194 20626 net.cpp:113] Setting up relu_cccp3_coarse
I0908 09:09:23.827204 20626 net.cpp:120] Top shape: 128 192 16 16 (6291456)
I0908 09:09:23.827213 20626 layer_factory.hpp:74] Creating layer cccp4_coarse
I0908 09:09:23.827224 20626 net.cpp:84] Creating Layer cccp4_coarse
I0908 09:09:23.827230 20626 net.cpp:380] cccp4_coarse <- cccp3_coarse
I0908 09:09:23.827239 20626 net.cpp:338] cccp4_coarse -> cccp4_coarse
I0908 09:09:23.827251 20626 net.cpp:113] Setting up cccp4_coarse
I0908 09:09:23.829311 20626 net.cpp:120] Top shape: 128 192 16 16 (6291456)
I0908 09:09:23.829327 20626 layer_factory.hpp:74] Creating layer relu_cccp4_coarse
I0908 09:09:23.829340 20626 net.cpp:84] Creating Layer relu_cccp4_coarse
I0908 09:09:23.829349 20626 net.cpp:380] relu_cccp4_coarse <- cccp4_coarse
I0908 09:09:23.829358 20626 net.cpp:327] relu_cccp4_coarse -> cccp4_coarse (in-place)
I0908 09:09:23.829370 20626 net.cpp:113] Setting up relu_cccp4_coarse
I0908 09:09:23.829378 20626 net.cpp:120] Top shape: 128 192 16 16 (6291456)
I0908 09:09:23.829385 20626 layer_factory.hpp:74] Creating layer pool2_coarse
I0908 09:09:23.829393 20626 net.cpp:84] Creating Layer pool2_coarse
I0908 09:09:23.829421 20626 net.cpp:380] pool2_coarse <- cccp4_coarse
I0908 09:09:23.829432 20626 net.cpp:338] pool2_coarse -> pool2_coarse
I0908 09:09:23.829443 20626 net.cpp:113] Setting up pool2_coarse
I0908 09:09:23.829457 20626 net.cpp:120] Top shape: 128 192 8 8 (1572864)
I0908 09:09:23.829463 20626 layer_factory.hpp:74] Creating layer drop6_coarse
I0908 09:09:23.829473 20626 net.cpp:84] Creating Layer drop6_coarse
I0908 09:09:23.829480 20626 net.cpp:380] drop6_coarse <- pool2_coarse
I0908 09:09:23.829489 20626 net.cpp:327] drop6_coarse -> pool2_coarse (in-place)
I0908 09:09:23.829499 20626 net.cpp:113] Setting up drop6_coarse
I0908 09:09:23.829510 20626 net.cpp:120] Top shape: 128 192 8 8 (1572864)
I0908 09:09:23.829519 20626 layer_factory.hpp:74] Creating layer conv3_coarse
I0908 09:09:23.829530 20626 net.cpp:84] Creating Layer conv3_coarse
I0908 09:09:23.829537 20626 net.cpp:380] conv3_coarse <- pool2_coarse
I0908 09:09:23.829547 20626 net.cpp:338] conv3_coarse -> conv3_coarse
I0908 09:09:23.829560 20626 net.cpp:113] Setting up conv3_coarse
I0908 09:09:23.847584 20626 net.cpp:120] Top shape: 128 192 8 8 (1572864)
I0908 09:09:23.847606 20626 layer_factory.hpp:74] Creating layer relu3_coarse
I0908 09:09:23.847616 20626 net.cpp:84] Creating Layer relu3_coarse
I0908 09:09:23.847622 20626 net.cpp:380] relu3_coarse <- conv3_coarse
I0908 09:09:23.847630 20626 net.cpp:327] relu3_coarse -> conv3_coarse (in-place)
I0908 09:09:23.847640 20626 net.cpp:113] Setting up relu3_coarse
I0908 09:09:23.847651 20626 net.cpp:120] Top shape: 128 192 8 8 (1572864)
I0908 09:09:23.847657 20626 layer_factory.hpp:74] Creating layer cccp5_coarse
I0908 09:09:23.847671 20626 net.cpp:84] Creating Layer cccp5_coarse
I0908 09:09:23.847681 20626 net.cpp:380] cccp5_coarse <- conv3_coarse
I0908 09:09:23.847690 20626 net.cpp:338] cccp5_coarse -> cccp5_coarse
I0908 09:09:23.847700 20626 net.cpp:113] Setting up cccp5_coarse
I0908 09:09:23.849526 20626 net.cpp:120] Top shape: 128 192 8 8 (1572864)
I0908 09:09:23.849540 20626 layer_factory.hpp:74] Creating layer relu_cccp5_coarse
I0908 09:09:23.849550 20626 net.cpp:84] Creating Layer relu_cccp5_coarse
I0908 09:09:23.849557 20626 net.cpp:380] relu_cccp5_coarse <- cccp5_coarse
I0908 09:09:23.849565 20626 net.cpp:327] relu_cccp5_coarse -> cccp5_coarse (in-place)
I0908 09:09:23.849573 20626 net.cpp:113] Setting up relu_cccp5_coarse
I0908 09:09:23.849582 20626 net.cpp:120] Top shape: 128 192 8 8 (1572864)
I0908 09:09:23.849589 20626 layer_factory.hpp:74] Creating layer conv1_fine
I0908 09:09:23.849599 20626 net.cpp:84] Creating Layer conv1_fine
I0908 09:09:23.849606 20626 net.cpp:380] conv1_fine <- data_cifar_0_split_1
I0908 09:09:23.849617 20626 net.cpp:338] conv1_fine -> conv1_fine
I0908 09:09:23.849630 20626 net.cpp:113] Setting up conv1_fine
I0908 09:09:23.850360 20626 net.cpp:120] Top shape: 128 192 32 32 (25165824)
I0908 09:09:23.850376 20626 layer_factory.hpp:74] Creating layer relu1_fine
I0908 09:09:23.850389 20626 net.cpp:84] Creating Layer relu1_fine
I0908 09:09:23.850395 20626 net.cpp:380] relu1_fine <- conv1_fine
I0908 09:09:23.850404 20626 net.cpp:327] relu1_fine -> conv1_fine (in-place)
I0908 09:09:23.850412 20626 net.cpp:113] Setting up relu1_fine
I0908 09:09:23.850422 20626 net.cpp:120] Top shape: 128 192 32 32 (25165824)
I0908 09:09:23.850428 20626 layer_factory.hpp:74] Creating layer cccp1_fine
I0908 09:09:23.850437 20626 net.cpp:84] Creating Layer cccp1_fine
I0908 09:09:23.850447 20626 net.cpp:380] cccp1_fine <- conv1_fine
I0908 09:09:23.850455 20626 net.cpp:338] cccp1_fine -> cccp1_fine
I0908 09:09:23.850466 20626 net.cpp:113] Setting up cccp1_fine
I0908 09:09:23.851999 20626 net.cpp:120] Top shape: 128 160 32 32 (20971520)
I0908 09:09:23.852012 20626 layer_factory.hpp:74] Creating layer relu_cccp1_fine
I0908 09:09:23.852021 20626 net.cpp:84] Creating Layer relu_cccp1_fine
I0908 09:09:23.852028 20626 net.cpp:380] relu_cccp1_fine <- cccp1_fine
I0908 09:09:23.852036 20626 net.cpp:327] relu_cccp1_fine -> cccp1_fine (in-place)
I0908 09:09:23.852044 20626 net.cpp:113] Setting up relu_cccp1_fine
I0908 09:09:23.852071 20626 net.cpp:120] Top shape: 128 160 32 32 (20971520)
I0908 09:09:23.852078 20626 layer_factory.hpp:74] Creating layer cccp2_fine
I0908 09:09:23.852090 20626 net.cpp:84] Creating Layer cccp2_fine
I0908 09:09:23.852097 20626 net.cpp:380] cccp2_fine <- cccp1_fine
I0908 09:09:23.852105 20626 net.cpp:338] cccp2_fine -> cccp2_fine
I0908 09:09:23.852115 20626 net.cpp:113] Setting up cccp2_fine
I0908 09:09:23.852897 20626 net.cpp:120] Top shape: 128 96 32 32 (12582912)
I0908 09:09:23.852910 20626 layer_factory.hpp:74] Creating layer relu_cccp2_fine
I0908 09:09:23.852918 20626 net.cpp:84] Creating Layer relu_cccp2_fine
I0908 09:09:23.852924 20626 net.cpp:380] relu_cccp2_fine <- cccp2_fine
I0908 09:09:23.852936 20626 net.cpp:327] relu_cccp2_fine -> cccp2_fine (in-place)
I0908 09:09:23.852944 20626 net.cpp:113] Setting up relu_cccp2_fine
I0908 09:09:23.852953 20626 net.cpp:120] Top shape: 128 96 32 32 (12582912)
I0908 09:09:23.852958 20626 layer_factory.hpp:74] Creating layer pool1_fine
I0908 09:09:23.852967 20626 net.cpp:84] Creating Layer pool1_fine
I0908 09:09:23.852973 20626 net.cpp:380] pool1_fine <- cccp2_fine
I0908 09:09:23.852980 20626 net.cpp:338] pool1_fine -> pool1_fine
I0908 09:09:23.852990 20626 net.cpp:113] Setting up pool1_fine
I0908 09:09:23.853003 20626 net.cpp:120] Top shape: 128 96 16 16 (3145728)
I0908 09:09:23.853008 20626 layer_factory.hpp:74] Creating layer drop3_fine
I0908 09:09:23.853019 20626 net.cpp:84] Creating Layer drop3_fine
I0908 09:09:23.853026 20626 net.cpp:380] drop3_fine <- pool1_fine
I0908 09:09:23.853034 20626 net.cpp:327] drop3_fine -> pool1_fine (in-place)
I0908 09:09:23.853042 20626 net.cpp:113] Setting up drop3_fine
I0908 09:09:23.853052 20626 net.cpp:120] Top shape: 128 96 16 16 (3145728)
I0908 09:09:23.853060 20626 layer_factory.hpp:74] Creating layer conv2_fine
I0908 09:09:23.853070 20626 net.cpp:84] Creating Layer conv2_fine
I0908 09:09:23.853076 20626 net.cpp:380] conv2_fine <- pool1_fine
I0908 09:09:23.853085 20626 net.cpp:338] conv2_fine -> conv2_fine
I0908 09:09:23.853094 20626 net.cpp:113] Setting up conv2_fine
I0908 09:09:23.874722 20626 net.cpp:120] Top shape: 128 192 16 16 (6291456)
I0908 09:09:23.874747 20626 layer_factory.hpp:74] Creating layer relu2_fine
I0908 09:09:23.874763 20626 net.cpp:84] Creating Layer relu2_fine
I0908 09:09:23.874770 20626 net.cpp:380] relu2_fine <- conv2_fine
I0908 09:09:23.874778 20626 net.cpp:327] relu2_fine -> conv2_fine (in-place)
I0908 09:09:23.874788 20626 net.cpp:113] Setting up relu2_fine
I0908 09:09:23.874796 20626 net.cpp:120] Top shape: 128 192 16 16 (6291456)
I0908 09:09:23.874802 20626 layer_factory.hpp:74] Creating layer cccp3_fine
I0908 09:09:23.874815 20626 net.cpp:84] Creating Layer cccp3_fine
I0908 09:09:23.874821 20626 net.cpp:380] cccp3_fine <- conv2_fine
I0908 09:09:23.874831 20626 net.cpp:338] cccp3_fine -> cccp3_fine
I0908 09:09:23.874841 20626 net.cpp:113] Setting up cccp3_fine
I0908 09:09:23.876572 20626 net.cpp:120] Top shape: 128 192 16 16 (6291456)
I0908 09:09:23.876588 20626 layer_factory.hpp:74] Creating layer relu_cccp3_fine
I0908 09:09:23.876597 20626 net.cpp:84] Creating Layer relu_cccp3_fine
I0908 09:09:23.876603 20626 net.cpp:380] relu_cccp3_fine <- cccp3_fine
I0908 09:09:23.876612 20626 net.cpp:327] relu_cccp3_fine -> cccp3_fine (in-place)
I0908 09:09:23.876621 20626 net.cpp:113] Setting up relu_cccp3_fine
I0908 09:09:23.876629 20626 net.cpp:120] Top shape: 128 192 16 16 (6291456)
I0908 09:09:23.876636 20626 layer_factory.hpp:74] Creating layer cccp4_fine
I0908 09:09:23.876644 20626 net.cpp:84] Creating Layer cccp4_fine
I0908 09:09:23.876651 20626 net.cpp:380] cccp4_fine <- cccp3_fine
I0908 09:09:23.876657 20626 net.cpp:338] cccp4_fine -> cccp4_fine
I0908 09:09:23.876667 20626 net.cpp:113] Setting up cccp4_fine
I0908 09:09:23.878334 20626 net.cpp:120] Top shape: 128 192 16 16 (6291456)
I0908 09:09:23.878350 20626 layer_factory.hpp:74] Creating layer relu_cccp4_fine
I0908 09:09:23.878358 20626 net.cpp:84] Creating Layer relu_cccp4_fine
I0908 09:09:23.878365 20626 net.cpp:380] relu_cccp4_fine <- cccp4_fine
I0908 09:09:23.878391 20626 net.cpp:327] relu_cccp4_fine -> cccp4_fine (in-place)
I0908 09:09:23.878399 20626 net.cpp:113] Setting up relu_cccp4_fine
I0908 09:09:23.878408 20626 net.cpp:120] Top shape: 128 192 16 16 (6291456)
I0908 09:09:23.878414 20626 layer_factory.hpp:74] Creating layer pool2_fine
I0908 09:09:23.878425 20626 net.cpp:84] Creating Layer pool2_fine
I0908 09:09:23.878432 20626 net.cpp:380] pool2_fine <- cccp4_fine
I0908 09:09:23.878438 20626 net.cpp:338] pool2_fine -> pool2_fine
I0908 09:09:23.878448 20626 net.cpp:113] Setting up pool2_fine
I0908 09:09:23.878458 20626 net.cpp:120] Top shape: 128 192 8 8 (1572864)
I0908 09:09:23.878463 20626 layer_factory.hpp:74] Creating layer drop6_fine
I0908 09:09:23.878471 20626 net.cpp:84] Creating Layer drop6_fine
I0908 09:09:23.878479 20626 net.cpp:380] drop6_fine <- pool2_fine
I0908 09:09:23.878485 20626 net.cpp:327] drop6_fine -> pool2_fine (in-place)
I0908 09:09:23.878494 20626 net.cpp:113] Setting up drop6_fine
I0908 09:09:23.878504 20626 net.cpp:120] Top shape: 128 192 8 8 (1572864)
I0908 09:09:23.878509 20626 layer_factory.hpp:74] Creating layer conv3_fine
I0908 09:09:23.878517 20626 net.cpp:84] Creating Layer conv3_fine
I0908 09:09:23.878522 20626 net.cpp:380] conv3_fine <- pool2_fine
I0908 09:09:23.878531 20626 net.cpp:338] conv3_fine -> conv3_fine
I0908 09:09:23.878541 20626 net.cpp:113] Setting up conv3_fine
I0908 09:09:23.892848 20626 net.cpp:120] Top shape: 128 192 8 8 (1572864)
I0908 09:09:23.892865 20626 layer_factory.hpp:74] Creating layer relu3_fine
I0908 09:09:23.892874 20626 net.cpp:84] Creating Layer relu3_fine
I0908 09:09:23.892887 20626 net.cpp:380] relu3_fine <- conv3_fine
I0908 09:09:23.892895 20626 net.cpp:327] relu3_fine -> conv3_fine (in-place)
I0908 09:09:23.892904 20626 net.cpp:113] Setting up relu3_fine
I0908 09:09:23.892910 20626 net.cpp:120] Top shape: 128 192 8 8 (1572864)
I0908 09:09:23.892916 20626 layer_factory.hpp:74] Creating layer cccp5_fine
I0908 09:09:23.892926 20626 net.cpp:84] Creating Layer cccp5_fine
I0908 09:09:23.892932 20626 net.cpp:380] cccp5_fine <- conv3_fine
I0908 09:09:23.892941 20626 net.cpp:338] cccp5_fine -> cccp5_fine
I0908 09:09:23.892951 20626 net.cpp:113] Setting up cccp5_fine
I0908 09:09:23.894487 20626 net.cpp:120] Top shape: 128 192 8 8 (1572864)
I0908 09:09:23.894502 20626 layer_factory.hpp:74] Creating layer relu_cccp5_fine
I0908 09:09:23.894512 20626 net.cpp:84] Creating Layer relu_cccp5_fine
I0908 09:09:23.894518 20626 net.cpp:380] relu_cccp5_fine <- cccp5_fine
I0908 09:09:23.894525 20626 net.cpp:327] relu_cccp5_fine -> cccp5_fine (in-place)
I0908 09:09:23.894532 20626 net.cpp:113] Setting up relu_cccp5_fine
I0908 09:09:23.894541 20626 net.cpp:120] Top shape: 128 192 8 8 (1572864)
I0908 09:09:23.894546 20626 layer_factory.hpp:74] Creating layer cccp5_fine_relu_cccp5_fine_0_split
I0908 09:09:23.894553 20626 net.cpp:84] Creating Layer cccp5_fine_relu_cccp5_fine_0_split
I0908 09:09:23.894558 20626 net.cpp:380] cccp5_fine_relu_cccp5_fine_0_split <- cccp5_fine
I0908 09:09:23.894567 20626 net.cpp:338] cccp5_fine_relu_cccp5_fine_0_split -> cccp5_fine_relu_cccp5_fine_0_split_0
I0908 09:09:23.894577 20626 net.cpp:338] cccp5_fine_relu_cccp5_fine_0_split -> cccp5_fine_relu_cccp5_fine_0_split_1
I0908 09:09:23.894584 20626 net.cpp:113] Setting up cccp5_fine_relu_cccp5_fine_0_split
I0908 09:09:23.894593 20626 net.cpp:120] Top shape: 128 192 8 8 (1572864)
I0908 09:09:23.894600 20626 net.cpp:120] Top shape: 128 192 8 8 (1572864)
I0908 09:09:23.894604 20626 layer_factory.hpp:74] Creating layer fuse
I0908 09:09:23.894613 20626 net.cpp:84] Creating Layer fuse
I0908 09:09:23.894619 20626 net.cpp:380] fuse <- cccp5_fine_relu_cccp5_fine_0_split_0
I0908 09:09:23.894625 20626 net.cpp:380] fuse <- cccp5_coarse
I0908 09:09:23.894631 20626 net.cpp:338] fuse -> cccp5_fused
I0908 09:09:23.894644 20626 net.cpp:113] Setting up fuse
I0908 09:09:23.894657 20626 net.cpp:120] Top shape: 128 192 8 8 (1572864)
I0908 09:09:23.894661 20626 layer_factory.hpp:74] Creating layer cccp6_coarse
I0908 09:09:23.894672 20626 net.cpp:84] Creating Layer cccp6_coarse
I0908 09:09:23.894703 20626 net.cpp:380] cccp6_coarse <- cccp5_fused
I0908 09:09:23.894716 20626 net.cpp:338] cccp6_coarse -> cccp6_coarse
I0908 09:09:23.894726 20626 net.cpp:113] Setting up cccp6_coarse
I0908 09:09:23.895537 20626 net.cpp:120] Top shape: 128 100 8 8 (819200)
I0908 09:09:23.895560 20626 layer_factory.hpp:74] Creating layer relu_cccp6_coarse
I0908 09:09:23.895570 20626 net.cpp:84] Creating Layer relu_cccp6_coarse
I0908 09:09:23.895576 20626 net.cpp:380] relu_cccp6_coarse <- cccp6_coarse
I0908 09:09:23.895582 20626 net.cpp:327] relu_cccp6_coarse -> cccp6_coarse (in-place)
I0908 09:09:23.895591 20626 net.cpp:113] Setting up relu_cccp6_coarse
I0908 09:09:23.895599 20626 net.cpp:120] Top shape: 128 100 8 8 (819200)
I0908 09:09:23.895606 20626 layer_factory.hpp:74] Creating layer pool3_coarse
I0908 09:09:23.895614 20626 net.cpp:84] Creating Layer pool3_coarse
I0908 09:09:23.895620 20626 net.cpp:380] pool3_coarse <- cccp6_coarse
I0908 09:09:23.895627 20626 net.cpp:338] pool3_coarse -> pool3_coarse
I0908 09:09:23.895634 20626 net.cpp:113] Setting up pool3_coarse
I0908 09:09:23.895643 20626 net.cpp:120] Top shape: 128 100 1 1 (12800)
I0908 09:09:23.895649 20626 layer_factory.hpp:74] Creating layer loss_coarse
I0908 09:09:23.895658 20626 net.cpp:84] Creating Layer loss_coarse
I0908 09:09:23.895664 20626 net.cpp:380] loss_coarse <- pool3_coarse
I0908 09:09:23.895670 20626 net.cpp:380] loss_coarse <- label_cifar_1_split_0
I0908 09:09:23.895685 20626 net.cpp:338] loss_coarse -> loss_coarse
I0908 09:09:23.895694 20626 net.cpp:113] Setting up loss_coarse
I0908 09:09:23.895705 20626 layer_factory.hpp:74] Creating layer loss_coarse
I0908 09:09:23.895767 20626 net.cpp:120] Top shape: (1)
I0908 09:09:23.895774 20626 net.cpp:122]     with loss weight 1
I0908 09:09:23.895808 20626 layer_factory.hpp:74] Creating layer cccp6_fine
I0908 09:09:23.895823 20626 net.cpp:84] Creating Layer cccp6_fine
I0908 09:09:23.895829 20626 net.cpp:380] cccp6_fine <- cccp5_fine_relu_cccp5_fine_0_split_1
I0908 09:09:23.895838 20626 net.cpp:338] cccp6_fine -> cccp6_fine
I0908 09:09:23.895862 20626 net.cpp:113] Setting up cccp6_fine
I0908 09:09:23.896680 20626 net.cpp:120] Top shape: 128 100 8 8 (819200)
I0908 09:09:23.896695 20626 layer_factory.hpp:74] Creating layer relu_cccp6_fine
I0908 09:09:23.896706 20626 net.cpp:84] Creating Layer relu_cccp6_fine
I0908 09:09:23.896713 20626 net.cpp:380] relu_cccp6_fine <- cccp6_fine
I0908 09:09:23.896719 20626 net.cpp:327] relu_cccp6_fine -> cccp6_fine (in-place)
I0908 09:09:23.896725 20626 net.cpp:113] Setting up relu_cccp6_fine
I0908 09:09:23.896733 20626 net.cpp:120] Top shape: 128 100 8 8 (819200)
I0908 09:09:23.896739 20626 layer_factory.hpp:74] Creating layer pool3_fine
I0908 09:09:23.896747 20626 net.cpp:84] Creating Layer pool3_fine
I0908 09:09:23.896752 20626 net.cpp:380] pool3_fine <- cccp6_fine
I0908 09:09:23.896759 20626 net.cpp:338] pool3_fine -> pool3_fine
I0908 09:09:23.896766 20626 net.cpp:113] Setting up pool3_fine
I0908 09:09:23.896775 20626 net.cpp:120] Top shape: 128 100 1 1 (12800)
I0908 09:09:23.896780 20626 layer_factory.hpp:74] Creating layer loss_fine
I0908 09:09:23.896791 20626 net.cpp:84] Creating Layer loss_fine
I0908 09:09:23.896796 20626 net.cpp:380] loss_fine <- pool3_fine
I0908 09:09:23.896802 20626 net.cpp:380] loss_fine <- label_cifar_1_split_1
I0908 09:09:23.896809 20626 net.cpp:338] loss_fine -> loss_fine
I0908 09:09:23.896816 20626 net.cpp:113] Setting up loss_fine
…
I0908 09:09:23.899094 20626 net.cpp:257] The NetState phase (1) differed from the phase (0) specified by a rule in layer cifar
I0908 09:09:23.899588 20626 net.cpp:42] Initializing net from parameters: 
name: "CIFAR10_full"
state {
  phase: TEST
}
layer {
  name: "cifar"
  type: "Data"
  top: "data"
  top: "label"
  include {
    phase: TEST
  }
  transform_param {
    mirror: false
    mean_file: "data/pklcifar100/data/pklcifar100_mean.binaryproto"
  }
  data_param {
    source: "data/pklcifar100/data/pklcifar100_test_leveldb"
    batch_size: 100
    backend: LEVELDB
  }
}
layer {
  name: "conv1_coarse"
  type: "Convolution"
  bottom: "data"
  top: "conv1_coarse"
  param {
    lr_mult: 0
    decay_mult: 0
  }
  param {
    lr_mult: 0
    decay_mult: 0
  }
  convolution_param {
    num_output: 192
    pad: 2
    kernel_size: 5
    weight_filler {
      type: "gaussian"
      std: 0.05
    }
    bias_filler {
      type: "constant"
    }
  }
}
layer {
  name: "relu1_coarse"
  type: "ReLU"
  bottom: "conv1_coarse"
  top: "conv1_coarse"
}
layer {
  name: "cccp1_coarse"
  type: "Convolution"
  bottom: "conv1_coarse"
  top: "cccp1_coarse"
  param {
    lr_mult: 0
    decay_mult: 0
  }
  param {
    lr_mult: 0
    decay_mult: 0
  }
  convolution_param {
    num_output: 160
    kernel_size: 1
    group: 1
    weight_filler {
      type: "gaussian"
      std: 0.05
    }
    bias_filler {
      type: "constant"
      value: 0
    }
  }
}
layer {
  name: "relu_cccp1_coarse"
  type: "ReLU"
  bottom: "cccp1_coarse"
  top: "cccp1_coarse"
}
layer {
  name: "cccp2_coarse"
  type: "Convolution"
  bottom: "cccp1_coarse"
  top: "cccp2_coarse"
  param {
    lr_mult: 0
    decay_mult: 0
  }
  param {
    lr_mult: 0
    decay_mult: 0
  }
  convolution_param {
    num_output: 96
    kernel_size: 1
    group: 1
    weight_filler {
      type: "gaussian"
      std: 0.05
    }
    bias_filler {
      type: "constant"
      value: 0
    }
  }
}
layer {
  name: "relu_cccp2_coarse"
  type: "ReLU"
  bottom: "cccp2_coarse"
  top: "cccp2_coarse"
}
layer {
  name: "pool1_coarse"
  type: "Pooling"
  bottom: "cccp2_coarse"
  top: "pool1_coarse"
  pooling_param {
    pool: MAX
    kernel_size: 3
    stride: 2
  }
}
layer {
  name: "drop3_coarse"
  type: "Dropout"
  bottom: "pool1_coarse"
  top: "pool1_coarse"
  dropout_param {
    dropout_ratio: 0.5
  }
}
layer {
  name: "conv2_coarse"
  type: "Convolution"
  bottom: "pool1_coarse"
  top: "conv2_coarse"
  param {
    lr_mult: 0
    decay_mult: 0
  }
  param {
    lr_mult: 0
    decay_mult: 0
  }
  convolution_param {
    num_output: 192
    pad: 2
    kernel_size: 5
    weight_filler {
      type: "gaussian"
      std: 0.05
    }
    bias_filler {
      type: "constant"
    }
  }
}
layer {
  name: "relu2_coarse"
  type: "ReLU"
  bottom: "conv2_coarse"
  top: "conv2_coarse"
}
layer {
  name: "cccp3_coarse"
  type: "Convolution"
  bottom: "conv2_coarse"
  top: "cccp3_coarse"
  param {
    lr_mult: 0
    decay_mult: 0
  }
  param {
    lr_mult: 0
    decay_mult: 0
  }
  convolution_param {
    num_output: 192
    kernel_size: 1
    group: 1
    weight_filler {
      type: "gaussian"
      std: 0.05
    }
    bias_filler {
      type: "constant"
      value: 0
    }
  }
}
layer {
  name: "relu_cccp3_coarse"
  type: "ReLU"
  bottom: "cccp3_coarse"
  top: "cccp3_coarse"
}
layer {
  name: "cccp4_coarse"
  type: "Convolution"
  bottom: "cccp3_coarse"
  top: "cccp4_coarse"
  param {
    lr_mult: 0
    decay_mult: 0
  }
  param {
    lr_mult: 0
    decay_mult: 0
  }
  convolution_param {
    num_output: 192
    kernel_size: 1
    group: 1
    weight_filler {
      type: "gaussian"
      std: 0.05
    }
    bias_filler {
      type: "constant"
      value: 0
    }
  }
}
layer {
  name: "relu_cccp4_coarse"
  type: "ReLU"
  bottom: "cccp4_coarse"
  top: "cccp4_coarse"
}
layer {
  name: "pool2_coarse"
  type: "Pooling"
  bottom: "cccp4_coarse"
  top: "pool2_coarse"
  pooling_param {
    pool: AVE
    kernel_size: 3
    stride: 2
  }
}
layer {
  name: "drop6_coarse"
  type: "Dropout"
  bottom: "pool2_coarse"
  top: "pool2_coarse"
  dropout_param {
    dropout_ratio: 0.5
  }
}
layer {
  name: "conv3_coarse"
  type: "Convolution"
  bottom: "pool2_coarse"
  top: "conv3_coarse"
  param {
    lr_mult: 0
    decay_mult: 0
  }
  param {
    lr_mult: 0
    decay_mult: 0
  }
  convolution_param {
    num_output: 192
    pad: 1
    kernel_size: 3
    weight_filler {
      type: "gaussian"
      std: 0.05
    }
    bias_filler {
      type: "constant"
    }
  }
}
layer {
  name: "relu3_coarse"
  type: "ReLU"
  bottom: "conv3_coarse"
  top: "conv3_coarse"
}
layer {
  name: "cccp5_coarse"
  type: "Convolution"
  bottom: "conv3_coarse"
  top: "cccp5_coarse"
  param {
    lr_mult: 0
    decay_mult: 0
  }
  param {
    lr_mult: 0
    decay_mult: 0
  }
  convolution_param {
    num_output: 192
    kernel_size: 1
    group: 1
    weight_filler {
      type: "gaussian"
      std: 0.05
    }
    bias_filler {
      type: "constant"
      value: 0
    }
  }
}
layer {
  name: "relu_cccp5_coarse"
  type: "ReLU"
  bottom: "cccp5_coarse"
  top: "cccp5_coarse"
}
layer {
  name: "conv1_fine"
  type: "Convolution"
  bottom: "data"
  top: "conv1_fine"
  param {
    lr_mult: 1
    decay_mult: 1
  }
  param {
    lr_mult: 2
    decay_mult: 0
  }
  convolution_param {
    num_output: 192
    pad: 2
    kernel_size: 5
    weight_filler {
      type: "gaussian"
      std: 0.05
    }
    bias_filler {
      type: "constant"
    }
  }
}
layer {
  name: "relu1_fine"
  type: "ReLU"
  bottom: "conv1_fine"
  top: "conv1_fine"
}
layer {
  name: "cccp1_fine"
  type: "Convolution"
  bottom: "conv1_fine"
  top: "cccp1_fine"
  param {
    lr_mult: 1
    decay_mult: 1
  }
  param {
    lr_mult: 2
    decay_mult: 0
  }
  convolution_param {
    num_output: 160
    kernel_size: 1
    group: 1
    weight_filler {
      type: "gaussian"
      std: 0.05
    }
    bias_filler {
      type: "constant"
      value: 0
    }
  }
}
layer {
  name: "relu_cccp1_fine"
  type: "ReLU"
  bottom: "cccp1_fine"
  top: "cccp1_fine"
}
layer {
  name: "cccp2_fine"
  type: "Convolution"
  bottom: "cccp1_fine"
  top: "cccp2_fine"
  param {
    lr_mult: 1
    decay_mult: 1
  }
  param {
    lr_mult: 2
    decay_mult: 0
  }
  convolution_param {
    num_output: 96
    kernel_size: 1
    group: 1
    weight_filler {
      type: "gaussian"
      std: 0.05
    }
    bias_filler {
      type: "constant"
      value: 0
    }
  }
}
layer {
  name: "relu_cccp2_fine"
  type: "ReLU"
  bottom: "cccp2_fine"
  top: "cccp2_fine"
}
layer {
  name: "pool1_fine"
  type: "Pooling"
  bottom: "cccp2_fine"
  top: "pool1_fine"
  pooling_param {
    pool: MAX
    kernel_size: 3
    stride: 2
  }
}
layer {
  name: "drop3_fine"
  type: "Dropout"
  bottom: "pool1_fine"
  top: "pool1_fine"
  dropout_param {
    dropout_ratio: 0.5
  }
}
layer {
  name: "conv2_fine"
  type: "Convolution"
  bottom: "pool1_fine"
  top: "conv2_fine"
  param {
    lr_mult: 1
    decay_mult: 1
  }
  param {
    lr_mult: 2
    decay_mult: 0
  }
  convolution_param {
    num_output: 192
    pad: 2
    kernel_size: 5
    weight_filler {
      type: "gaussian"
      std: 0.05
    }
    bias_filler {
      type: "constant"
    }
  }
}
layer {
  name: "relu2_fine"
  type: "ReLU"
  bottom: "conv2_fine"
  top: "conv2_fine"
}
layer {
  name: "cccp3_fine"
  type: "Convolution"
  bottom: "conv2_fine"
  top: "cccp3_fine"
  param {
    lr_mult: 1
    decay_mult: 1
  }
  param {
    lr_mult: 2
    decay_mult: 0
  }
  convolution_param {
    num_output: 192
    kernel_size: 1
    group: 1
    weight_filler {
      type: "gaussian"
      std: 0.05
    }
    bias_filler {
      type: "constant"
      value: 0
    }
  }
}
layer {
  name: "relu_cccp3_fine"
  type: "ReLU"
  bottom: "cccp3_fine"
  top: "cccp3_fine"
}
layer {
  name: "cccp4_fine"
  type: "Convolution"
  bottom: "cccp3_fine"
  top: "cccp4_fine"
  param {
    lr_mult: 1
    decay_mult: 1
  }
  param {
    lr_mult: 2
    decay_mult: 0
  }
  convolution_param {
    num_output: 192
    kernel_size: 1
    group: 1
    weight_filler {
      type: "gaussian"
      std: 0.05
    }
    bias_filler {
      type: "constant"
      value: 0
    }
  }
}
layer {
  name: "relu_cccp4_fine"
  type: "ReLU"
  bottom: "cccp4_fine"
  top: "cccp4_fine"
}
layer {
  name: "pool2_fine"
  type: "Pooling"
  bottom: "cccp4_fine"
  top: "pool2_fine"
  pooling_param {
    pool: AVE
    kernel_size: 3
    stride: 2
  }
}
layer {
  name: "drop6_fine"
  type: "Dropout"
  bottom: "pool2_fine"
  top: "pool2_fine"
  dropout_param {
    dropout_ratio: 0.5
  }
}
layer {
  name: "conv3_fine"
  type: "Convolution"
  bottom: "pool2_fine"
  top: "conv3_fine"
  param {
    lr_mult: 1
    decay_mult: 1
  }
  param {
    lr_mult: 2
    decay_mult: 0
  }
  convolution_param {
    num_output: 192
    pad: 1
    kernel_size: 3
    weight_filler {
      type: "gaussian"
      std: 0.05
    }
    bias_filler {
      type: "constant"
    }
  }
}
layer {
  name: "relu3_fine"
  type: "ReLU"
  bottom: "conv3_fine"
  top: "conv3_fine"
}
layer {
  name: "cccp5_fine"
  type: "Convolution"
  bottom: "conv3_fine"
  top: "cccp5_fine"
  param {
    lr_mult: 1
    decay_mult: 1
  }
  param {
    lr_mult: 2
    decay_mult: 0
  }
  convolution_param {
    num_output: 192
    kernel_size: 1
    group: 1
    weight_filler {
      type: "gaussian"
      std: 0.05
    }
    bias_filler {
      type: "constant"
      value: 0
    }
  }
}
layer {
  name: "relu_cccp5_fine"
  type: "ReLU"
  bottom: "cccp5_fine"
  top: "cccp5_fine"
}
layer {
  name: "fuse"
  type: "Eltwise"
  bottom: "cccp5_fine"
  bottom: "cccp5_coarse"
  top: "cccp5_fused"
  eltwise_param {
    operation: SUM
    coeff: 0.5
    coeff: 0.5
  }
}
layer {
  name: "cccp6_coarse"
  type: "Convolution"
  bottom: "cccp5_fused"
  top: "cccp6_coarse"
  param {
    lr_mult: 0.01
    decay_mult: 1
  }
  param {
    lr_mult: 0.01
    decay_mult: 0
  }
  convolution_param {
    num_output: 100
    kernel_size: 1
    group: 1
    weight_filler {
      type: "gaussian"
      std: 0.05
    }
    bias_filler {
      type: "constant"
      value: 0
    }
  }
}
layer {
  name: "relu_cccp6_coarse"
  type: "ReLU"
  bottom: "cccp6_coarse"
  top: "cccp6_coarse"
}
layer {
  name: "pool3_coarse"
  type: "Pooling"
  bottom: "cccp6_coarse"
  top: "pool3_coarse"
  pooling_param {
    pool: AVE
    kernel_size: 8
    stride: 1
  }
}
layer {
  name: "accuracy_coarse"
  type: "Accuracy"
  bottom: "pool3_coarse"
  bottom: "label"
  top: "accuracy_coarse"
  include {
    phase: TEST
  }
}
layer {
  name: "loss_coarse"
  type: "SoftmaxWithLoss"
  bottom: "pool3_coarse"
  bottom: "label"
  top: "loss_coarse"
}
layer {
  name: "cccp6_fine"
  type: "Convolution"
  bottom: "cccp5_fine"
  top: "cccp6_fine"
  param {
    lr_mult: 0.1
    decay_mult: 1
  }
  param {
    lr_mult: 0.1
    decay_mult: 0
  }
  convolution_param {
    num_output: 100
    kernel_size: 1
    group: 1
    weight_filler {
      type: "gaussian"
      std: 0.05
    }
    bias_filler {
      type: "constant"
      value: 0
    }
  }
}
layer {
  name: "relu_cccp6_fine"
  type: "ReLU"
  bottom: "cccp6_fine"
  top: "cccp6_fine"
}
layer {
  name: "pool3_fine"
  type: "Pooling"
  bottom: "cccp6_fine"
  top: "pool3_fine"
  pooling_param {
    pool: AVE
    kernel_size: 8
    stride: 1
  }
}
layer {
  name: "accuracy_fine"
  type: "Accuracy"
  bottom: "pool3_fine"
  bottom: "label"
  top: "accuracy_fine"
  include {
    phase: TEST
  }
}
layer {
  name: "loss_fine"
  type: "SoftmaxWithLoss"
  bottom: "pool3_fine"
  bottom: "label"
  top: "loss_fine"
  loss_weight: 0.3
}
I0908 09:09:23.899888 20626 layer_factory.hpp:74] Creating layer cifar
I0908 09:09:23.899904 20626 net.cpp:84] Creating Layer cifar
I0908 09:09:23.899911 20626 net.cpp:338] cifar -> data
I0908 09:09:23.899924 20626 net.cpp:338] cifar -> label
I0908 09:09:23.899932 20626 net.cpp:113] Setting up cifar
I0908 09:09:23.958461 20626 db.cpp:20] Opened leveldb data/pklcifar100/data/pklcifar100_test_leveldb
I0908 09:09:24.050318 20626 data_layer.cpp:67] output data size: 100,3,32,32
I0908 09:09:24.050364 20626 data_transformer.cpp:22] Loading mean file from: data/pklcifar100/data/pklcifar100_mean.binaryproto
I0908 09:09:24.059221 20626 net.cpp:120] Top shape: 100 3 32 32 (307200)
I0908 09:09:24.059254 20626 net.cpp:120] Top shape: 100 (100)
I0908 09:09:24.059267 20626 layer_factory.hpp:74] Creating layer data_cifar_0_split
I0908 09:09:24.059293 20626 net.cpp:84] Creating Layer data_cifar_0_split
I0908 09:09:24.059303 20626 net.cpp:380] data_cifar_0_split <- data
I0908 09:09:24.059321 20626 net.cpp:338] data_cifar_0_split -> data_cifar_0_split_0
I0908 09:09:24.059345 20626 net.cpp:338] data_cifar_0_split -> data_cifar_0_split_1
I0908 09:09:24.059360 20626 net.cpp:113] Setting up data_cifar_0_split
I0908 09:09:24.059379 20626 net.cpp:120] Top shape: 100 3 32 32 (307200)
I0908 09:09:24.059391 20626 net.cpp:120] Top shape: 100 3 32 32 (307200)
I0908 09:09:24.059401 20626 layer_factory.hpp:74] Creating layer label_cifar_1_split
I0908 09:09:24.059417 20626 net.cpp:84] Creating Layer label_cifar_1_split
I0908 09:09:24.059427 20626 net.cpp:380] label_cifar_1_split <- label
I0908 09:09:24.059442 20626 net.cpp:338] label_cifar_1_split -> label_cifar_1_split_0
I0908 09:09:24.059458 20626 net.cpp:338] label_cifar_1_split -> label_cifar_1_split_1
I0908 09:09:24.059478 20626 net.cpp:338] label_cifar_1_split -> label_cifar_1_split_2
I0908 09:09:24.059492 20626 net.cpp:338] label_cifar_1_split -> label_cifar_1_split_3
I0908 09:09:24.059507 20626 net.cpp:113] Setting up label_cifar_1_split
I0908 09:09:24.059523 20626 net.cpp:120] Top shape: 100 (100)
I0908 09:09:24.059535 20626 net.cpp:120] Top shape: 100 (100)
I0908 09:09:24.059545 20626 net.cpp:120] Top shape: 100 (100)
I0908 09:09:24.059556 20626 net.cpp:120] Top shape: 100 (100)
I0908 09:09:24.059566 20626 layer_factory.hpp:74] Creating layer conv1_coarse
I0908 09:09:24.059587 20626 net.cpp:84] Creating Layer conv1_coarse
I0908 09:09:24.059597 20626 net.cpp:380] conv1_coarse <- data_cifar_0_split_0
I0908 09:09:24.059612 20626 net.cpp:338] conv1_coarse -> conv1_coarse
I0908 09:09:24.059631 20626 net.cpp:113] Setting up conv1_coarse
I0908 09:09:24.060791 20626 net.cpp:120] Top shape: 100 192 32 32 (19660800)
I0908 09:09:24.060827 20626 layer_factory.hpp:74] Creating layer relu1_coarse
I0908 09:09:24.060844 20626 net.cpp:84] Creating Layer relu1_coarse
I0908 09:09:24.060856 20626 net.cpp:380] relu1_coarse <- conv1_coarse
I0908 09:09:24.060871 20626 net.cpp:327] relu1_coarse -> conv1_coarse (in-place)
I0908 09:09:24.060889 20626 net.cpp:113] Setting up relu1_coarse
I0908 09:09:24.060909 20626 net.cpp:120] Top shape: 100 192 32 32 (19660800)
I0908 09:09:24.060920 20626 layer_factory.hpp:74] Creating layer cccp1_coarse
I0908 09:09:24.060935 20626 net.cpp:84] Creating Layer cccp1_coarse
I0908 09:09:24.060945 20626 net.cpp:380] cccp1_coarse <- conv1_coarse
I0908 09:09:24.060961 20626 net.cpp:338] cccp1_coarse -> cccp1_coarse
I0908 09:09:24.060977 20626 net.cpp:113] Setting up cccp1_coarse
I0908 09:09:24.063320 20626 net.cpp:120] Top shape: 100 160 32 32 (16384000)
I0908 09:09:24.063349 20626 layer_factory.hpp:74] Creating layer relu_cccp1_coarse
I0908 09:09:24.063390 20626 net.cpp:84] Creating Layer relu_cccp1_coarse
I0908 09:09:24.063453 20626 net.cpp:380] relu_cccp1_coarse <- cccp1_coarse
I0908 09:09:24.063480 20626 net.cpp:327] relu_cccp1_coarse -> cccp1_coarse (in-place)
I0908 09:09:24.063496 20626 net.cpp:113] Setting up relu_cccp1_coarse
I0908 09:09:24.063514 20626 net.cpp:120] Top shape: 100 160 32 32 (16384000)
I0908 09:09:24.063524 20626 layer_factory.hpp:74] Creating layer cccp2_coarse
I0908 09:09:24.063568 20626 net.cpp:84] Creating Layer cccp2_coarse
I0908 09:09:24.063580 20626 net.cpp:380] cccp2_coarse <- cccp1_coarse
I0908 09:09:24.063599 20626 net.cpp:338] cccp2_coarse -> cccp2_coarse
I0908 09:09:24.063619 20626 net.cpp:113] Setting up cccp2_coarse
I0908 09:09:24.064798 20626 net.cpp:120] Top shape: 100 96 32 32 (9830400)
I0908 09:09:24.064821 20626 layer_factory.hpp:74] Creating layer relu_cccp2_coarse
I0908 09:09:24.064841 20626 net.cpp:84] Creating Layer relu_cccp2_coarse
I0908 09:09:24.064851 20626 net.cpp:380] relu_cccp2_coarse <- cccp2_coarse
I0908 09:09:24.064863 20626 net.cpp:327] relu_cccp2_coarse -> cccp2_coarse (in-place)
I0908 09:09:24.064877 20626 net.cpp:113] Setting up relu_cccp2_coarse
I0908 09:09:24.064889 20626 net.cpp:120] Top shape: 100 96 32 32 (9830400)
I0908 09:09:24.064898 20626 layer_factory.hpp:74] Creating layer pool1_coarse
I0908 09:09:24.064913 20626 net.cpp:84] Creating Layer pool1_coarse
I0908 09:09:24.064921 20626 net.cpp:380] pool1_coarse <- cccp2_coarse
I0908 09:09:24.064937 20626 net.cpp:338] pool1_coarse -> pool1_coarse
I0908 09:09:24.064954 20626 net.cpp:113] Setting up pool1_coarse
I0908 09:09:24.064970 20626 net.cpp:120] Top shape: 100 96 16 16 (2457600)
I0908 09:09:24.064980 20626 layer_factory.hpp:74] Creating layer drop3_coarse
I0908 09:09:24.064993 20626 net.cpp:84] Creating Layer drop3_coarse
I0908 09:09:24.065045 20626 net.cpp:380] drop3_coarse <- pool1_coarse
I0908 09:09:24.065065 20626 net.cpp:327] drop3_coarse -> pool1_coarse (in-place)
I0908 09:09:24.065080 20626 net.cpp:113] Setting up drop3_coarse
I0908 09:09:24.065096 20626 net.cpp:120] Top shape: 100 96 16 16 (2457600)
I0908 09:09:24.065106 20626 layer_factory.hpp:74] Creating layer conv2_coarse
I0908 09:09:24.065121 20626 net.cpp:84] Creating Layer conv2_coarse
I0908 09:09:24.065130 20626 net.cpp:380] conv2_coarse <- pool1_coarse
I0908 09:09:24.065145 20626 net.cpp:338] conv2_coarse -> conv2_coarse
I0908 09:09:24.065160 20626 net.cpp:113] Setting up conv2_coarse
I0908 09:09:24.097404 20626 net.cpp:120] Top shape: 100 192 16 16 (4915200)
I0908 09:09:24.097441 20626 layer_factory.hpp:74] Creating layer relu2_coarse
I0908 09:09:24.097458 20626 net.cpp:84] Creating Layer relu2_coarse
I0908 09:09:24.097468 20626 net.cpp:380] relu2_coarse <- conv2_coarse
I0908 09:09:24.097481 20626 net.cpp:327] relu2_coarse -> conv2_coarse (in-place)
I0908 09:09:24.097496 20626 net.cpp:113] Setting up relu2_coarse
I0908 09:09:24.097507 20626 net.cpp:120] Top shape: 100 192 16 16 (4915200)
I0908 09:09:24.097515 20626 layer_factory.hpp:74] Creating layer cccp3_coarse
I0908 09:09:24.097533 20626 net.cpp:84] Creating Layer cccp3_coarse
I0908 09:09:24.097542 20626 net.cpp:380] cccp3_coarse <- conv2_coarse
I0908 09:09:24.097558 20626 net.cpp:338] cccp3_coarse -> cccp3_coarse
I0908 09:09:24.097573 20626 net.cpp:113] Setting up cccp3_coarse
I0908 09:09:24.099896 20626 net.cpp:120] Top shape: 100 192 16 16 (4915200)
I0908 09:09:24.099918 20626 layer_factory.hpp:74] Creating layer relu_cccp3_coarse
I0908 09:09:24.099930 20626 net.cpp:84] Creating Layer relu_cccp3_coarse
I0908 09:09:24.099937 20626 net.cpp:380] relu_cccp3_coarse <- cccp3_coarse
I0908 09:09:24.099951 20626 net.cpp:327] relu_cccp3_coarse -> cccp3_coarse (in-place)
I0908 09:09:24.099962 20626 net.cpp:113] Setting up relu_cccp3_coarse
I0908 09:09:24.099973 20626 net.cpp:120] Top shape: 100 192 16 16 (4915200)
I0908 09:09:24.099980 20626 layer_factory.hpp:74] Creating layer cccp4_coarse
I0908 09:09:24.099993 20626 net.cpp:84] Creating Layer cccp4_coarse
I0908 09:09:24.100000 20626 net.cpp:380] cccp4_coarse <- cccp3_coarse
I0908 09:09:24.100019 20626 net.cpp:338] cccp4_coarse -> cccp4_coarse
I0908 09:09:24.100033 20626 net.cpp:113] Setting up cccp4_coarse
I0908 09:09:24.102217 20626 net.cpp:120] Top shape: 100 192 16 16 (4915200)
I0908 09:09:24.102233 20626 layer_factory.hpp:74] Creating layer relu_cccp4_coarse
I0908 09:09:24.102247 20626 net.cpp:84] Creating Layer relu_cccp4_coarse
I0908 09:09:24.102254 20626 net.cpp:380] relu_cccp4_coarse <- cccp4_coarse
I0908 09:09:24.102267 20626 net.cpp:327] relu_cccp4_coarse -> cccp4_coarse (in-place)
I0908 09:09:24.102303 20626 net.cpp:113] Setting up relu_cccp4_coarse
I0908 09:09:24.102316 20626 net.cpp:120] Top shape: 100 192 16 16 (4915200)
I0908 09:09:24.102324 20626 layer_factory.hpp:74] Creating layer pool2_coarse
I0908 09:09:24.102336 20626 net.cpp:84] Creating Layer pool2_coarse
I0908 09:09:24.102344 20626 net.cpp:380] pool2_coarse <- cccp4_coarse
I0908 09:09:24.102355 20626 net.cpp:338] pool2_coarse -> pool2_coarse
I0908 09:09:24.102367 20626 net.cpp:113] Setting up pool2_coarse
I0908 09:09:24.102385 20626 net.cpp:120] Top shape: 100 192 8 8 (1228800)
I0908 09:09:24.102392 20626 layer_factory.hpp:74] Creating layer drop6_coarse
I0908 09:09:24.102403 20626 net.cpp:84] Creating Layer drop6_coarse
I0908 09:09:24.102411 20626 net.cpp:380] drop6_coarse <- pool2_coarse
I0908 09:09:24.102421 20626 net.cpp:327] drop6_coarse -> pool2_coarse (in-place)
I0908 09:09:24.102430 20626 net.cpp:113] Setting up drop6_coarse
I0908 09:09:24.102442 20626 net.cpp:120] Top shape: 100 192 8 8 (1228800)
I0908 09:09:24.102450 20626 layer_factory.hpp:74] Creating layer conv3_coarse
I0908 09:09:24.102464 20626 net.cpp:84] Creating Layer conv3_coarse
I0908 09:09:24.102473 20626 net.cpp:380] conv3_coarse <- pool2_coarse
I0908 09:09:24.102483 20626 net.cpp:338] conv3_coarse -> conv3_coarse
I0908 09:09:24.102501 20626 net.cpp:113] Setting up conv3_coarse
I0908 09:09:24.121903 20626 net.cpp:120] Top shape: 100 192 8 8 (1228800)
I0908 09:09:24.121933 20626 layer_factory.hpp:74] Creating layer relu3_coarse
I0908 09:09:24.121948 20626 net.cpp:84] Creating Layer relu3_coarse
I0908 09:09:24.121958 20626 net.cpp:380] relu3_coarse <- conv3_coarse
I0908 09:09:24.121968 20626 net.cpp:327] relu3_coarse -> conv3_coarse (in-place)
I0908 09:09:24.121979 20626 net.cpp:113] Setting up relu3_coarse
I0908 09:09:24.121990 20626 net.cpp:120] Top shape: 100 192 8 8 (1228800)
I0908 09:09:24.121997 20626 layer_factory.hpp:74] Creating layer cccp5_coarse
I0908 09:09:24.122009 20626 net.cpp:84] Creating Layer cccp5_coarse
I0908 09:09:24.122022 20626 net.cpp:380] cccp5_coarse <- conv3_coarse
I0908 09:09:24.122033 20626 net.cpp:338] cccp5_coarse -> cccp5_coarse
I0908 09:09:24.122045 20626 net.cpp:113] Setting up cccp5_coarse
I0908 09:09:24.124011 20626 net.cpp:120] Top shape: 100 192 8 8 (1228800)
I0908 09:09:24.124029 20626 layer_factory.hpp:74] Creating layer relu_cccp5_coarse
I0908 09:09:24.124039 20626 net.cpp:84] Creating Layer relu_cccp5_coarse
I0908 09:09:24.124047 20626 net.cpp:380] relu_cccp5_coarse <- cccp5_coarse
I0908 09:09:24.124063 20626 net.cpp:327] relu_cccp5_coarse -> cccp5_coarse (in-place)
I0908 09:09:24.124073 20626 net.cpp:113] Setting up relu_cccp5_coarse
I0908 09:09:24.124083 20626 net.cpp:120] Top shape: 100 192 8 8 (1228800)
I0908 09:09:24.124090 20626 layer_factory.hpp:74] Creating layer conv1_fine
I0908 09:09:24.124101 20626 net.cpp:84] Creating Layer conv1_fine
I0908 09:09:24.124109 20626 net.cpp:380] conv1_fine <- data_cifar_0_split_1
I0908 09:09:24.124121 20626 net.cpp:338] conv1_fine -> conv1_fine
I0908 09:09:24.124133 20626 net.cpp:113] Setting up conv1_fine
I0908 09:09:24.124933 20626 net.cpp:120] Top shape: 100 192 32 32 (19660800)
I0908 09:09:24.124955 20626 layer_factory.hpp:74] Creating layer relu1_fine
I0908 09:09:24.124980 20626 net.cpp:84] Creating Layer relu1_fine
I0908 09:09:24.124989 20626 net.cpp:380] relu1_fine <- conv1_fine
I0908 09:09:24.124999 20626 net.cpp:327] relu1_fine -> conv1_fine (in-place)
I0908 09:09:24.125042 20626 net.cpp:113] Setting up relu1_fine
I0908 09:09:24.125058 20626 net.cpp:120] Top shape: 100 192 32 32 (19660800)
I0908 09:09:24.125066 20626 layer_factory.hpp:74] Creating layer cccp1_fine
I0908 09:09:24.125082 20626 net.cpp:84] Creating Layer cccp1_fine
I0908 09:09:24.125088 20626 net.cpp:380] cccp1_fine <- conv1_fine
I0908 09:09:24.125103 20626 net.cpp:338] cccp1_fine -> cccp1_fine
I0908 09:09:24.125115 20626 net.cpp:113] Setting up cccp1_fine
I0908 09:09:24.126781 20626 net.cpp:120] Top shape: 100 160 32 32 (16384000)
I0908 09:09:24.126821 20626 layer_factory.hpp:74] Creating layer relu_cccp1_fine
I0908 09:09:24.126832 20626 net.cpp:84] Creating Layer relu_cccp1_fine
I0908 09:09:24.126839 20626 net.cpp:380] relu_cccp1_fine <- cccp1_fine
I0908 09:09:24.126852 20626 net.cpp:327] relu_cccp1_fine -> cccp1_fine (in-place)
I0908 09:09:24.126862 20626 net.cpp:113] Setting up relu_cccp1_fine
I0908 09:09:24.126871 20626 net.cpp:120] Top shape: 100 160 32 32 (16384000)
I0908 09:09:24.126878 20626 layer_factory.hpp:74] Creating layer cccp2_fine
I0908 09:09:24.126889 20626 net.cpp:84] Creating Layer cccp2_fine
I0908 09:09:24.126896 20626 net.cpp:380] cccp2_fine <- cccp1_fine
I0908 09:09:24.126909 20626 net.cpp:338] cccp2_fine -> cccp2_fine
I0908 09:09:24.126920 20626 net.cpp:113] Setting up cccp2_fine
I0908 09:09:24.127776 20626 net.cpp:120] Top shape: 100 96 32 32 (9830400)
I0908 09:09:24.127794 20626 layer_factory.hpp:74] Creating layer relu_cccp2_fine
I0908 09:09:24.127805 20626 net.cpp:84] Creating Layer relu_cccp2_fine
I0908 09:09:24.127812 20626 net.cpp:380] relu_cccp2_fine <- cccp2_fine
I0908 09:09:24.127822 20626 net.cpp:327] relu_cccp2_fine -> cccp2_fine (in-place)
I0908 09:09:24.127832 20626 net.cpp:113] Setting up relu_cccp2_fine
I0908 09:09:24.127842 20626 net.cpp:120] Top shape: 100 96 32 32 (9830400)
I0908 09:09:24.127848 20626 layer_factory.hpp:74] Creating layer pool1_fine
I0908 09:09:24.127858 20626 net.cpp:84] Creating Layer pool1_fine
I0908 09:09:24.127868 20626 net.cpp:380] pool1_fine <- cccp2_fine
I0908 09:09:24.127878 20626 net.cpp:338] pool1_fine -> pool1_fine
I0908 09:09:24.127889 20626 net.cpp:113] Setting up pool1_fine
I0908 09:09:24.127902 20626 net.cpp:120] Top shape: 100 96 16 16 (2457600)
I0908 09:09:24.127909 20626 layer_factory.hpp:74] Creating layer drop3_fine
I0908 09:09:24.127919 20626 net.cpp:84] Creating Layer drop3_fine
I0908 09:09:24.127926 20626 net.cpp:380] drop3_fine <- pool1_fine
I0908 09:09:24.127935 20626 net.cpp:327] drop3_fine -> pool1_fine (in-place)
I0908 09:09:24.127944 20626 net.cpp:113] Setting up drop3_fine
I0908 09:09:24.127955 20626 net.cpp:120] Top shape: 100 96 16 16 (2457600)
I0908 09:09:24.127962 20626 layer_factory.hpp:74] Creating layer conv2_fine
I0908 09:09:24.127975 20626 net.cpp:84] Creating Layer conv2_fine
I0908 09:09:24.127982 20626 net.cpp:380] conv2_fine <- pool1_fine
I0908 09:09:24.127993 20626 net.cpp:338] conv2_fine -> conv2_fine
I0908 09:09:24.128005 20626 net.cpp:113] Setting up conv2_fine
I0908 09:09:24.152207 20626 net.cpp:120] Top shape: 100 192 16 16 (4915200)
I0908 09:09:24.152258 20626 layer_factory.hpp:74] Creating layer relu2_fine
I0908 09:09:24.152312 20626 net.cpp:84] Creating Layer relu2_fine
I0908 09:09:24.152319 20626 net.cpp:380] relu2_fine <- conv2_fine
I0908 09:09:24.152329 20626 net.cpp:327] relu2_fine -> conv2_fine (in-place)
I0908 09:09:24.152338 20626 net.cpp:113] Setting up relu2_fine
I0908 09:09:24.152348 20626 net.cpp:120] Top shape: 100 192 16 16 (4915200)
I0908 09:09:24.152354 20626 layer_factory.hpp:74] Creating layer cccp3_fine
I0908 09:09:24.152364 20626 net.cpp:84] Creating Layer cccp3_fine
I0908 09:09:24.152370 20626 net.cpp:380] cccp3_fine <- conv2_fine
I0908 09:09:24.152381 20626 net.cpp:338] cccp3_fine -> cccp3_fine
I0908 09:09:24.152391 20626 net.cpp:113] Setting up cccp3_fine
I0908 09:09:24.154083 20626 net.cpp:120] Top shape: 100 192 16 16 (4915200)
I0908 09:09:24.154098 20626 layer_factory.hpp:74] Creating layer relu_cccp3_fine
I0908 09:09:24.154109 20626 net.cpp:84] Creating Layer relu_cccp3_fine
I0908 09:09:24.154115 20626 net.cpp:380] relu_cccp3_fine <- cccp3_fine
I0908 09:09:24.154125 20626 net.cpp:327] relu_cccp3_fine -> cccp3_fine (in-place)
I0908 09:09:24.154134 20626 net.cpp:113] Setting up relu_cccp3_fine
I0908 09:09:24.154142 20626 net.cpp:120] Top shape: 100 192 16 16 (4915200)
I0908 09:09:24.154148 20626 layer_factory.hpp:74] Creating layer cccp4_fine
I0908 09:09:24.154157 20626 net.cpp:84] Creating Layer cccp4_fine
I0908 09:09:24.154163 20626 net.cpp:380] cccp4_fine <- cccp3_fine
I0908 09:09:24.154175 20626 net.cpp:338] cccp4_fine -> cccp4_fine
I0908 09:09:24.154201 20626 net.cpp:113] Setting up cccp4_fine
I0908 09:09:24.156003 20626 net.cpp:120] Top shape: 100 192 16 16 (4915200)
I0908 09:09:24.156020 20626 layer_factory.hpp:74] Creating layer relu_cccp4_fine
I0908 09:09:24.156031 20626 net.cpp:84] Creating Layer relu_cccp4_fine
I0908 09:09:24.156038 20626 net.cpp:380] relu_cccp4_fine <- cccp4_fine
I0908 09:09:24.156046 20626 net.cpp:327] relu_cccp4_fine -> cccp4_fine (in-place)
I0908 09:09:24.156055 20626 net.cpp:113] Setting up relu_cccp4_fine
I0908 09:09:24.156064 20626 net.cpp:120] Top shape: 100 192 16 16 (4915200)
I0908 09:09:24.156069 20626 layer_factory.hpp:74] Creating layer pool2_fine
I0908 09:09:24.156077 20626 net.cpp:84] Creating Layer pool2_fine
I0908 09:09:24.156083 20626 net.cpp:380] pool2_fine <- cccp4_fine
I0908 09:09:24.156091 20626 net.cpp:338] pool2_fine -> pool2_fine
I0908 09:09:24.156100 20626 net.cpp:113] Setting up pool2_fine
I0908 09:09:24.156111 20626 net.cpp:120] Top shape: 100 192 8 8 (1228800)
I0908 09:09:24.156117 20626 layer_factory.hpp:74] Creating layer drop6_fine
I0908 09:09:24.156152 20626 net.cpp:84] Creating Layer drop6_fine
I0908 09:09:24.156162 20626 net.cpp:380] drop6_fine <- pool2_fine
I0908 09:09:24.156170 20626 net.cpp:327] drop6_fine -> pool2_fine (in-place)
I0908 09:09:24.156179 20626 net.cpp:113] Setting up drop6_fine
I0908 09:09:24.156190 20626 net.cpp:120] Top shape: 100 192 8 8 (1228800)
I0908 09:09:24.156196 20626 layer_factory.hpp:74] Creating layer conv3_fine
I0908 09:09:24.156211 20626 net.cpp:84] Creating Layer conv3_fine
I0908 09:09:24.156219 20626 net.cpp:380] conv3_fine <- pool2_fine
I0908 09:09:24.156225 20626 net.cpp:338] conv3_fine -> conv3_fine
I0908 09:09:24.156235 20626 net.cpp:113] Setting up conv3_fine
I0908 09:09:24.170562 20626 net.cpp:120] Top shape: 100 192 8 8 (1228800)
I0908 09:09:24.170578 20626 layer_factory.hpp:74] Creating layer relu3_fine
I0908 09:09:24.170589 20626 net.cpp:84] Creating Layer relu3_fine
I0908 09:09:24.170596 20626 net.cpp:380] relu3_fine <- conv3_fine
I0908 09:09:24.170630 20626 net.cpp:327] relu3_fine -> conv3_fine (in-place)
I0908 09:09:24.170641 20626 net.cpp:113] Setting up relu3_fine
I0908 09:09:24.170653 20626 net.cpp:120] Top shape: 100 192 8 8 (1228800)
I0908 09:09:24.170663 20626 layer_factory.hpp:74] Creating layer cccp5_fine
I0908 09:09:24.170675 20626 net.cpp:84] Creating Layer cccp5_fine
I0908 09:09:24.170686 20626 net.cpp:380] cccp5_fine <- conv3_fine
I0908 09:09:24.170696 20626 net.cpp:338] cccp5_fine -> cccp5_fine
I0908 09:09:24.170706 20626 net.cpp:113] Setting up cccp5_fine
I0908 09:09:24.172267 20626 net.cpp:120] Top shape: 100 192 8 8 (1228800)
I0908 09:09:24.172281 20626 layer_factory.hpp:74] Creating layer relu_cccp5_fine
I0908 09:09:24.172289 20626 net.cpp:84] Creating Layer relu_cccp5_fine
I0908 09:09:24.172296 20626 net.cpp:380] relu_cccp5_fine <- cccp5_fine
I0908 09:09:24.172302 20626 net.cpp:327] relu_cccp5_fine -> cccp5_fine (in-place)
I0908 09:09:24.172309 20626 net.cpp:113] Setting up relu_cccp5_fine
I0908 09:09:24.172317 20626 net.cpp:120] Top shape: 100 192 8 8 (1228800)
I0908 09:09:24.172322 20626 layer_factory.hpp:74] Creating layer cccp5_fine_relu_cccp5_fine_0_split
I0908 09:09:24.172332 20626 net.cpp:84] Creating Layer cccp5_fine_relu_cccp5_fine_0_split
I0908 09:09:24.172336 20626 net.cpp:380] cccp5_fine_relu_cccp5_fine_0_split <- cccp5_fine
I0908 09:09:24.172345 20626 net.cpp:338] cccp5_fine_relu_cccp5_fine_0_split -> cccp5_fine_relu_cccp5_fine_0_split_0
I0908 09:09:24.172355 20626 net.cpp:338] cccp5_fine_relu_cccp5_fine_0_split -> cccp5_fine_relu_cccp5_fine_0_split_1
I0908 09:09:24.172363 20626 net.cpp:113] Setting up cccp5_fine_relu_cccp5_fine_0_split
I0908 09:09:24.172372 20626 net.cpp:120] Top shape: 100 192 8 8 (1228800)
I0908 09:09:24.172379 20626 net.cpp:120] Top shape: 100 192 8 8 (1228800)
I0908 09:09:24.172384 20626 layer_factory.hpp:74] Creating layer fuse
I0908 09:09:24.172394 20626 net.cpp:84] Creating Layer fuse
I0908 09:09:24.172400 20626 net.cpp:380] fuse <- cccp5_fine_relu_cccp5_fine_0_split_0
I0908 09:09:24.172420 20626 net.cpp:380] fuse <- cccp5_coarse
I0908 09:09:24.172430 20626 net.cpp:338] fuse -> cccp5_fused
I0908 09:09:24.172438 20626 net.cpp:113] Setting up fuse
I0908 09:09:24.172449 20626 net.cpp:120] Top shape: 100 192 8 8 (1228800)
I0908 09:09:24.172456 20626 layer_factory.hpp:74] Creating layer cccp6_coarse
I0908 09:09:24.172464 20626 net.cpp:84] Creating Layer cccp6_coarse
I0908 09:09:24.172469 20626 net.cpp:380] cccp6_coarse <- cccp5_fused
I0908 09:09:24.172479 20626 net.cpp:338] cccp6_coarse -> cccp6_coarse
I0908 09:09:24.172488 20626 net.cpp:113] Setting up cccp6_coarse
I0908 09:09:24.173285 20626 net.cpp:120] Top shape: 100 100 8 8 (640000)
I0908 09:09:24.173302 20626 layer_factory.hpp:74] Creating layer relu_cccp6_coarse
I0908 09:09:24.173311 20626 net.cpp:84] Creating Layer relu_cccp6_coarse
I0908 09:09:24.173317 20626 net.cpp:380] relu_cccp6_coarse <- cccp6_coarse
I0908 09:09:24.173327 20626 net.cpp:327] relu_cccp6_coarse -> cccp6_coarse (in-place)
I0908 09:09:24.173336 20626 net.cpp:113] Setting up relu_cccp6_coarse
I0908 09:09:24.173342 20626 net.cpp:120] Top shape: 100 100 8 8 (640000)
I0908 09:09:24.173348 20626 layer_factory.hpp:74] Creating layer pool3_coarse
I0908 09:09:24.173355 20626 net.cpp:84] Creating Layer pool3_coarse
I0908 09:09:24.173360 20626 net.cpp:380] pool3_coarse <- cccp6_coarse
I0908 09:09:24.173367 20626 net.cpp:338] pool3_coarse -> pool3_coarse
I0908 09:09:24.173382 20626 net.cpp:113] Setting up pool3_coarse
I0908 09:09:24.173391 20626 net.cpp:120] Top shape: 100 100 1 1 (10000)
I0908 09:09:24.173398 20626 layer_factory.hpp:74] Creating layer pool3_coarse_pool3_coarse_0_split
I0908 09:09:24.173404 20626 net.cpp:84] Creating Layer pool3_coarse_pool3_coarse_0_split
I0908 09:09:24.173409 20626 net.cpp:380] pool3_coarse_pool3_coarse_0_split <- pool3_coarse
I0908 09:09:24.173416 20626 net.cpp:338] pool3_coarse_pool3_coarse_0_split -> pool3_coarse_pool3_coarse_0_split_0
I0908 09:09:24.173424 20626 net.cpp:338] pool3_coarse_pool3_coarse_0_split -> pool3_coarse_pool3_coarse_0_split_1
I0908 09:09:24.173432 20626 net.cpp:113] Setting up pool3_coarse_pool3_coarse_0_split
I0908 09:09:24.173440 20626 net.cpp:120] Top shape: 100 100 1 1 (10000)
I0908 09:09:24.173447 20626 net.cpp:120] Top shape: 100 100 1 1 (10000)
I0908 09:09:24.173451 20626 layer_factory.hpp:74] Creating layer accuracy_coarse
I0908 09:09:24.173466 20626 net.cpp:84] Creating Layer accuracy_coarse
I0908 09:09:24.173472 20626 net.cpp:380] accuracy_coarse <- pool3_coarse_pool3_coarse_0_split_0
I0908 09:09:24.173478 20626 net.cpp:380] accuracy_coarse <- label_cifar_1_split_0
I0908 09:09:24.173487 20626 net.cpp:338] accuracy_coarse -> accuracy_coarse
…
I0908 09:09:24.173557 20626 layer_factory.hpp:74] Creating layer loss_coarse
I0908 09:09:24.173599 20626 net.cpp:120] Top shape: (1)
I0908 09:09:24.173605 20626 net.cpp:122]     with loss weight 1
I0908 09:09:24.173636 20626 layer_factory.hpp:74] Creating layer cccp6_fine
I0908 09:09:24.173650 20626 net.cpp:84] Creating Layer cccp6_fine
I0908 09:09:24.173656 20626 net.cpp:380] cccp6_fine <- cccp5_fine_relu_cccp5_fine_0_split_1
I0908 09:09:24.173666 20626 net.cpp:338] cccp6_fine -> cccp6_fine
I0908 09:09:24.173681 20626 net.cpp:113] Setting up cccp6_fine
I0908 09:09:24.174476 20626 net.cpp:120] Top shape: 100 100 8 8 (640000)
I0908 09:09:24.174487 20626 layer_factory.hpp:74] Creating layer relu_cccp6_fine
I0908 09:09:24.174495 20626 net.cpp:84] Creating Layer relu_cccp6_fine
I0908 09:09:24.174501 20626 net.cpp:380] relu_cccp6_fine <- cccp6_fine
I0908 09:09:24.174525 20626 net.cpp:327] relu_cccp6_fine -> cccp6_fine (in-place)
I0908 09:09:24.174533 20626 net.cpp:113] Setting up relu_cccp6_fine
I0908 09:09:24.174541 20626 net.cpp:120] Top shape: 100 100 8 8 (640000)
I0908 09:09:24.174547 20626 layer_factory.hpp:74] Creating layer pool3_fine
I0908 09:09:24.174554 20626 net.cpp:84] Creating Layer pool3_fine
I0908 09:09:24.174559 20626 net.cpp:380] pool3_fine <- cccp6_fine
I0908 09:09:24.174566 20626 net.cpp:338] pool3_fine -> pool3_fine
I0908 09:09:24.174574 20626 net.cpp:113] Setting up pool3_fine
I0908 09:09:24.174585 20626 net.cpp:120] Top shape: 100 100 1 1 (10000)
I0908 09:09:24.174590 20626 layer_factory.hpp:74] Creating layer pool3_fine_pool3_fine_0_split
I0908 09:09:24.174597 20626 net.cpp:84] Creating Layer pool3_fine_pool3_fine_0_split
I0908 09:09:24.174602 20626 net.cpp:380] pool3_fine_pool3_fine_0_split <- pool3_fine
I0908 09:09:24.174609 20626 net.cpp:338] pool3_fine_pool3_fine_0_split -> pool3_fine_pool3_fine_0_split_0
I0908 09:09:24.174618 20626 net.cpp:338] pool3_fine_pool3_fine_0_split -> pool3_fine_pool3_fine_0_split_1
I0908 09:09:24.174625 20626 net.cpp:113] Setting up pool3_fine_pool3_fine_0_split
I0908 09:09:24.174635 20626 net.cpp:120] Top shape: 100 100 1 1 (10000)
I0908 09:09:24.174643 20626 net.cpp:120] Top shape: 100 100 1 1 (10000)
I0908 09:09:24.174646 20626 layer_factory.hpp:74] Creating layer accuracy_fine
I0908 09:09:24.174654 20626 net.cpp:84] Creating Layer accuracy_fine
I0908 09:09:24.174659 20626 net.cpp:380] accuracy_fine <- pool3_fine_pool3_fine_0_split_0
I0908 09:09:24.174666 20626 net.cpp:380] accuracy_fine <- label_cifar_1_split_2
I0908 09:09:24.174674 20626 net.cpp:338] accuracy_fine -> accuracy_fine
…
