…
I0907 10:30:59.127003 25292 net.cpp:257] The NetState phase (0) differed from the phase (1) specified by a rule in layer accuracy
I0907 10:30:59.127301 25292 net.cpp:42] Initializing net from parameters: 
name: "pklcifar100_full"
state {
  phase: TRAIN
}
layer {
  name: "cifar"
  type: "Data"
  top: "data"
  top: "label"
  include {
    phase: TRAIN
  }
  transform_param {
    mirror: true
    mean_file: "/home/housh/nips16_data/pklcifar100/data/pklcifar100_mean.binaryproto"
  }
  data_param {
    source: "/home/housh/nips16_data/pklcifar100/data/pklcifar100_train_leveldb"
    batch_size: 128
    backend: LEVELDB
  }
}
layer {
  name: "conv1"
  type: "Convolution"
  bottom: "data"
  top: "conv1"
  param {
    lr_mult: 1
    decay_mult: 1
  }
  param {
    lr_mult: 2
    decay_mult: 0
  }
  convolution_param {
    num_output: 192
    pad: 2
    kernel_size: 5
    weight_filler {
      type: "gaussian"
      std: 0.05
    }
    bias_filler {
      type: "constant"
    }
  }
}
layer {
  name: "relu1"
  type: "ReLU"
  bottom: "conv1"
  top: "conv1"
}
layer {
  name: "cccp1"
  type: "Convolution"
  bottom: "conv1"
  top: "cccp1"
  param {
    lr_mult: 1
    decay_mult: 1
  }
  param {
    lr_mult: 2
    decay_mult: 0
  }
  convolution_param {
    num_output: 160
    kernel_size: 1
    group: 1
    weight_filler {
      type: "gaussian"
      std: 0.05
    }
    bias_filler {
      type: "constant"
      value: 0
    }
  }
}
layer {
  name: "relu_cccp1"
  type: "ReLU"
  bottom: "cccp1"
  top: "cccp1"
}
layer {
  name: "cccp2"
  type: "Convolution"
  bottom: "cccp1"
  top: "cccp2"
  param {
    lr_mult: 1
    decay_mult: 1
  }
  param {
    lr_mult: 2
    decay_mult: 0
  }
  convolution_param {
    num_output: 96
    kernel_size: 1
    group: 1
    weight_filler {
      type: "gaussian"
      std: 0.05
    }
    bias_filler {
      type: "constant"
      value: 0
    }
  }
}
layer {
  name: "relu_cccp2"
  type: "ReLU"
  bottom: "cccp2"
  top: "cccp2"
}
layer {
  name: "pool1"
  type: "Pooling"
  bottom: "cccp2"
  top: "pool1"
  pooling_param {
    pool: MAX
    kernel_size: 3
    stride: 2
  }
}
layer {
  name: "drop3"
  type: "Dropout"
  bottom: "pool1"
  top: "pool1"
  dropout_param {
    dropout_ratio: 0.5
  }
}
layer {
  name: "conv2"
  type: "Convolution"
  bottom: "pool1"
  top: "conv2"
  param {
    lr_mult: 1
    decay_mult: 1
  }
  param {
    lr_mult: 2
    decay_mult: 0
  }
  convolution_param {
    num_output: 192
    pad: 2
    kernel_size: 5
    weight_filler {
      type: "gaussian"
      std: 0.05
    }
    bias_filler {
      type: "constant"
    }
  }
}
layer {
  name: "relu2"
  type: "ReLU"
  bottom: "conv2"
  top: "conv2"
}
layer {
  name: "cccp3"
  type: "Convolution"
  bottom: "conv2"
  top: "cccp3"
  param {
    lr_mult: 1
    decay_mult: 1
  }
  param {
    lr_mult: 2
    decay_mult: 0
  }
  convolution_param {
    num_output: 192
    kernel_size: 1
    group: 1
    weight_filler {
      type: "gaussian"
      std: 0.05
    }
    bias_filler {
      type: "constant"
      value: 0
    }
  }
}
layer {
  name: "relu_cccp3"
  type: "ReLU"
  bottom: "cccp3"
  top: "cccp3"
}
layer {
  name: "cccp4"
  type: "Convolution"
  bottom: "cccp3"
  top: "cccp4"
  param {
    lr_mult: 1
    decay_mult: 1
  }
  param {
    lr_mult: 2
    decay_mult: 0
  }
  convolution_param {
    num_output: 192
    kernel_size: 1
    group: 1
    weight_filler {
      type: "gaussian"
      std: 0.05
    }
    bias_filler {
      type: "constant"
      value: 0
    }
  }
}
layer {
  name: "relu_cccp4"
  type: "ReLU"
  bottom: "cccp4"
  top: "cccp4"
}
layer {
  name: "pool2"
  type: "Pooling"
  bottom: "cccp4"
  top: "pool2"
  pooling_param {
    pool: AVE
    kernel_size: 3
    stride: 2
  }
}
layer {
  name: "drop6"
  type: "Dropout"
  bottom: "pool2"
  top: "pool2"
  dropout_param {
    dropout_ratio: 0.5
  }
}
layer {
  name: "conv3"
  type: "Convolution"
  bottom: "pool2"
  top: "conv3"
  param {
    lr_mult: 1
    decay_mult: 1
  }
  param {
    lr_mult: 2
    decay_mult: 0
  }
  convolution_param {
    num_output: 192
    pad: 1
    kernel_size: 3
    weight_filler {
      type: "gaussian"
      std: 0.05
    }
    bias_filler {
      type: "constant"
    }
  }
}
layer {
  name: "relu3"
  type: "ReLU"
  bottom: "conv3"
  top: "conv3"
}
layer {
  name: "cccp5"
  type: "Convolution"
  bottom: "conv3"
  top: "cccp5"
  param {
    lr_mult: 1
    decay_mult: 1
  }
  param {
    lr_mult: 2
    decay_mult: 0
  }
  convolution_param {
    num_output: 192
    kernel_size: 1
    group: 1
    weight_filler {
      type: "gaussian"
      std: 0.05
    }
    bias_filler {
      type: "constant"
      value: 0
    }
  }
}
layer {
  name: "relu_cccp5"
  type: "ReLU"
  bottom: "cccp5"
  top: "cccp5"
}
layer {
  name: "cccp6"
  type: "Convolution"
  bottom: "cccp5"
  top: "cccp6"
  param {
    lr_mult: 0.1
    decay_mult: 1
  }
  param {
    lr_mult: 0.1
    decay_mult: 0
  }
  convolution_param {
    num_output: 100
    kernel_size: 1
    group: 1
    weight_filler {
      type: "gaussian"
      std: 0.05
    }
    bias_filler {
      type: "constant"
      value: 0
    }
  }
}
layer {
  name: "relu_cccp6"
  type: "ReLU"
  bottom: "cccp6"
  top: "cccp6"
}
layer {
  name: "pool3"
  type: "Pooling"
  bottom: "cccp6"
  top: "pool3"
  pooling_param {
    pool: AVE
    kernel_size: 8
    stride: 1
  }
}
layer {
  name: "loss"
  type: "SoftmaxWithLoss"
  bottom: "pool3"
  bottom: "label"
  top: "loss"
}
I0907 10:30:59.127506 25292 layer_factory.hpp:74] Creating layer cifar
I0907 10:30:59.127539 25292 net.cpp:84] Creating Layer cifar
I0907 10:30:59.127553 25292 net.cpp:338] cifar -> data
I0907 10:30:59.127595 25292 net.cpp:338] cifar -> label
I0907 10:30:59.127624 25292 net.cpp:113] Setting up cifar
I0907 10:30:59.216442 25292 db.cpp:20] Opened leveldb /home/housh/nips16_data/pklcifar100/data/pklcifar100_train_leveldb
I0907 10:30:59.268285 25292 data_layer.cpp:67] output data size: 128,3,32,32
I0907 10:30:59.268335 25292 data_transformer.cpp:22] Loading mean file from: /home/housh/nips16_data/pklcifar100/data/pklcifar100_mean.binaryproto
I0907 10:30:59.416033 25292 net.cpp:120] Top shape: 128 3 32 32 (393216)
I0907 10:30:59.416072 25292 net.cpp:120] Top shape: 128 (128)
I0907 10:30:59.416088 25292 layer_factory.hpp:74] Creating layer conv1
I0907 10:30:59.416123 25292 net.cpp:84] Creating Layer conv1
I0907 10:30:59.416137 25292 net.cpp:380] conv1 <- data
I0907 10:30:59.416180 25292 net.cpp:338] conv1 -> conv1
I0907 10:30:59.416210 25292 net.cpp:113] Setting up conv1
I0907 10:30:59.417354 25292 net.cpp:120] Top shape: 128 192 32 32 (25165824)
I0907 10:30:59.417387 25292 layer_factory.hpp:74] Creating layer relu1
I0907 10:30:59.417409 25292 net.cpp:84] Creating Layer relu1
I0907 10:30:59.417420 25292 net.cpp:380] relu1 <- conv1
I0907 10:30:59.417435 25292 net.cpp:327] relu1 -> conv1 (in-place)
I0907 10:30:59.417450 25292 net.cpp:113] Setting up relu1
I0907 10:30:59.417467 25292 net.cpp:120] Top shape: 128 192 32 32 (25165824)
I0907 10:30:59.417479 25292 layer_factory.hpp:74] Creating layer cccp1
I0907 10:30:59.417495 25292 net.cpp:84] Creating Layer cccp1
I0907 10:30:59.417503 25292 net.cpp:380] cccp1 <- conv1
I0907 10:30:59.417520 25292 net.cpp:338] cccp1 -> cccp1
I0907 10:30:59.417534 25292 net.cpp:113] Setting up cccp1
I0907 10:30:59.419831 25292 net.cpp:120] Top shape: 128 160 32 32 (20971520)
I0907 10:30:59.419883 25292 layer_factory.hpp:74] Creating layer relu_cccp1
I0907 10:30:59.419904 25292 net.cpp:84] Creating Layer relu_cccp1
I0907 10:30:59.419915 25292 net.cpp:380] relu_cccp1 <- cccp1
I0907 10:30:59.419929 25292 net.cpp:327] relu_cccp1 -> cccp1 (in-place)
I0907 10:30:59.419944 25292 net.cpp:113] Setting up relu_cccp1
I0907 10:30:59.419956 25292 net.cpp:120] Top shape: 128 160 32 32 (20971520)
I0907 10:30:59.419966 25292 layer_factory.hpp:74] Creating layer cccp2
I0907 10:30:59.419984 25292 net.cpp:84] Creating Layer cccp2
I0907 10:30:59.419993 25292 net.cpp:380] cccp2 <- cccp1
I0907 10:30:59.420007 25292 net.cpp:338] cccp2 -> cccp2
I0907 10:30:59.420027 25292 net.cpp:113] Setting up cccp2
I0907 10:30:59.421178 25292 net.cpp:120] Top shape: 128 96 32 32 (12582912)
I0907 10:30:59.421201 25292 layer_factory.hpp:74] Creating layer relu_cccp2
I0907 10:30:59.421216 25292 net.cpp:84] Creating Layer relu_cccp2
I0907 10:30:59.421226 25292 net.cpp:380] relu_cccp2 <- cccp2
I0907 10:30:59.421242 25292 net.cpp:327] relu_cccp2 -> cccp2 (in-place)
I0907 10:30:59.421257 25292 net.cpp:113] Setting up relu_cccp2
I0907 10:30:59.421269 25292 net.cpp:120] Top shape: 128 96 32 32 (12582912)
I0907 10:30:59.421279 25292 layer_factory.hpp:74] Creating layer pool1
I0907 10:30:59.421303 25292 net.cpp:84] Creating Layer pool1
I0907 10:30:59.421314 25292 net.cpp:380] pool1 <- cccp2
I0907 10:30:59.421327 25292 net.cpp:338] pool1 -> pool1
I0907 10:30:59.421344 25292 net.cpp:113] Setting up pool1
I0907 10:30:59.421380 25292 net.cpp:120] Top shape: 128 96 16 16 (3145728)
I0907 10:30:59.421391 25292 layer_factory.hpp:74] Creating layer drop3
I0907 10:30:59.421409 25292 net.cpp:84] Creating Layer drop3
I0907 10:30:59.421418 25292 net.cpp:380] drop3 <- pool1
I0907 10:30:59.421432 25292 net.cpp:327] drop3 -> pool1 (in-place)
I0907 10:30:59.421448 25292 net.cpp:113] Setting up drop3
I0907 10:30:59.421469 25292 net.cpp:120] Top shape: 128 96 16 16 (3145728)
I0907 10:30:59.421479 25292 layer_factory.hpp:74] Creating layer conv2
I0907 10:30:59.421499 25292 net.cpp:84] Creating Layer conv2
I0907 10:30:59.421509 25292 net.cpp:380] conv2 <- pool1
I0907 10:30:59.421522 25292 net.cpp:338] conv2 -> conv2
I0907 10:30:59.421538 25292 net.cpp:113] Setting up conv2
I0907 10:30:59.452569 25292 net.cpp:120] Top shape: 128 192 16 16 (6291456)
I0907 10:30:59.452590 25292 layer_factory.hpp:74] Creating layer relu2
I0907 10:30:59.452603 25292 net.cpp:84] Creating Layer relu2
I0907 10:30:59.452612 25292 net.cpp:380] relu2 <- conv2
I0907 10:30:59.452625 25292 net.cpp:327] relu2 -> conv2 (in-place)
I0907 10:30:59.452637 25292 net.cpp:113] Setting up relu2
I0907 10:30:59.452648 25292 net.cpp:120] Top shape: 128 192 16 16 (6291456)
I0907 10:30:59.452667 25292 layer_factory.hpp:74] Creating layer cccp3
I0907 10:30:59.452684 25292 net.cpp:84] Creating Layer cccp3
I0907 10:30:59.452692 25292 net.cpp:380] cccp3 <- conv2
I0907 10:30:59.452703 25292 net.cpp:338] cccp3 -> cccp3
I0907 10:30:59.452716 25292 net.cpp:113] Setting up cccp3
I0907 10:30:59.455019 25292 net.cpp:120] Top shape: 128 192 16 16 (6291456)
I0907 10:30:59.455039 25292 layer_factory.hpp:74] Creating layer relu_cccp3
I0907 10:30:59.455050 25292 net.cpp:84] Creating Layer relu_cccp3
I0907 10:30:59.455059 25292 net.cpp:380] relu_cccp3 <- cccp3
I0907 10:30:59.455070 25292 net.cpp:327] relu_cccp3 -> cccp3 (in-place)
I0907 10:30:59.455080 25292 net.cpp:113] Setting up relu_cccp3
I0907 10:30:59.455090 25292 net.cpp:120] Top shape: 128 192 16 16 (6291456)
I0907 10:30:59.455098 25292 layer_factory.hpp:74] Creating layer cccp4
I0907 10:30:59.455113 25292 net.cpp:84] Creating Layer cccp4
I0907 10:30:59.455121 25292 net.cpp:380] cccp4 <- cccp3
I0907 10:30:59.455132 25292 net.cpp:338] cccp4 -> cccp4
I0907 10:30:59.455145 25292 net.cpp:113] Setting up cccp4
I0907 10:30:59.457331 25292 net.cpp:120] Top shape: 128 192 16 16 (6291456)
I0907 10:30:59.457348 25292 layer_factory.hpp:74] Creating layer relu_cccp4
I0907 10:30:59.457358 25292 net.cpp:84] Creating Layer relu_cccp4
I0907 10:30:59.457366 25292 net.cpp:380] relu_cccp4 <- cccp4
I0907 10:30:59.457394 25292 net.cpp:327] relu_cccp4 -> cccp4 (in-place)
I0907 10:30:59.457407 25292 net.cpp:113] Setting up relu_cccp4
I0907 10:30:59.457418 25292 net.cpp:120] Top shape: 128 192 16 16 (6291456)
I0907 10:30:59.457427 25292 layer_factory.hpp:74] Creating layer pool2
I0907 10:30:59.457437 25292 net.cpp:84] Creating Layer pool2
I0907 10:30:59.457445 25292 net.cpp:380] pool2 <- cccp4
I0907 10:30:59.457455 25292 net.cpp:338] pool2 -> pool2
I0907 10:30:59.457468 25292 net.cpp:113] Setting up pool2
I0907 10:30:59.457480 25292 net.cpp:120] Top shape: 128 192 8 8 (1572864)
I0907 10:30:59.457489 25292 layer_factory.hpp:74] Creating layer drop6
I0907 10:30:59.457504 25292 net.cpp:84] Creating Layer drop6
I0907 10:30:59.457512 25292 net.cpp:380] drop6 <- pool2
I0907 10:30:59.457521 25292 net.cpp:327] drop6 -> pool2 (in-place)
I0907 10:30:59.457532 25292 net.cpp:113] Setting up drop6
I0907 10:30:59.457545 25292 net.cpp:120] Top shape: 128 192 8 8 (1572864)
I0907 10:30:59.457551 25292 layer_factory.hpp:74] Creating layer conv3
I0907 10:30:59.457564 25292 net.cpp:84] Creating Layer conv3
I0907 10:30:59.457572 25292 net.cpp:380] conv3 <- pool2
I0907 10:30:59.457581 25292 net.cpp:338] conv3 -> conv3
I0907 10:30:59.457594 25292 net.cpp:113] Setting up conv3
I0907 10:30:59.476351 25292 net.cpp:120] Top shape: 128 192 8 8 (1572864)
I0907 10:30:59.476369 25292 layer_factory.hpp:74] Creating layer relu3
I0907 10:30:59.476380 25292 net.cpp:84] Creating Layer relu3
I0907 10:30:59.476388 25292 net.cpp:380] relu3 <- conv3
I0907 10:30:59.476397 25292 net.cpp:327] relu3 -> conv3 (in-place)
I0907 10:30:59.476408 25292 net.cpp:113] Setting up relu3
I0907 10:30:59.476416 25292 net.cpp:120] Top shape: 128 192 8 8 (1572864)
I0907 10:30:59.476423 25292 layer_factory.hpp:74] Creating layer cccp5
I0907 10:30:59.476433 25292 net.cpp:84] Creating Layer cccp5
I0907 10:30:59.476440 25292 net.cpp:380] cccp5 <- conv3
I0907 10:30:59.476449 25292 net.cpp:338] cccp5 -> cccp5
I0907 10:30:59.476461 25292 net.cpp:113] Setting up cccp5
I0907 10:30:59.478399 25292 net.cpp:120] Top shape: 128 192 8 8 (1572864)
I0907 10:30:59.478415 25292 layer_factory.hpp:74] Creating layer relu_cccp5
I0907 10:30:59.478425 25292 net.cpp:84] Creating Layer relu_cccp5
I0907 10:30:59.478432 25292 net.cpp:380] relu_cccp5 <- cccp5
I0907 10:30:59.478440 25292 net.cpp:327] relu_cccp5 -> cccp5 (in-place)
I0907 10:30:59.478451 25292 net.cpp:113] Setting up relu_cccp5
I0907 10:30:59.478459 25292 net.cpp:120] Top shape: 128 192 8 8 (1572864)
I0907 10:30:59.478466 25292 layer_factory.hpp:74] Creating layer cccp6
I0907 10:30:59.478477 25292 net.cpp:84] Creating Layer cccp6
I0907 10:30:59.478482 25292 net.cpp:380] cccp6 <- cccp5
I0907 10:30:59.478493 25292 net.cpp:338] cccp6 -> cccp6
I0907 10:30:59.478504 25292 net.cpp:113] Setting up cccp6
I0907 10:30:59.479517 25292 net.cpp:120] Top shape: 128 100 8 8 (819200)
I0907 10:30:59.479537 25292 layer_factory.hpp:74] Creating layer relu_cccp6
I0907 10:30:59.479547 25292 net.cpp:84] Creating Layer relu_cccp6
I0907 10:30:59.479553 25292 net.cpp:380] relu_cccp6 <- cccp6
I0907 10:30:59.479562 25292 net.cpp:327] relu_cccp6 -> cccp6 (in-place)
I0907 10:30:59.479571 25292 net.cpp:113] Setting up relu_cccp6
I0907 10:30:59.479580 25292 net.cpp:120] Top shape: 128 100 8 8 (819200)
I0907 10:30:59.479588 25292 layer_factory.hpp:74] Creating layer pool3
I0907 10:30:59.479596 25292 net.cpp:84] Creating Layer pool3
I0907 10:30:59.479604 25292 net.cpp:380] pool3 <- cccp6
I0907 10:30:59.479614 25292 net.cpp:338] pool3 -> pool3
I0907 10:30:59.479624 25292 net.cpp:113] Setting up pool3
I0907 10:30:59.479635 25292 net.cpp:120] Top shape: 128 100 1 1 (12800)
I0907 10:30:59.479642 25292 layer_factory.hpp:74] Creating layer loss
I0907 10:30:59.479655 25292 net.cpp:84] Creating Layer loss
I0907 10:30:59.479662 25292 net.cpp:380] loss <- pool3
I0907 10:30:59.479670 25292 net.cpp:380] loss <- label
I0907 10:30:59.479688 25292 net.cpp:338] loss -> loss
I0907 10:30:59.479701 25292 net.cpp:113] Setting up loss
I0907 10:30:59.479715 25292 layer_factory.hpp:74] Creating layer loss
…
I0907 10:30:59.481348 25292 net.cpp:257] The NetState phase (1) differed from the phase (0) specified by a rule in layer cifar
I0907 10:30:59.481670 25292 net.cpp:42] Initializing net from parameters: 
name: "pklcifar100_full"
state {
  phase: TEST
}
layer {
  name: "cifar"
  type: "Data"
  top: "data"
  top: "label"
  include {
    phase: TEST
  }
  transform_param {
    mirror: false
    mean_file: "/home/housh/nips16_data/pklcifar100/data/pklcifar100_mean.binaryproto"
  }
  data_param {
    source: "/home/housh/nips16_data/pklcifar100/data/pklcifar100_test_leveldb"
    batch_size: 100
    backend: LEVELDB
  }
}
layer {
  name: "conv1"
  type: "Convolution"
  bottom: "data"
  top: "conv1"
  param {
    lr_mult: 1
    decay_mult: 1
  }
  param {
    lr_mult: 2
    decay_mult: 0
  }
  convolution_param {
    num_output: 192
    pad: 2
    kernel_size: 5
    weight_filler {
      type: "gaussian"
      std: 0.05
    }
    bias_filler {
      type: "constant"
    }
  }
}
layer {
  name: "relu1"
  type: "ReLU"
  bottom: "conv1"
  top: "conv1"
}
layer {
  name: "cccp1"
  type: "Convolution"
  bottom: "conv1"
  top: "cccp1"
  param {
    lr_mult: 1
    decay_mult: 1
  }
  param {
    lr_mult: 2
    decay_mult: 0
  }
  convolution_param {
    num_output: 160
    kernel_size: 1
    group: 1
    weight_filler {
      type: "gaussian"
      std: 0.05
    }
    bias_filler {
      type: "constant"
      value: 0
    }
  }
}
layer {
  name: "relu_cccp1"
  type: "ReLU"
  bottom: "cccp1"
  top: "cccp1"
}
layer {
  name: "cccp2"
  type: "Convolution"
  bottom: "cccp1"
  top: "cccp2"
  param {
    lr_mult: 1
    decay_mult: 1
  }
  param {
    lr_mult: 2
    decay_mult: 0
  }
  convolution_param {
    num_output: 96
    kernel_size: 1
    group: 1
    weight_filler {
      type: "gaussian"
      std: 0.05
    }
    bias_filler {
      type: "constant"
      value: 0
    }
  }
}
layer {
  name: "relu_cccp2"
  type: "ReLU"
  bottom: "cccp2"
  top: "cccp2"
}
layer {
  name: "pool1"
  type: "Pooling"
  bottom: "cccp2"
  top: "pool1"
  pooling_param {
    pool: MAX
    kernel_size: 3
    stride: 2
  }
}
layer {
  name: "drop3"
  type: "Dropout"
  bottom: "pool1"
  top: "pool1"
  dropout_param {
    dropout_ratio: 0.5
  }
}
layer {
  name: "conv2"
  type: "Convolution"
  bottom: "pool1"
  top: "conv2"
  param {
    lr_mult: 1
    decay_mult: 1
  }
  param {
    lr_mult: 2
    decay_mult: 0
  }
  convolution_param {
    num_output: 192
    pad: 2
    kernel_size: 5
    weight_filler {
      type: "gaussian"
      std: 0.05
    }
    bias_filler {
      type: "constant"
    }
  }
}
layer {
  name: "relu2"
  type: "ReLU"
  bottom: "conv2"
  top: "conv2"
}
layer {
  name: "cccp3"
  type: "Convolution"
  bottom: "conv2"
  top: "cccp3"
  param {
    lr_mult: 1
    decay_mult: 1
  }
  param {
    lr_mult: 2
    decay_mult: 0
  }
  convolution_param {
    num_output: 192
    kernel_size: 1
    group: 1
    weight_filler {
      type: "gaussian"
      std: 0.05
    }
    bias_filler {
      type: "constant"
      value: 0
    }
  }
}
layer {
  name: "relu_cccp3"
  type: "ReLU"
  bottom: "cccp3"
  top: "cccp3"
}
layer {
  name: "cccp4"
  type: "Convolution"
  bottom: "cccp3"
  top: "cccp4"
  param {
    lr_mult: 1
    decay_mult: 1
  }
  param {
    lr_mult: 2
    decay_mult: 0
  }
  convolution_param {
    num_output: 192
    kernel_size: 1
    group: 1
    weight_filler {
      type: "gaussian"
      std: 0.05
    }
    bias_filler {
      type: "constant"
      value: 0
    }
  }
}
layer {
  name: "relu_cccp4"
  type: "ReLU"
  bottom: "cccp4"
  top: "cccp4"
}
layer {
  name: "pool2"
  type: "Pooling"
  bottom: "cccp4"
  top: "pool2"
  pooling_param {
    pool: AVE
    kernel_size: 3
    stride: 2
  }
}
layer {
  name: "drop6"
  type: "Dropout"
  bottom: "pool2"
  top: "pool2"
  dropout_param {
    dropout_ratio: 0.5
  }
}
layer {
  name: "conv3"
  type: "Convolution"
  bottom: "pool2"
  top: "conv3"
  param {
    lr_mult: 1
    decay_mult: 1
  }
  param {
    lr_mult: 2
    decay_mult: 0
  }
  convolution_param {
    num_output: 192
    pad: 1
    kernel_size: 3
    weight_filler {
      type: "gaussian"
      std: 0.05
    }
    bias_filler {
      type: "constant"
    }
  }
}
layer {
  name: "relu3"
  type: "ReLU"
  bottom: "conv3"
  top: "conv3"
}
layer {
  name: "cccp5"
  type: "Convolution"
  bottom: "conv3"
  top: "cccp5"
  param {
    lr_mult: 1
    decay_mult: 1
  }
  param {
    lr_mult: 2
    decay_mult: 0
  }
  convolution_param {
    num_output: 192
    kernel_size: 1
    group: 1
    weight_filler {
      type: "gaussian"
      std: 0.05
    }
    bias_filler {
      type: "constant"
      value: 0
    }
  }
}
layer {
  name: "relu_cccp5"
  type: "ReLU"
  bottom: "cccp5"
  top: "cccp5"
}
layer {
  name: "cccp6"
  type: "Convolution"
  bottom: "cccp5"
  top: "cccp6"
  param {
    lr_mult: 0.1
    decay_mult: 1
  }
  param {
    lr_mult: 0.1
    decay_mult: 0
  }
  convolution_param {
    num_output: 100
    kernel_size: 1
    group: 1
    weight_filler {
      type: "gaussian"
      std: 0.05
    }
    bias_filler {
      type: "constant"
      value: 0
    }
  }
}
layer {
  name: "relu_cccp6"
  type: "ReLU"
  bottom: "cccp6"
  top: "cccp6"
}
layer {
  name: "pool3"
  type: "Pooling"
  bottom: "cccp6"
  top: "pool3"
  pooling_param {
    pool: AVE
    kernel_size: 8
    stride: 1
  }
}
layer {
  name: "accuracy"
  type: "Accuracy"
  bottom: "pool3"
  bottom: "label"
  top: "accuracy"
  include {
    phase: TEST
  }
}
layer {
  name: "loss"
  type: "SoftmaxWithLoss"
  bottom: "pool3"
  bottom: "label"
  top: "loss"
}
I0907 10:30:59.481892 25292 layer_factory.hpp:74] Creating layer cifar
I0907 10:30:59.481919 25292 net.cpp:84] Creating Layer cifar
I0907 10:30:59.481928 25292 net.cpp:338] cifar -> data
I0907 10:30:59.481945 25292 net.cpp:338] cifar -> label
I0907 10:30:59.481957 25292 net.cpp:113] Setting up cifar
I0907 10:30:59.712586 25292 db.cpp:20] Opened leveldb /home/housh/nips16_data/pklcifar100/data/pklcifar100_test_leveldb
I0907 10:30:59.880209 25292 data_layer.cpp:67] output data size: 100,3,32,32
I0907 10:30:59.880256 25292 data_transformer.cpp:22] Loading mean file from: /home/housh/nips16_data/pklcifar100/data/pklcifar100_mean.binaryproto
I0907 10:30:59.929805 25292 net.cpp:120] Top shape: 100 3 32 32 (307200)
I0907 10:30:59.929832 25292 net.cpp:120] Top shape: 100 (100)
I0907 10:30:59.929844 25292 layer_factory.hpp:74] Creating layer label_cifar_1_split
I0907 10:30:59.929868 25292 net.cpp:84] Creating Layer label_cifar_1_split
I0907 10:30:59.929877 25292 net.cpp:380] label_cifar_1_split <- label
I0907 10:30:59.929891 25292 net.cpp:338] label_cifar_1_split -> label_cifar_1_split_0
I0907 10:30:59.929913 25292 net.cpp:338] label_cifar_1_split -> label_cifar_1_split_1
I0907 10:30:59.929934 25292 net.cpp:113] Setting up label_cifar_1_split
I0907 10:30:59.929957 25292 net.cpp:120] Top shape: 100 (100)
I0907 10:30:59.929967 25292 net.cpp:120] Top shape: 100 (100)
I0907 10:30:59.929977 25292 layer_factory.hpp:74] Creating layer conv1
I0907 10:30:59.930009 25292 net.cpp:84] Creating Layer conv1
I0907 10:30:59.930027 25292 net.cpp:380] conv1 <- data
I0907 10:30:59.930043 25292 net.cpp:338] conv1 -> conv1
I0907 10:30:59.930063 25292 net.cpp:113] Setting up conv1
I0907 10:30:59.931181 25292 net.cpp:120] Top shape: 100 192 32 32 (19660800)
I0907 10:30:59.931212 25292 layer_factory.hpp:74] Creating layer relu1
I0907 10:30:59.931229 25292 net.cpp:84] Creating Layer relu1
I0907 10:30:59.931241 25292 net.cpp:380] relu1 <- conv1
I0907 10:30:59.931255 25292 net.cpp:327] relu1 -> conv1 (in-place)
I0907 10:30:59.931269 25292 net.cpp:113] Setting up relu1
I0907 10:30:59.931283 25292 net.cpp:120] Top shape: 100 192 32 32 (19660800)
I0907 10:30:59.931293 25292 layer_factory.hpp:74] Creating layer cccp1
I0907 10:30:59.931311 25292 net.cpp:84] Creating Layer cccp1
I0907 10:30:59.931321 25292 net.cpp:380] cccp1 <- conv1
I0907 10:30:59.931336 25292 net.cpp:338] cccp1 -> cccp1
I0907 10:30:59.931354 25292 net.cpp:113] Setting up cccp1
I0907 10:30:59.933648 25292 net.cpp:120] Top shape: 100 160 32 32 (16384000)
I0907 10:30:59.933681 25292 layer_factory.hpp:74] Creating layer relu_cccp1
I0907 10:30:59.933698 25292 net.cpp:84] Creating Layer relu_cccp1
I0907 10:30:59.933708 25292 net.cpp:380] relu_cccp1 <- cccp1
I0907 10:30:59.933722 25292 net.cpp:327] relu_cccp1 -> cccp1 (in-place)
I0907 10:30:59.933738 25292 net.cpp:113] Setting up relu_cccp1
I0907 10:30:59.933753 25292 net.cpp:120] Top shape: 100 160 32 32 (16384000)
I0907 10:30:59.933763 25292 layer_factory.hpp:74] Creating layer cccp2
I0907 10:30:59.933780 25292 net.cpp:84] Creating Layer cccp2
I0907 10:30:59.933790 25292 net.cpp:380] cccp2 <- cccp1
I0907 10:30:59.933809 25292 net.cpp:338] cccp2 -> cccp2
I0907 10:30:59.933825 25292 net.cpp:113] Setting up cccp2
I0907 10:30:59.934993 25292 net.cpp:120] Top shape: 100 96 32 32 (9830400)
I0907 10:30:59.935015 25292 layer_factory.hpp:74] Creating layer relu_cccp2
I0907 10:30:59.935029 25292 net.cpp:84] Creating Layer relu_cccp2
I0907 10:30:59.935039 25292 net.cpp:380] relu_cccp2 <- cccp2
I0907 10:30:59.935051 25292 net.cpp:327] relu_cccp2 -> cccp2 (in-place)
I0907 10:30:59.935065 25292 net.cpp:113] Setting up relu_cccp2
I0907 10:30:59.935077 25292 net.cpp:120] Top shape: 100 96 32 32 (9830400)
I0907 10:30:59.935087 25292 layer_factory.hpp:74] Creating layer pool1
I0907 10:30:59.935104 25292 net.cpp:84] Creating Layer pool1
I0907 10:30:59.935114 25292 net.cpp:380] pool1 <- cccp2
I0907 10:30:59.935130 25292 net.cpp:338] pool1 -> pool1
I0907 10:30:59.935145 25292 net.cpp:113] Setting up pool1
I0907 10:30:59.935163 25292 net.cpp:120] Top shape: 100 96 16 16 (2457600)
I0907 10:30:59.935173 25292 layer_factory.hpp:74] Creating layer drop3
I0907 10:30:59.935214 25292 net.cpp:84] Creating Layer drop3
I0907 10:30:59.935225 25292 net.cpp:380] drop3 <- pool1
I0907 10:30:59.935241 25292 net.cpp:327] drop3 -> pool1 (in-place)
I0907 10:30:59.935256 25292 net.cpp:113] Setting up drop3
I0907 10:30:59.935272 25292 net.cpp:120] Top shape: 100 96 16 16 (2457600)
I0907 10:30:59.935283 25292 layer_factory.hpp:74] Creating layer conv2
I0907 10:30:59.935298 25292 net.cpp:84] Creating Layer conv2
I0907 10:30:59.935307 25292 net.cpp:380] conv2 <- pool1
I0907 10:30:59.935324 25292 net.cpp:338] conv2 -> conv2
I0907 10:30:59.935343 25292 net.cpp:113] Setting up conv2
I0907 10:30:59.965605 25292 net.cpp:120] Top shape: 100 192 16 16 (4915200)
I0907 10:30:59.965626 25292 layer_factory.hpp:74] Creating layer relu2
I0907 10:30:59.965636 25292 net.cpp:84] Creating Layer relu2
I0907 10:30:59.965644 25292 net.cpp:380] relu2 <- conv2
I0907 10:30:59.965661 25292 net.cpp:327] relu2 -> conv2 (in-place)
I0907 10:30:59.965672 25292 net.cpp:113] Setting up relu2
I0907 10:30:59.965687 25292 net.cpp:120] Top shape: 100 192 16 16 (4915200)
I0907 10:30:59.965697 25292 layer_factory.hpp:74] Creating layer cccp3
I0907 10:30:59.965709 25292 net.cpp:84] Creating Layer cccp3
I0907 10:30:59.965718 25292 net.cpp:380] cccp3 <- conv2
I0907 10:30:59.965733 25292 net.cpp:338] cccp3 -> cccp3
I0907 10:30:59.965745 25292 net.cpp:113] Setting up cccp3
I0907 10:30:59.967934 25292 net.cpp:120] Top shape: 100 192 16 16 (4915200)
I0907 10:30:59.967954 25292 layer_factory.hpp:74] Creating layer relu_cccp3
I0907 10:30:59.967968 25292 net.cpp:84] Creating Layer relu_cccp3
I0907 10:30:59.967977 25292 net.cpp:380] relu_cccp3 <- cccp3
I0907 10:30:59.967988 25292 net.cpp:327] relu_cccp3 -> cccp3 (in-place)
I0907 10:30:59.967998 25292 net.cpp:113] Setting up relu_cccp3
I0907 10:30:59.968008 25292 net.cpp:120] Top shape: 100 192 16 16 (4915200)
I0907 10:30:59.968016 25292 layer_factory.hpp:74] Creating layer cccp4
I0907 10:30:59.968029 25292 net.cpp:84] Creating Layer cccp4
I0907 10:30:59.968035 25292 net.cpp:380] cccp4 <- cccp3
I0907 10:30:59.968049 25292 net.cpp:338] cccp4 -> cccp4
I0907 10:30:59.968061 25292 net.cpp:113] Setting up cccp4
I0907 10:30:59.970237 25292 net.cpp:120] Top shape: 100 192 16 16 (4915200)
I0907 10:30:59.970253 25292 layer_factory.hpp:74] Creating layer relu_cccp4
I0907 10:30:59.970263 25292 net.cpp:84] Creating Layer relu_cccp4
I0907 10:30:59.970270 25292 net.cpp:380] relu_cccp4 <- cccp4
I0907 10:30:59.970283 25292 net.cpp:327] relu_cccp4 -> cccp4 (in-place)
I0907 10:30:59.970293 25292 net.cpp:113] Setting up relu_cccp4
I0907 10:30:59.970302 25292 net.cpp:120] Top shape: 100 192 16 16 (4915200)
I0907 10:30:59.970309 25292 layer_factory.hpp:74] Creating layer pool2
I0907 10:30:59.970324 25292 net.cpp:84] Creating Layer pool2
I0907 10:30:59.970331 25292 net.cpp:380] pool2 <- cccp4
I0907 10:30:59.970342 25292 net.cpp:338] pool2 -> pool2
I0907 10:30:59.970353 25292 net.cpp:113] Setting up pool2
I0907 10:30:59.970366 25292 net.cpp:120] Top shape: 100 192 8 8 (1228800)
I0907 10:30:59.970373 25292 layer_factory.hpp:74] Creating layer drop6
I0907 10:30:59.970384 25292 net.cpp:84] Creating Layer drop6
I0907 10:30:59.970392 25292 net.cpp:380] drop6 <- pool2
I0907 10:30:59.970401 25292 net.cpp:327] drop6 -> pool2 (in-place)
I0907 10:30:59.970410 25292 net.cpp:113] Setting up drop6
I0907 10:30:59.970422 25292 net.cpp:120] Top shape: 100 192 8 8 (1228800)
I0907 10:30:59.970429 25292 layer_factory.hpp:74] Creating layer conv3
I0907 10:30:59.970443 25292 net.cpp:84] Creating Layer conv3
I0907 10:30:59.970450 25292 net.cpp:380] conv3 <- pool2
I0907 10:30:59.970461 25292 net.cpp:338] conv3 -> conv3
I0907 10:30:59.970474 25292 net.cpp:113] Setting up conv3
I0907 10:30:59.988422 25292 net.cpp:120] Top shape: 100 192 8 8 (1228800)
I0907 10:30:59.988440 25292 layer_factory.hpp:74] Creating layer relu3
I0907 10:30:59.988452 25292 net.cpp:84] Creating Layer relu3
I0907 10:30:59.988459 25292 net.cpp:380] relu3 <- conv3
I0907 10:30:59.988469 25292 net.cpp:327] relu3 -> conv3 (in-place)
I0907 10:30:59.988493 25292 net.cpp:113] Setting up relu3
I0907 10:30:59.988504 25292 net.cpp:120] Top shape: 100 192 8 8 (1228800)
I0907 10:30:59.988512 25292 layer_factory.hpp:74] Creating layer cccp5
I0907 10:30:59.988528 25292 net.cpp:84] Creating Layer cccp5
I0907 10:30:59.988536 25292 net.cpp:380] cccp5 <- conv3
I0907 10:30:59.988545 25292 net.cpp:338] cccp5 -> cccp5
I0907 10:30:59.988556 25292 net.cpp:113] Setting up cccp5
I0907 10:30:59.990481 25292 net.cpp:120] Top shape: 100 192 8 8 (1228800)
I0907 10:30:59.990496 25292 layer_factory.hpp:74] Creating layer relu_cccp5
I0907 10:30:59.990505 25292 net.cpp:84] Creating Layer relu_cccp5
I0907 10:30:59.990512 25292 net.cpp:380] relu_cccp5 <- cccp5
I0907 10:30:59.990522 25292 net.cpp:327] relu_cccp5 -> cccp5 (in-place)
I0907 10:30:59.990531 25292 net.cpp:113] Setting up relu_cccp5
I0907 10:30:59.990540 25292 net.cpp:120] Top shape: 100 192 8 8 (1228800)
I0907 10:30:59.990547 25292 layer_factory.hpp:74] Creating layer cccp6
I0907 10:30:59.990556 25292 net.cpp:84] Creating Layer cccp6
I0907 10:30:59.990563 25292 net.cpp:380] cccp6 <- cccp5
I0907 10:30:59.990573 25292 net.cpp:338] cccp6 -> cccp6
I0907 10:30:59.990584 25292 net.cpp:113] Setting up cccp6
I0907 10:30:59.991540 25292 net.cpp:120] Top shape: 100 100 8 8 (640000)
I0907 10:30:59.991559 25292 layer_factory.hpp:74] Creating layer relu_cccp6
I0907 10:30:59.991569 25292 net.cpp:84] Creating Layer relu_cccp6
I0907 10:30:59.991575 25292 net.cpp:380] relu_cccp6 <- cccp6
I0907 10:30:59.991583 25292 net.cpp:327] relu_cccp6 -> cccp6 (in-place)
I0907 10:30:59.991592 25292 net.cpp:113] Setting up relu_cccp6
I0907 10:30:59.991601 25292 net.cpp:120] Top shape: 100 100 8 8 (640000)
I0907 10:30:59.991608 25292 layer_factory.hpp:74] Creating layer pool3
I0907 10:30:59.991616 25292 net.cpp:84] Creating Layer pool3
I0907 10:30:59.991623 25292 net.cpp:380] pool3 <- cccp6
I0907 10:30:59.991631 25292 net.cpp:338] pool3 -> pool3
I0907 10:30:59.991641 25292 net.cpp:113] Setting up pool3
I0907 10:30:59.991652 25292 net.cpp:120] Top shape: 100 100 1 1 (10000)
I0907 10:30:59.991657 25292 layer_factory.hpp:74] Creating layer pool3_pool3_0_split
I0907 10:30:59.991669 25292 net.cpp:84] Creating Layer pool3_pool3_0_split
I0907 10:30:59.991679 25292 net.cpp:380] pool3_pool3_0_split <- pool3
I0907 10:30:59.991688 25292 net.cpp:338] pool3_pool3_0_split -> pool3_pool3_0_split_0
I0907 10:30:59.991701 25292 net.cpp:338] pool3_pool3_0_split -> pool3_pool3_0_split_1
I0907 10:30:59.991713 25292 net.cpp:113] Setting up pool3_pool3_0_split
I0907 10:30:59.991724 25292 net.cpp:120] Top shape: 100 100 1 1 (10000)
I0907 10:30:59.991731 25292 net.cpp:120] Top shape: 100 100 1 1 (10000)
I0907 10:30:59.991739 25292 layer_factory.hpp:74] Creating layer accuracy
I0907 10:30:59.991750 25292 net.cpp:84] Creating Layer accuracy
I0907 10:30:59.991757 25292 net.cpp:380] accuracy <- pool3_pool3_0_split_0
I0907 10:30:59.991765 25292 net.cpp:380] accuracy <- label_cifar_1_split_0
I0907 10:30:59.991773 25292 net.cpp:338] accuracy -> accuracy
I0907 10:30:59.991783 25292 net.cpp:113] Setting up accuracy
…
